azure-functions/PredictFuture/parking_model.pt (torch, 598227 bytes, 10 tensors)

rnn.weight_ih_l0 f4 [512, 1]
-0.032882 0.030333983 0.04384156 -0.0838855 -0.003783518 0.007825812 0.019297237 0.016574813
-0.041101202 0.034010667 -0.07470004 -0.037009127 -0.04424829 0.04238732 -0.026739908 0.059969217
-0.032796606 0.051499818 0.06594579 -0.035509136 -0.02688913 -0.028648535 -0.117490925 -0.10852379
-0.027412087 -0.026733734 0.056523513 -0.061260644 -0.044069245 0.010215972 -0.13635114 -0.045378927
0.011989869 -0.072520755 0.015020165 0.045461264 -0.043501385 0.033667058 -0.03620159 -0.06850964
0.08832537 -0.05604616 0.045598347 0.02352054 0.0059025083 -0.0031170803 -0.11292039 0.06783083
-0.06700042 -0.09989623 0.013746969 0.091287315 0.024125716 -0.059019238 0.020844763 0.094291225
0.07552884 -0.00015604749 0.0028128056 0.09195848 0.09538948 -0.07148446 0.055877995 -0.009692579
0.031452283 -0.013994439 0.0744924 -0.035557244 -0.045377217 0.13331221 0.11206608 -0.07949035
-0.028153995 0.017370166 -0.042868163 0.01002183 0.10986173 -0.11722809 -0.012128534 -0.11404807
0.1081834 -0.005519658 0.05857078 -0.0049555334 0.044206813 0.03750344 0.07664189 0.044854697
0.16758008 -0.08202971 0.024208507 -0.073139526 -0.0049094805 -0.016944133 0.099676505 0.011550229
0.09971399 -0.082045674 0.063642174 -0.011483749 -0.12137087 0.08557803 -0.10309722 -0.064451225
-0.11026825 0.039319225 -0.019174267 0.07370654 -0.0010418516 0.10958453 -0.059612706 -0.03107692
0.07385245 -0.034292 -0.08119423 0.05424859 -0.088140145 0.06859516 0.0045006527 0.11540958
0.100027524 0.063227415 0.11317529 -0.04339704 0.02922539 -0.14776127 -0.08974107 0.0086947605
-0.10996703 0.028289534 -0.09332712 -0.054838892 0.11840585 -0.0945435 0.020328164 -0.019796768
0.0530974 0.024697017 -0.12221136 0.09261817 -0.08505482 0.08210442 -0.06341724 0.068856865
0.031432934 -0.04606291 -0.03772291 -0.0696716 -0.014394721 0.032448094 -0.02339488 -0.14048459
0.046662908 -0.10430646 -0.025682848 0.10349252 0.04942396 0.0002368 -0.13502437 -0.12580982
0.09819736 -0.025343325 -0.037681296 -0.045879554 0.022353098 0.09017777 -0.08356664 0.028707014
0.082676366 -0.030109262 0.08752972 0.11840387 0.092158824 0.0163286 -0.11315625 -0.0068998137
-0.0098499 0.052522484 -0.0027505655 0.015512241 -0.10403879 -0.043853268 0.019001802 0.11497207
0.002735326 -0.090721354 -0.06317035 0.023625378 -0.0027148838 0.03776616 0.07399378 0.03913156
0.012769684 0.100401275 0.06377055 0.015442132 -0.024135971 0.13450247 0.078109376 -0.07348872
0.11404784 0.08689509 -0.05815861 0.03597603 0.09132052 -0.008098725 -0.0011922211 -0.0940253
-0.0065452214 -0.12218568 0.05308874 -0.015826348 0.06432496 0.113945484 0.09511048 -0.015753854
0.08644052 -0.004404101 -0.0059426394 0.03232758 -0.015858056 0.089110434 -0.0048066033 0.020888362
0.1393278 0.0040097106 0.00012991561 -0.024735643 0.018817034 0.03838686 -0.1232179 0.011557641
-0.09933663 0.06103084 0.007464127 0.044468947 -0.039261233 0.031093879 0.056397505 0.09694169
0.08657053 -0.0876699 0.027566433 -0.09389637 -0.012430259 0.08366876 0.10959624 0.030235108
0.12202034 0.06855935 -0.004941435 0.03342112 0.06833628 -0.055182323 -0.03623697 0.071652494
00000000: 47af 06bd f97e f83c 3593 333d 29cc abbd
00000010: e6f4 77bb d637 003c 3d15 9e3c e7c7 873c
00000020: bc59 28bd c54e 0b3d 56fc 98bd e296 17bd
00000030: b23d 35bd 549e 2d3d a70d dbbc 48a2 753d
00000040: bc55 06bd 79f1 523d 960e 873d 0772 11bd
00000050: 9846 dcbc 55b0 eabc 159f f0bd b941 debd
00000060: 508f e0bc b400 dbbc 3385 673d 71ec 7abd
00000070: f481 34bd e460 273c a29f 0bbe 41df 39bd
00000080: 2871 443c c385 94bd 2317 763c 9735 3a3d
00000090: 822e 32bd 78e6 093d 1e48 14bd c84e 8cbd
000000a0: eee3 b43d a990 65bd 55c5 3a3d 26ae c03c
000000b0: d469 c13b ee47 4cbb ce42 e7bd e4ea 8a3d
000000c0: 8437 89bd 6596 ccbd f83a 613c d8f4 ba3d
000000d0: 4ba3 c53c 28be 71bd a3c2 aa3c c21b c13d
000000e0: ddae 9a3d aea0 23b9 0c57 383b ba54 bc3d
000000f0: 8f5b c33d 7266 92bd 53e0 643d 9fcd 1ebc
00000100: 1cd4 003d ee48 65bc 798f 983d 79a4 11bd
00000110: 76dd 39bd ff82 083e e782 e53d d6cb a2bd
00000120: 35a3 e6bc e14b 8e3c 8796 2fbd 9a32 243c
00000130: 30ff e03d 4815 f0bd c2b6 46bc 0992 e9bd
00000140: 428f dd3d 3fde b4bb eae7 6f3d 0762 a2bb
00000150: 3412 353d 359d 193d 6cf6 9c3d 8fb9 373d
00000160: 1d9a 2b3e 31ff a7bd eb50 c63c 2dca 95bd
00000170: b5df a0bb 6cce 8abc 3223 cc3d 2c3d 3d3c
00000180: d936 cc3d 9007 a8bd d456 823d 5626 3cbc
00000190: 4a91 f8bd 8943 af3d a324 d3bd 01ff 83bd
000001a0: 52d4 e1bd 320d 213d 5a13 9dbc 74f3 963d
000001b0: bd8e 88ba db6d e03d 742c 74bd 0695 febc
000001c0: f43f 973d c575 0cbd 2949 a6bd c533 5e3d
000001d0: d282 b4bd 9f7b 8c3d 367a 933b dc5b ec3d
000001e0: 3bdb cc3d 607d 813d 72c8 e73d 18c1 31bd
000001f0: 166a ef3c bb4e 17be 2bca b7bd 7874 0e3c
00000200: 6536 e1bd 74bf e73c 4a22 bfbd bf9e 60bd
00000210: c47e f23d 06a0 c1bd 4087 a63c d52c a2bc
00000220: a97c 593d 6651 ca3c f349 fabd 98ae bd3d
00000230: 3931 aebd 5d26 a83d e6e0 81bd d404 8d3d
00000240: d2bf 003d 76ac 3cbd 5783 1abd fcaf 8ebd
00000250: d6d7 6bbc 4be8 043d 9fa6 bfbc 31db 0fbe
00000260: 9b21 3f3d a09e d5bd d664 d2bc e3f3 d33d
00000270: c770 4a3d 844d 7839 d443 0abe 4ad4 00be
00000280: b31b c93d ce9c cfbc b457 1abd 33ec 3bbd
00000290: d81d b73c 1faf b83d fd24 abbd f92a eb3c
000002a0: 3a52 a93d b3a7 f6bc c842 b33d ba7d f23d
000002b0: c4bd bc3d 8ec3 853c 77be e7bd d517 e2bb
000002c0: 7a61 21bc d121 573d d542 34bb 0e27 7e3c
000002d0: 4a12 d5bd 7c9f 33bd aba9 9b3c 7a76 eb3d
000002e0: 2843 333b 1ecc b9bd 755f 81bd 028a c13c
000002f0: 31ec 31bb b0b0 1a3d 0d8a 973d 6a48 203d
00000300: f037 513c 2f9f cd3d 229a 823d ff00 7d3c
00000310: cdb8 c5bc 04bb 093e cff7 9f3d 4181 96bd
00000320: ea91 e93d 0ef6 b13d b937 6ebd 9a5b 133d
00000330: 4106 bb3d 84b0 04bc 4d44 9cba 5690 c0bd
00000340: 4c79 d6bb 7c3c fabd 9473 593d 42a6 81bc
00000350: cebc 833d 405c e93d 49c9 c23d 3a0e 81bc
00000360: ba07 b13d 4750 90bb 79ba c2bb ed69 043d
00000370: c1e8 81bc 887f b63d b680 9dbb 121e ab3c
00000380: f2ab 0e3e e463 833b f539 0839 67a2 cabc
00000390: 2e26 9a3c 8a3b 1d3d ab59 fcbd 435c 3d3c
000003a0: 0171 cbbd 79fb 793d a395 f43b 1225 363d
000003b0: 63d0 20bd 97b8 fe3c 1201 673d 5d89 c63d
000003c0: e44b b13d 478c b3bd 00d3 e13c bd4c c0bd
000003d0: 49a8 4bbc 875a ab3d fe73 e03d 9eaf f73c
000003e0: cde5 f93d d868 8c3d c3eb a1bb 96e4 083d
000003f0: e4f3 8b3d dc06 62bd 386d 14bd 8bbe 923d

rnn.weight_hh_l0 f4 [512, 128]
0.10240363 -0.037523508 0.03727689 -0.065852575 -0.059722107 -0.0006597172 -0.0052803033 -0.06693013
-0.013760667 -0.016481642 0.045442816 -0.011026051 0.029072234 -0.07446647 -0.039404623 0.068158135
-0.004903538 0.0002143715 0.08949846 -0.06097748 -0.06532866 -0.037085786 -0.026479727 -0.04946434
0.04634931 0.079416595 -0.08020523 -0.022067154 -0.01777809 -0.09300387 0.047118682 0.009106469
-0.054509614 0.016586134 0.008877168 -0.1121734 -0.07299866 0.066724904 0.032606408 -0.06642798
-0.055864025 0.08196653 0.095962435 0.004800237 -0.059614863 0.083262265 -1.3045809e-05 -0.087895155
-0.12156495 -0.03949124 -0.0948052 0.049458098 -0.02405016 0.05600657 0.017937744 0.051209323
-0.089429855 -0.061444797 -0.06761739 0.03679313 0.07070752 -0.0971163 -0.11206027 0.05682318
0.012873964 -0.040012933 -0.053912148 0.015023 0.0016085827 -0.035260066 -0.09720455 -0.040516037
-0.03754254 -0.0026160781 0.03513279 -0.03441142 -0.01010562 -0.01640496 0.050780565 -0.07783599
-0.022499407 -0.12989847 0.044261813 -0.06577554 -0.082750045 -0.03602315 -0.05848938 0.00049881503
-0.06815056 -0.009227796 0.022540284 -0.081363544 -0.0814478 0.027607307 0.020528683 0.077820495
-0.0652378 -0.019317647 0.09472983 -0.06456275 -0.049529888 0.025857078 -0.08296027 0.025343522
0.034404617 0.009186784 -0.023532951 0.07145145 -0.11158182 -0.07898062 -0.04664066 0.032004856
-0.06859439 -0.014959337 0.09056846 0.04689985 0.049451053 0.0064840377 -0.10813085 -0.084829845
0.1142319 -0.07421706 0.031098576 0.07557302 0.021046842 0.0106425425 0.0842457 -0.004470027
-0.044799536 -0.09933726 0.045121614 0.03172648 -0.040188 0.045448992 -0.10353561 -0.011660375
-0.03362623 -0.027239066 -0.087774746 0.08409733 0.009236889 0.020101883 0.055600017 0.0252993
0.08710679 -0.05863908 0.082927406 -0.045841668 -0.06624967 -0.06857805 0.045174107 0.024232777
0.035220046 0.08772533 -0.014220824 -0.041202083 -0.009752686 0.0419518 0.07734346 0.035782125
-0.03495064 0.05612161 -0.0919113 -0.04680416 0.06529972 -0.011463383 -0.096591555 0.0923834
0.0019405349 -0.0582669 -0.0040503163 -0.027559964 0.01704153 -0.05626183 0.054194108 -0.05587897
-0.06808189 0.044024266 -0.094283834 -0.071272016 0.056624863 0.021841863 0.010894895 -0.056261953
0.044018093 0.047215577 0.019948553 -0.023515513 0.05233701 0.02172378 0.015989386 -0.06326805
-0.045023292 0.036323678 0.04371898 -0.07240184 -0.027768228 -0.037839495 0.01712604 -0.09367194
0.052979566 -0.051079277 -0.06437543 -0.0053944765 0.0747388 0.035441495 -0.05545322 0.028804135
0.05494206 -0.008448451 0.006200222 -0.060025807 0.079033256 -0.058317117 0.033870265 -0.034448657
-0.06492551 0.024519073 0.032215763 0.05633211 0.08908546 0.00020032955 -0.03793751 -0.052920885
-0.06095742 -0.107778534 -0.029713891 0.06936644 0.012318044 0.012099061 0.05286236 0.041953262
0.09396659 0.02086496 -0.0014099276 -0.036623932 -0.016522799 -0.019589135 -0.026145877 -0.03929699
-0.035981566 -0.09609876 -0.0067945756 0.00013991457 0.0032112056 -0.08119824 0.09268314 0.04595602
0.038420614 0.0053206114 -0.016974255 0.046754837 -0.030859949 -0.026414607 -0.025931401 0.04156983
00000000: ffb8 d13d 40b2 19bd a7af 183d b7dd 86bd
00000010: 2b9f 74bd dff0 2cba 6506 adbb aa12 89bd
00000020: 6c74 61bc 8204 87bc 3f22 3a3d 9ca6 34bc
00000030: e528 ee3c e081 98bd be66 21bd 7e96 8b3d
00000040: dcad a0bb e9c8 6039 f84a b73d 86c3 79bd
00000050: 08cb 85bd 44e7 17bd 03ec d8bc 1f9b 4abd
00000060: c6d8 3d3d 2ba5 a23d a442 a4bd 2dc6 b4bc
00000070: 5ba3 91bc d078 bebd 85ff 403d 4d33 153c
00000080: 7945 5fbd a5df 873c 8b71 113c 2bbb e5bd
00000090: 5280 95bd 11a7 883d 4c8e 053d 650b 88bd
000000a0: add1 64bd 11de a73d f487 c43d 4e4b 9d3b
000000b0: b72e 74bd 6885 aa3d 53df 5ab7 6002 b4bd
000000c0: 0bf7 f8bd 91c1 21bd 3b29 c2bd 9394 4a3d
000000d0: d704 c5bc 2567 653d 2df2 923c dec0 513d
000000e0: 0027 b7bd 8aad 7bbd fc7a 8abd 65b4 163d
000000f0: 1bcf 903d e9e4 c6bd db7f e5bd 6cbf 683d
00000100: 52ed 523c 9ae4 23bd fcd2 5cbd 0723 763c
00000110: 14d7 d23a dc6c 10bd 2e13 c7bd 25f4 25bd
00000120: 35c6 19bd 8272 2bbb 67e7 0f3d fdf2 0cbd
00000130: 0b92 25bc b263 86bc 48ff 4f3d 7a68 9fbd
00000140: ad50 b8bc 1b04 05be e04b 353d 54b5 86bd
00000150: db78 a9bd 038d 13bd 8f92 6fbd e9c2 023a
00000160: 8592 8bbd 2f30 17bc 67a6 b83c eea1 a6bd
00000170: 1bce a6bd b828 e23c c52b a83c 5a60 9f3d
00000180: 659b 85bd 0b40 9ebc b701 c23d 7a39 84bd
00000190: dadf 4abd 39d2 d33c 13e7 a9bd 389d cf3c
000001a0: dbeb 0c3d 2a84 163c 2dc8 c0bc 2355 923d
000001b0: 0285 e4bd 97c0 a1bd 470a 3fbd 8617 033d
000001c0: 377b 8cbd 0218 75bc f57b b93d 0f1a 403d
000001d0: 308d 4a3d 0d78 d43b b573 ddbd 45bb adbd
000001e0: 6af2 e93d 1dff 97bd 71c2 fe3c 07c6 9a3d
000001f0: 6d6a ac3c 0f5e 2e3c 0289 ac3d 4e79 92bb
00000200: b87f 37bd 5571 cbbd 71d1 383d a0f3 013d
00000210: 2c9c 24bd b928 3a3d 7a0a d4bd 280b 3fbc
00000220: a8bb 09bd 7624 dfbc 3fc3 b3bd 393b ac3d
00000230: 5256 173c b4ac a43c d8bc 633d 7a40 cf3c
00000240: 0b65 b23d 882f 70bd d8d5 a93d 79c4 3bbd
00000250: e8ad 87bd a672 8cbd 7c08 393d d183 c63c
00000260: e542 103d 56a9 b33d 76fe 68bc 84c3 28bd
00000270: bbc9 1fbc a7d5 2b3d 3f66 9e3d 4790 123d
00000280: 6728 0fbd c6df 653d fe3b bcbd b8b5 3fbd
00000290: dcbb 853d ead0 3bbc cbd1 c5bd 8233 bd3d
000002a0: 8c59 fe3a 46a9 6ebd 84b8 84bb 6fc5 e1bc
000002b0: ae9a 8b3c ce72 66bd a4fa 5d3d 59e1 64bd
000002c0: 856e 8bbd ca52 343d e217 c1bd 10f7 91bd
000002d0: 79ef 673d b5ed b23c 8080 323c ef72 66bd
000002e0: 514c 343d 1f65 413d 266b a33c 9ba3 c0bc
000002f0: 555f 563d 12f6 b13c 2cfc 823c ae92 81bd
00000300: 586a 38bd 23c8 143d ac12 333d 6a47 94bd
00000310: 327a e3bc 96fd 1abd e94b 8c3c 13d7 bfbd
00000320: 1a01 593d 8138 51bd 44d7 83bd 26c4 b0bb
00000330: a810 993d 1a2b 113d ea22 63bd a6f6 eb3c
00000340: ed0a 613d 5f6b 0abc 3b2b cb3b 9fdd 75bd
00000350: 30dc a13d eedd 6ebd 8cbb 0a3d 091a 0dbd
00000360: aaf7 84bd 39dc c83c adf4 033d 80bc 663d
00000370: 7072 b63d 8e0f 5239 5d64 1bbd 92c3 58bd
00000380: 7dae 79bd feba dcbd 8c6a f3bc fe0f 8e3d
00000390: 9fd1 493c 243b 463c 3486 583d 2fd7 2b3d
000003a0: 8e71 c03d feec aa3c 52cd b8ba fa02 16bd
000003b0: d25a 87bc 6579 a0bc e12f d6bc e1f5 20bd
000003c0: 6861 13bd 6dcf c4bd 08a5 debb 08b6 1239
000003d0: 1773 523b 434b a6bd a8d0 bd3d 613c 3c3d
000003e0: ef5e 1d3d 8658 ae3b 980d 8bbc 0082 3f3d
000003f0: 01ce fcbc 7263 d8bc 176e d4bc 2045 2a3d

rnn.bias_ih_l0 f4 [512]
0.06444742 0.035234787 0.022691574 0.045575902 0.08539717 0.0712511 0.02138985 -0.05201685
0.09800483 -0.026662936 0.07001256 -0.04318436 -0.06196119 0.026616296 0.016965413 -0.054771293
0.063238464 0.09332064 -0.061026502 0.024013031 -0.048727866 0.0333935 0.04891618 0.013774954
0.032687094 -0.06766002 0.0066681174 -0.08733654 0.03501611 -0.03810048 -0.010654573 -0.0676268
-0.013198666 0.03759389 0.02004508 -0.084035575 0.08407434 -0.039184973 0.1273445 -0.0017804749
0.045973737 -0.032829575 0.025827449 0.070455365 -0.0050013233 -0.036904763 0.037328735 0.048287477
0.008857271 -0.056819014 0.09288428 0.012097586 0.05612135 0.06737658 0.040040612 0.06078926
-0.08351508 0.13710594 0.03746011 -0.051389143 0.06270586 -0.018925892 0.015057633 0.063788064
0.039536778 0.020267405 -0.042877663 0.07799863 0.07485976 0.14135318 0.07248852 0.08984912
0.019217685 0.05891924 0.07584579 0.091318086 0.019941391 0.04661983 0.091829695 -0.06543424
0.07148825 0.10238864 0.0582391 -0.078588076 -0.05771527 -0.015731523 0.023319012 -0.043335248
-0.027012354 0.09464301 0.008688544 0.07399695 0.0018544951 0.07674247 0.00046444306 0.059531756
0.009227535 -0.022389008 0.034053784 0.091096774 -0.051699866 0.0166193 0.06866591 0.06792548
0.042695023 0.07880279 -0.08873733 -0.0011853477 0.016341466 -0.027636217 -0.078976125 -0.026702682
0.09115519 0.079892345 0.026081132 -0.012957705 0.09749334 0.096013 -0.011014214 0.0801843
0.024022847 -0.046888713 -0.016887981 -0.028900988 0.009253445 -0.07223144 -0.011291239 -0.04629653
0.011409655 -0.030451616 -0.005715258 0.031825613 0.094161645 -0.028462298 0.047055617 0.025177913
0.09755217 0.03659913 0.061726373 0.046421032 -0.051292647 0.0451713 0.07887518 -0.03299105
-0.05705249 0.033487685 0.050433792 -0.0046561146 -0.075874224 -0.064745314 0.07930998 -0.10599395
-0.024110112 0.02249055 -0.06552138 -0.009893416 -0.08683094 0.033726614 0.06401952 0.024036776
-0.030557802 0.010779192 -0.025769733 -0.027985794 0.022643417 -0.061234478 -0.00023764437 0.0027652855
-0.03090908 -0.006578653 0.0747471 -0.0048245024 0.03139396 0.081184864 -0.019894412 0.0718991
0.037837204 0.04174993 -0.005088401 0.009978853 -0.028758964 -0.05508324 -0.084908135 -0.07470474
-0.04392921 -0.050896127 -0.0044536004 -0.03180074 0.08760364 -0.046496253 0.060606703 -0.013764992
-0.045924567 0.043878958 0.05849466 -0.03520499 0.036346897 -0.010325909 0.099875726 0.020934097
-0.010744045 -0.040728666 0.02130765 -0.009043563 -0.06880979 -0.022216203 0.08546385 0.02076901
0.05414966 0.033298112 0.102745205 -0.037759703 0.0901157 -0.051896103 -0.05611161 0.036815796
0.08722497 -0.025469745 -0.021865549 0.07862202 0.02115164 0.045354042 0.052088555 -0.0727244
0.062562145 0.08925127 0.10660353 -0.056209996 0.09596868 -0.06602051 -0.029452149 -0.06791599
-0.03991196 -0.006556697 -0.020868927 0.090397604 -0.06464547 -0.0052943164 -0.020976888 -0.03180606
0.05276274 0.02673657 -0.011311843 -0.06262729 0.09464087 0.056910586 -0.037342343 -0.09385515
-0.046859756 -0.0055164443 -0.06530445 -0.087009974 0.07629092 -0.06076145 0.06845938 -0.028241206
00000000: 02fd 833d 5a52 103d aee3 b93c ccad 3a3d
00000010: b6e4 ae3d 19ec 913d c439 af3c 9f0f 55bd
00000020: c2b6 c83d 3b6c dabc bf62 8f3d 15e2 30bd
00000030: 04cb 7dbd 6b0a da3c 0dfb 8a3c dd57 60bd
00000040: 2b83 813d e41e bf3d edf6 79bd fab6 c43c
00000050: df96 47bd 9fc7 083d 555c 483d 58b0 613c
00000060: e7e2 053d 5691 8abd 3980 da3b 80dd b2bd
00000070: 0d6d 0f3d 400f 1cbd 8590 2ebc eb7f 8abd
00000080: 383f 58bc 0dfc 193d 9435 a43c d81a acbd
00000090: 2b2f ac3d 6c80 20bd 9966 023e d35e e9ba
000000a0: f54e 3c3d 4e78 06bd 1694 d33c e74a 903d
000000b0: 24e2 a3bb 7329 17bd 04e6 183d 17c9 453d
000000c0: 161e 113c 0ebb 68bd 1d3a be3d f434 463c
000000d0: 80df 653d bbfc 893d a001 243d 29fe 783d
000000e0: f409 abbd 8065 0c3e c66f 193d 6c7d 52bd
000000f0: ee6b 803d 790a 9bbc 4ab4 763c 51a3 823d
00000100: 51f1 213d d407 a63c 7da0 2fbd bfbd 9f3d
00000110: 1350 993d e3be 103e dc74 943d d102 b83d
00000120: 686e 9d3c 4d55 713d 0a55 9b3d fa04 bb3d
00000130: 215c a33c 6ff4 3e3d 3511 bc3d 6302 86bd
00000140: 6e68 923d 23b1 d13d 1f8c 6e3d c9f2 a0bd
00000150: d966 6cbd 65df 80bc 8307 bf3c 4d80 31bd
00000160: 0349 ddbc 32d4 c13d 655a 0e3c b78b 973d
00000170: 8812 f33a 282b 9d3d 7e80 f339 92d7 733d
00000180: 162f 173c 2769 b7bc fb7b 0b3d f290 ba3d
00000190: 3dc3 53bd 3325 883c b6a0 8c3d 841c 8b3d
000001a0: fae0 2e3d 5b63 a13d ebbb b5bd ab5d 9bba
000001b0: 8ade 853c 5965 e2bc 3cbe a1bd 95bf dabc
000001c0: 92af ba3d 999e a33d 19a8 d53c 8e4c 54bc
000001d0: 97aa c73d 77a2 c43d f674 34bc ab37 a43d
000001e0: 90cb c43c 610e 40bd aa58 8abc c4c1 ecbc
000001f0: c39b 173c 14ee 93bd e4fe 38bc 6ea1 3dbd
00000200: 90ef 3a3c ab75 f9bc 0f47 bbbb 935b 023d
00000210: d2d7 c03d c429 e9bc 64bd 403d e941 ce3c
00000220: 6fc9 c73d f8e8 153d cbd4 7c3d fb23 3e3d
00000230: 3d18 52bd 8b05 393d 4f89 a13d a021 07bd
00000240: dfaf 69bd 622a 093d aa93 4e3d 5292 98bb
00000250: f263 9bbd 3199 84bd 456d a23d 5b13 d9bd
00000260: 9282 c5bc 1a3e b83c 1330 86bd ff17 22bc
00000270: 6bd4 b1bd eb24 0a3d ab1c 833d c6e8 c43c
00000280: 5b54 fabc 359b 303c 0c1b d3bc 7742 e5bc
00000290: b07e b93c 01d1 7abd 2d30 79b9 cb39 353b
000002a0: 0a35 fdbc be91 d7bb 0215 993d dc16 9ebb
000002b0: f496 003d 4044 a63d 9bf9 a2bc d63f 933d
000002c0: 2ffb 1a3d f901 2b3d 9abc a6bb 587e 233c
000002d0: eb97 ebbc f79e 61bd 51e4 adbd ccfe 98bd
000002e0: 1eef 33bd 7578 50bd 82ef 91bb 7e41 02bd
000002f0: 8a69 b33d db72 3ebd bc3e 783d 9086 61bc
00000300: 661b 3cbd 6cba 333d 1998 6f3d 1c33 10bd
00000310: 7ce0 143d 002e 29bc a58b cc3d fc7d ab3c
00000320: ca07 30bc 1ad3 26bd 618d ae3c 742b 14bc
00000330: 26ec 8cbd c1fe b5bc ac07 af3d c523 aa3c
00000340: 09cc 5d3d 9a63 083d 146c d23d eba9 1abd
00000350: 958e b83d 0291 54bd 4ad5 65bd 29cc 163d
00000360: 01a3 b23d eda5 d0bc 611f b3bc 9504 a13d
00000370: 3446 ad3c 29c5 393d cf5a 553d 88f0 94bd
00000380: 9520 803d 5fc9 b63d f452 da3d 743c 66bd
00000390: 3a8b c43d c335 87bd a245 f1bc 8a17 8bbd
000003a0: b97a 23bd 90d9 d6bb 50f5 aabc 6122 b93d
000003b0: d864 84bd f27b adbb b9d7 abbc 1247 02bd
000003c0: be1d 583d a706 db3c 4f55 39bc bd42 80bd
000003d0: 13d3 c13d 131b 693d 49f4 18bd 2137 c0bd
000003e0: 04f0 3fbd 4ac3 b4bb 57be 85bd 4932 b2bd
000003f0: 6a3e 9c3d 00e1 78bd 6e34 8c3d 1a5a e7bc

rnn.bias_hh_l0 f4 [512]
-0.017541938 -0.064359784 0.027178515 0.00498712 -0.014582111 0.03909712 -0.040775094 0.06480325
0.10102286 0.05398277 0.006378217 0.052028082 0.026217228 0.048249684 -0.001884225 0.09441798
-0.025178904 0.05970298 -0.02250527 0.08926814 0.04749403 -0.04265943 0.046915185 -0.034450658
0.05407268 -0.07808843 -0.08883649 -0.06357473 0.022224985 -0.061615035 -0.015147185 0.058286246
-0.06355073 -0.05253085 -0.026311934 -0.06672581 0.0072545167 0.056352902 0.11142946 0.041437156
-0.021027325 -0.02831034 0.068934 -0.009489933 0.08727647 0.066625915 0.0901418 0.068420365
0.048920397 0.023540849 -0.0016484348 0.0012528832 -0.009700889 0.09393069 -0.034673247 -0.07592873
0.028740233 0.09044552 0.08373801 0.087055035 -0.038211048 0.025338193 0.05684176 0.05532633
0.03344836 0.021226497 0.03539859 -0.027489653 0.073434204 0.14259715 -0.026960371 0.07269716
-0.07641785 0.06225921 0.02222284 -0.06715946 -0.009081813 0.06743632 0.001415846 -0.05857967
0.024638658 0.009659765 -0.043422587 -0.000818558 -0.04003359 0.014863207 0.093875095 0.06639368
0.059958022 -0.07872124 0.08342175 0.05743255 0.023557615 0.055403903 -0.00036297846 0.08831918
-0.091745995 0.03245463 -0.037325017 0.07279426 0.054786388 0.041362684 -0.058212686 -0.066743
0.060994957 -0.009647807 -0.008602782 -0.003950142 -0.0060546705 -0.08311983 0.04459664 -0.015307283
-0.029749556 -0.04320056 0.03182532 0.051029935 -0.02847096 -0.033661272 0.007954128 -0.031726528
0.05341448 0.026386155 -0.0139405625 0.05497966 0.03916281 0.011159108 -0.049463056 0.08379703
-0.0035248229 -0.0477543 0.09465742 0.006585417 0.051323015 -0.0007929803 -0.023937624 -0.051898044
0.00018928762 -0.049073357 -0.07482315 -0.05818928 0.04711308 0.10359405 -0.03473272 0.060116783
0.041231632 0.08900312 0.05098809 -0.053972416 0.07697542 0.07612666 -0.013406949 0.012916927
0.028672962 -0.042226646 -0.008360883 0.027587 0.04551034 0.07374259 0.1321895 0.007113814
0.08405764 0.06618874 0.04593551 -0.017315634 0.056865577 0.07016317 0.16613664 0.082593866
-0.06679557 -0.055258587 -0.04212819 0.018104456 0.039011702 0.052755516 0.06220947 0.043947242
-0.054140233 0.015115305 -0.05288072 0.089584135 0.06551139 -0.03372338 -0.05079617 -0.0025801985
-0.07161707 0.014728128 -0.06548492 -0.037834976 0.07411912 -0.016465908 0.02415183 0.01334353
0.029486846 -0.024890378 -0.002546014 -0.019095851 0.043029588 0.030816395 0.06629973 0.038451746
0.021821458 0.048460435 0.014969723 0.08217017 -0.038150616 -0.04096252 0.101876065 -0.019494362
0.040515706 0.16317315 0.08202213 0.05148695 0.01626112 0.039762773 -0.026204258 -0.024252132
0.114681944 0.004693466 0.029099591 0.071341746 0.07505726 -0.045276135 -0.0037193396 -0.0060521206
0.08768256 0.034554355 0.078645594 0.0033650487 -0.038754623 0.0021003033 0.021543827 -0.000962901
0.0885795 0.06424248 0.042992372 0.026454277 0.106019996 0.086765826 0.018493142 -0.044157594
-0.018770834 -0.042818107 0.055037875 0.0796658 0.07133402 0.07710015 0.052878864 -0.06947637
0.08633352 -0.019147461 0.06885242 -0.05407325 0.12818114 -0.028636975 0.08790344 -0.03988983
00000000: 1cb4 8fbc 10cf 83bd 7aa5 de3c ff6a a33b
00000010: cee9 6ebc 4d24 203d c903 27bd 91b7 843d
00000020: 13e5 ce3d 091d 5d3d 5d00 d13b 661b 553d
00000030: 83c5 d63c 76a1 453d 1af8 f6ba 375e c13d
00000040: fd43 cebc 1d8b 743d f95c b8bc 37d2 b63d
00000050: 1a89 423d a8bb 2ebd 232a 403d 221c 0dbd
00000060: 517b 5d3d d4ec 9fbd e8ef b5bd 7833 82bd
00000070: 2c11 b63c 0c60 7cbd e62b 78bc 8fbd 6e3d
00000080: e326 82bd 972a 57bd 208c d7bc 8ba7 88bd
00000090: 4cb7 ed3b 4dd2 663d 2135 e43d 02ba 293d
000000a0: 7f41 acbc 16eb e7bc 452d 8d3d aa7b 1bbc
000000b0: 02be b23d 2b73 883d 449c b83d fa1f 8c3d
000000c0: c160 483d bdd8 c03c 4b10 d8ba c937 a43a
000000d0: 7af0 1ebc bc5e c03d 8905 0ebd 8680 9bbd
000000e0: a370 eb3c 803b b93d d57e ab3d e949 b23d
000000f0: 3083 1cbd 0b92 cf3c e8d2 683d dd9d 623d
00000100: 2601 093d 31e3 ad3c 1dfe 103d fb31 e1bc
00000110: ac64 963d fd04 123e ffdb dcbc 40e2 943d
00000120: f680 9cbd 8303 7f3d ac0c b63c e68a 89bd
00000130: e2cb 14bc 0e1c 8a3d e993 b93a 3cf1 6fbd
00000140: 03d7 c93c fe43 1e3c e2db 31bd 7f94 56ba
00000150: 43fa 23bd cf84 733c 9641 c03d 69f9 873d
00000160: 8b96 753d 9a38 a1bd 06d9 aa3d 653e 6b3d
00000170: e6fb c03c 34ef 623d 254e beb9 b0e0 b43d
00000180: 53e5 bbbd 25ef 043d 1ee2 18bd 2815 953d
00000190: b167 603d eb6b 293d 6d70 6ebd 8eb0 88bd
000001a0: d9d5 793d d611 1ebc aff2 0cbc 3170 81bb
000001b0: 4266 c6bb bb3a aabd f7aa 363d 66cb 7abc
000001c0: 57b5 f3bc 12f3 30bd 445b 023d c404 513d
000001d0: ee3b e9bc 67e0 09bd 0852 023c adf3 01bd
000001e0: 24c9 5a3d c727 d83c f566 64bc 5a32 613d
000001f0: 2f69 203d b1d4 363c c699 4abd c79d ab3d
00000200: b700 67bb 039a 43bd c0db c13d 7bca d73b
00000210: 1538 523d 02e0 4fba d618 c4bc 0b93 54bd
00000220: 827b 4639 2501 49bd e13c 99bd e257 6ebd
00000230: a5f9 403d 1e29 d43d e643 0ebd 043d 763d
00000240: 80e2 283d 4547 b63d e3d8 503d 2e12 5dbd
00000250: 4aa5 9d3d 4be8 9b3d d2a8 5bbc 85a1 533c
00000260: 8fe3 ea3c d9f5 2cbd 16fc 08bc 22fe e13c
00000270: 0d69 3a3d 5b06 973d af5c 073e ff1a e93b
00000280: 6926 ac3d f68d 873d e026 3c3d 84d9 8dbc
00000290: e1eb 683d b5b1 8f3d b91f 2a3e f926 a93d
000002a0: 1ecc 88bd d456 62bd 9c8e 2cbd cc4f 943c
000002b0: bcca 1f3d 2b16 583d 5bcf 7e3d 0602 343d
000002c0: 26c2 5dbd 2fa6 773c 7499 58bd e377 b73d
000002d0: d62a 863d 8721 0abd a50f 50bd 8c18 29bb
000002e0: f8ab 92bd 3f4e 713c f51c 86bd d9f8 1abd
000002f0: c4cb 973d 83e3 86bc 0fda c53c d29e 5a3c
00000300: 668e f13c e8e6 cbbc 07db 26bb e76e 9cbc
00000310: cb3f 303d aa72 fc3c 27c8 873d 947f 1d3d
00000320: eac2 b23c 737e 463d 9243 753c d648 a83d
00000330: d243 1cbd 51c8 27bd 66a4 d03d a4b2 9fbc
00000340: ccf3 253d dd16 273e 38fb a73d fbe3 523d
00000350: 0a36 853c 4ade 223d 50aa d6bc 68ac c6bc
00000360: 5ede ea3d a5cb 993b 4462 ee3c 9f1b 923d
00000370: 9fb7 993d 7873 39bd 2ac0 73bb de50 c6bb
00000380: ea92 b33d de88 0d3d f110 a13d 2688 5c3b
00000390: 2bbd 1ebd 3ea5 093b ae7c b03c 316b 7cba
000003a0: 2b69 b53d 9091 833d c518 303d a4b6 d83c
000003b0: 0321 d93d 48b2 b13d ee7e 973c 98de 34bd
000003c0: 4bc5 99bc 0a62 2fbd 656f 613d d327 a33d
000003d0: 9217 923d afe6 9d3d 8297 583d a149 8ebd
000003e0: a1cf b03d 23db 9cbc 7f02 8d3d ea7b 5dbd
000003f0: eb41 033e 1798 eabc b806 b43d 8563 23bd

fc1.weight f4 [128, 413]
0.023007115 0.03598049 0.0076020327 -0.029976415 0.025553405 0.02277093 0.01359295 -0.031799246
-0.030885763 0.005178452 -0.011927842 -0.0083415955 -0.0004511102 0.006063917 -0.007207468 -0.035040822
-0.06794083 -0.017493995 -0.014787707 -0.008080075 0.009638474 -0.0013189839 -0.027745897 0.0009806581
0.02266324 0.058808666 0.024906542 -0.0120392535 -0.04831263 -0.054088827 -0.02807285 0.011031224
-0.0016638327 -0.02065942 0.05119129 -0.03290534 -0.016446494 -0.03121785 -0.027784042 0.013732719
-0.050224412 -0.023038775 -0.067159116 0.047403693 -0.043061595 0.0002570897 -0.0477368 -0.010507923
-0.012745062 -0.059219025 0.011384654 0.041466795 -0.06681273 0.021951944 0.061001837 -0.058672663
-0.058358505 -0.10647336 0.036809135 0.033942334 0.042848643 0.026692174 0.03169439 -0.0005926861
-0.017010367 0.048901625 -0.0364413 -0.059987996 -0.010381094 0.05362976 0.03275098 0.0029485004
0.026056448 -0.065608084 0.061804533 -0.02386318 -0.011042419 0.027598556 0.040565904 -0.03790248
0.050843567 0.008666222 0.025625069 0.009875705 0.018510384 0.010240378 -0.013799525 -0.011107391
0.0777352 0.023994673 -0.07503538 0.033461552 0.015587365 -0.034645997 0.017445492 -0.051277317
-0.02568275 0.06706604 0.09766963 -0.036548972 -0.021953344 -0.006523775 -0.048411172 0.050986547
0.028346958 0.029108897 0.028094217 0.0430164 -0.06465466 9.8677076e-05 -0.013418634 0.025961809
0.057725057 -0.046127398 0.008307839 -0.05129936 -0.04157572 0.07067785 0.022784391 -0.023746677
-0.002919853 0.015757846 -0.028731786 -0.017708007 0.015949467 -0.061442364 0.037568368 0.050117537
0.00846379 -0.0074959905 0.044503536 0.009604272 -0.06981579 0.1376758 0.05275172 -0.07310068
-0.012436082 -0.026160147 -0.031063106 0.055916876 0.041456472 0.03193398 -0.046030886 -0.110787354
0.012037845 0.006602814 0.083414145 -0.046034127 -0.057246942 0.030990375 -0.046090357 0.0526402
0.06783105 -0.13625902 -0.00028221752 0.008865639 0.059211753 0.06148275 0.016675198 -0.05686972
-0.06659799 -0.12534884 -0.020322394 -0.11370577 -0.04217972 -0.034090295 0.06907156 -0.068578094
0.07885024 0.016654298 0.10436669 -0.07190027 -0.006605476 -0.03130884 0.009635536 0.066077225
-0.18162484 -0.097199336 0.05007271 0.023472238 0.039988797 0.005679868 -0.09576312 0.031070312
0.019213665 0.04087019 0.027009029 0.019268017 -0.024046872 -0.18002589 -0.057904825 -0.01194128
-0.038123783 -0.123867564 0.047717303 -0.07825106 0.06175196 -0.022761585 -0.06680564 -0.064493015
-0.029706 0.053525828 -0.08819378 -0.13064258 0.03130432 0.024871832 0.030224347 -0.12604612
0.009692312 -0.09068393 -0.19546105 0.0019318643 0.009172096 -0.07696702 -0.09321192 0.010832633
-0.023741601 -0.07548983 0.010958101 -0.1096189 0.016075239 0.094615296 -0.124432705 -0.03057813
-0.1857528 0.050085448 -0.17302099 -0.08732199 0.02400693 -0.009531915 -0.10335941 0.06737661
0.004068812 0.063628554 0.036536284 0.0022262307 0.0698151 -0.030317921 -0.052697316 -0.002839889
-0.058141075 -0.09110057 0.025267351 0.037589233 0.010289549 0.031076394 0.017490327 -0.084925905
0.030081762 -0.14991708 0.008276907 -0.017792601 0.025727104 -0.02730036 0.10174462 0.025335193
00000000: 6b79 bc3c 4760 133d 791a f93b 1991 f5bc
00000010: 6055 d13c 1a8a ba3c f7b4 5e3c ed3f 02bd
00000020: 2404 fdbc 01b0 a93b ff6c 43bc 30ab 08bc
00000030: fc82 ecb9 d3b3 c63b a02c ecbb f786 0fbd
00000040: 9024 8bbd 914f 8fbc 2348 72bc 4a62 04bc
00000050: b1ea 1d3c c1e1 acba 5d4b e3bc 6d89 803a
00000060: 42a8 b93c 5be1 703d ce08 cc3c 4a40 45bc
00000070: 77e3 45bd 3f8c 5dbd 09f9 e5bc 4fbc 343c
00000080: f614 daba f23d a9bc f5ad 513d c0c7 06bd
00000090: ccba 86bc 94bc ffbc 5c9b e3bc 33ff 603c
000000a0: 1db8 4dbd d0bb bcbc b88a 89bd 602a 423d
000000b0: 5b61 30bd ffc9 8639 aa87 43bd 6c29 2cbc
000000c0: aad0 50bc a68f 72bd b386 3a3c 16d9 293d
000000d0: 1dd5 88bd 90d4 b33c 10dd 793d bf52 70bd
000000e0: 5409 6fbd b40e dabd 2dc5 163d 1e07 0b3d
000000f0: 0f82 2f3d 8ca9 da3c fad1 013d 7e5e 1bba
00000100: 5359 8bbc 124d 483d 7943 15bd f9b5 75bd
00000110: 7715 2abc e1aa 5b3d e425 063d a13b 413b
00000120: 5574 d53c 885d 86bd c026 7d3d b77c c3bc
00000130: 43eb 34bc 5e16 e23c 6f28 263d a23f 1bbd
00000140: 5841 503d c5fc 0d3c aaeb d13c b5cd 213c
00000150: 17a3 973c 42c7 273c 6717 62bc c6fb 35bc
00000160: a233 9f3d 7a90 c43c 26ac 99bd fb0e 093d
00000170: 2662 7f3c f6e8 0dbd d9e9 8e3c 2a08 52bd
00000180: a164 d2bc ec59 893d 0407 c83d 60b4 15bd
00000190: 80d7 b3bc 64c5 d5bb cb4a 46bd 45d7 503d
000001a0: e137 e83c c875 ee3c d825 e63c f731 303d
000001b0: aa69 84bd daf0 ce38 d5d9 5bbc dcad d43c
000001c0: 1c71 6c3d 15f0 3cbd 9a1d 083c 471f 52bd
000001d0: 4d4b 2abd 8cbf 903d 55a6 ba3c 6488 c2bc
000001e0: 015b 3fbb 9916 813c ec5e ebbc 6210 91bc
000001f0: 75a8 823c fdaa 7bbd 4ae1 193d 0c48 4d3d
00000200: b5ab 0a3c eda0 f5bb 5749 363d 3d5b 1d3c
00000210: 95fb 8ebd e3fa 0c3e 3012 583d cfb5 95bd
00000220: b5c0 4bbc ce4d d6bc 0e78 febc 1809 653d
00000230: 43ce 293d 34cd 023d e28a 3cbd 7be4 e2bd
00000240: 623a 453c 6b5c d83b 09d5 aa3d 488e 3cbd
00000250: c57b 6abd 87df fd3c 3ec9 3cbd 409d 573d
00000260: 01eb 8a3d 7c87 0bbe 98f6 93b9 2f41 113c
00000270: 0688 723d 56d5 7b3d 6d9a 883c 39f0 68bd
00000280: 8764 88bd 725b 00be 267b a6bc 92de e8bd
00000290: a4c4 2cbd 44a2 0bbd 6475 8d3d ac72 8cbd
000002a0: 3c7c a13d 986e 883c 34be d53d 7340 93bd
000002b0: c072 d8bb b33d 00bd 5ede 1d3c 7f53 873d
000002c0: ddfb 39be 7210 c7bd 0b19 4d3d da48 c03c
000002d0: 4bcb 233d 301e ba3b 741f c4bd 2b87 fe3c
000002e0: fa65 9d3c 8067 273d 0a42 dd3c f6d7 9d3c
000002f0: f2fd c4bc b558 38be 9c2d 6dbd 5ca5 43bc
00000300: af27 1cbd 47ae fdbd 3873 433d 1742 a0bd
00000310: a0ef 7c3d 8176 babc 65d1 88bd ea14 84bd
00000320: ff59 f3bc e63d 5b3d f19e b4bd 2bc7 05be
00000330: f538 003d 03c0 cb3c 0d99 f73c 3c12 01be
00000340: 81cc 1e3c 7fb8 b9bd f126 48be 9c36 fd3a
00000350: 8f46 163c e3a0 9dbd e4e5 bebd 5b7b 313c
00000360: bf7d c2bc 699a 9abd 9b89 333c e07f e0bd
00000370: 38b0 833c aac5 c13d 93d6 febd fd7e fabc
00000380: fb35 3ebe 6626 4d3d 6a2c 31be dfd5 b2bd
00000390: 2eaa c43c c02b 1cbc 19ae d3bd c0fc 893d
000003a0: ab53 853b b04f 823d 12a7 153d f4e5 113b
000003b0: 38fb 8e3d 4a5d f8bc 24d9 57bd 6e1d 3abb
000003c0: 5625 6ebd f092 babd 7afd ce3c 2bf7 193d
000003d0: 7f95 283c ec93 fe3c e047 8f3c a2ed adbd
000003e0: 076e f63c dd83 19be dd9b 073c cac1 91bc
000003f0: a6c1 d23c 01a5 dfbc 7c5f d03d c08b cf3c

fc1.bias f4 [128]
-0.010678747 -0.014064408 0.013198328 -0.03406353 -0.046542317 0.052528817 -0.019590834 0.0066011036
0.0403621 0.041172553 0.011217797 -0.023099931 0.030469421 0.014686051 0.04233926 -0.0050985757
0.06891133 -0.031768057 0.05019079 -0.025690245 0.012455255 0.015660686 0.005918573 0.022787988
0.045243826 -0.022798335 -0.028802183 0.00605752 0.006782793 -0.01200775 0.076198265 -0.007662375
0.04576672 0.044531178 -0.010073141 0.021038212 0.039666213 0.0014736512 0.004904916 0.023876134
0.015973842 -0.008610836 -0.010176396 -0.02716503 -0.07364981 0.0621455 -0.0273416 -0.009523642
0.030302698 0.019647947 -0.022978814 -0.022484811 0.044685494 -0.02974365 -0.04107481 -0.0251539
0.015144038 -0.009113317 0.025316155 -0.057942774 0.017442277 0.025868325 -0.009571273 0.059465878
0.008816065 0.015183939 0.04132605 0.03813729 0.007455815 0.04605092 -0.017884426 0.050363723
-0.019319324 0.06693975 0.015581319 -0.0029431523 -0.01758009 0.05342663 -0.017782249 0.0051481496
0.014043124 0.038268972 -0.007880693 -0.02910987 -0.024031818 0.01645423 0.0094124805 0.013852399
-0.03359823 0.02162498 0.09494038 -0.027246851 0.057742633 0.0097085675 0.011147966 0.05932015
0.0031723238 -0.005663593 0.0001625134 0.010669372 -0.008415155 0.08663267 0.041552767 -0.06352825
0.048750542 -0.0288503 0.04152275 -0.017285148 0.03774462 0.0019927926 -0.030188099 0.04921034
0.06076974 0.052077163 0.055795584 0.031873476 0.02267069 0.0274541 0.025238626 -0.0057469155
0.0038361875 -0.03332187 0.053529903 -0.038750835 0.057489228 -0.058374837 2.0479314e-05 -0.00468657
00000000: e9f5 2ebc 676e 66bc cd3d 583c 3386 0bbd
00000010: 28a3 3ebd 7528 573d f57c a0bc 124e d83b
00000020: bb52 253d 8da4 283d daca 373c 113c bdbc
00000030: 029b f93c c39d 703c ef6b 2d3d f411 a7bb
00000040: 6221 8d3d 391f 02bd dc94 4d3d 5974 d2bc
00000050: 2011 4c3c d74a 803c 97f0 c13b e0ad ba3c
00000060: 9751 393d 93c3 babc 8ef2 ebbc 297e c63b
00000070: 3142 de3b 27bc 44bc d60d 9c3d a914 fbbb
00000080: e275 3b3d 5366 363d d109 25bc 5458 ac3c
00000090: 0a79 223d 8727 c13a 6bb9 a03b e297 c33c
000000a0: 93db 823c 7714 0dbc e6ba 26bc 3289 debc
000000b0: b6d5 96bd 488c 7e3d 7efb dfbc 0d09 1cbc
000000c0: 5d3d f83c bbf4 a03c 113e bcbc 1132 b8bc
000000d0: 2308 373d f5a8 f3bc 0f3e 28bd 8d0f cebc
000000e0: b31e 783c 0650 15bc d363 cf3c 6755 6dbd
000000f0: 1be3 8e3c cfe9 d33c d4d0 1cbc 7e92 733d
00000100: 4271 103c 0ec6 783c 8145 293d d935 1c3d
00000110: e94f f43b e49f 3c3d 5c82 92bc 314a 4e3d
00000120: 8f43 9ebc b517 893d ca48 7f3c e7e1 40bb
00000130: 1f04 90bc e2d5 5a3d 14ac 91bc cfb1 a83b
00000140: 2215 663c edbf 1c3d 061e 01bc d277 eebc
00000150: 60de c4bc 05cb 863c ce36 1a3c 2cf5 623c
00000160: 4c9e 09bd df26 b13c 1a70 c23d ca34 dfbc
00000170: 8a83 6c3d af10 1f3c f5a5 363c b0f9 723d
00000180: c3e6 4f3b a995 b9bb 5c68 2a39 97ce 2e3c
00000190: b8df 09bc 786c b13d 3c33 2a3d 191b 82bd
000001a0: a6ae 473d 7757 ecbc c213 2a3d 9599 8dbc
000001b0: 1a9a 1a3d 8399 023b 084d f7bc c890 493d
000001c0: b1e9 783d dd4e 553d e989 643d c38d 023d
000001d0: e2b7 b93c 6ce7 e03c 3cc1 ce3c 9f50 bcbb
000001e0: 8c68 7b3b 837c 08bd 2c42 5b3d 32b9 1ebd
000001f0: d379 6b3d 741a 6fbd feca ab37 cc91 99bb

fc2.weight f4 [128, 128]
-0.04664009 0.0051760864 0.16648835 -0.029108366 -0.07173693 0.06477924 0.040380683 -0.07095074
-0.04198611 -0.038042475 -0.10147241 0.07016816 -0.074253 0.11818623 -0.06357767 0.03075404
0.07600701 0.061957464 0.049939588 0.019931307 0.06629285 -0.022884334 0.101997584 0.07748225
0.0564052 -0.0070908186 -0.1000423 0.09615967 -0.10958343 -0.2511406 0.07617085 0.02694708
0.021002343 0.052198008 -0.09758404 -0.062761605 0.075915694 0.14624107 0.020441376 0.01639669
0.04395889 0.009026425 -0.14468412 -0.0030052112 0.12289102 0.010925205 -0.017388081 0.101384826
0.08616667 0.054936584 0.023542993 -0.08270748 0.11850197 0.026283737 0.13384919 -0.08934372
0.013731782 0.08324466 -0.0757948 -0.15095061 0.059687164 -0.05389619 -0.028204381 0.101482406
-0.04155594 -0.18732297 -0.016737038 -0.00049348193 0.11462996 0.032727957 0.03203952 -0.008877425
0.07135481 -0.03263472 0.11489406 0.13605547 -0.075094245 -0.11410139 0.06611995 -0.06816071
-0.058139294 -0.031024031 0.038585473 0.014882531 0.053992826 -0.0370727 -0.0024372563 -0.08392892
-0.031040475 -0.042620745 0.07636612 0.036920346 0.07592386 -0.07911321 -0.031155752 -0.101045035
0.06881868 0.11985944 -0.032618854 -0.012392898 0.068153895 -0.12160713 -0.047443993 0.1441475
0.046085577 0.029686205 -0.072087236 0.098687604 0.036251858 0.118893296 -0.0669901 -0.042885307
0.113168366 0.001927259 0.11692186 0.01563933 -0.08382838 -0.03344114 0.01741412 -0.020587267
-0.011938226 -0.017695526 0.011770027 -0.05789151 -0.033951174 -0.04051794 0.118739225 0.12086139
-0.05474571 0.060948353 -0.094435096 0.15738304 -0.13024521 -0.016933495 0.26398018 -0.0038012974
0.15491298 0.0009123236 0.08823141 -0.048303265 0.012639149 0.029440159 -0.027332535 -0.034139868
-0.045326006 0.05835563 -0.022815628 -0.22867882 0.011469003 -0.072578385 -0.05106872 0.014177858
0.08896298 0.099884674 0.056075465 -0.23673177 0.22868372 -0.06371887 0.055312656 -0.07396404
-0.08382211 0.023551421 0.15908995 -0.061446458 0.08991878 0.074929796 0.021941239 -0.044994645
-0.037290476 -0.04478199 0.15856478 -0.034431636 -0.105242334 -0.02259724 0.14981276 0.032665957
-0.05714525 0.014500531 -0.17491399 -0.02910682 -0.3388012 -0.018959397 0.025920454 0.0016132989
-0.13473217 -0.091720425 -0.035919182 0.08286836 -0.084019884 -0.043748133 0.15365343 -0.11442624
0.084695525 0.08024562 -0.043737806 0.089500576 0.0025312663 -0.19877742 -0.0027468968 0.06580931
-0.09632498 0.06315305 0.045067307 -0.013836635 0.006975212 -0.0109306825 0.2266412 0.050801847
0.091122165 -0.014659949 0.08530165 0.1390333 -0.06593128 -0.012036027 -0.07085858 0.058367357
-0.052909646 -0.047083795 -0.06888508 0.050833695 0.029286696 0.057390854 0.056314208 0.10185551
-0.052181806 0.11328547 0.22262968 0.0769198 0.08487254 -0.0062776757 0.054577474 -0.10517996
0.07203459 -0.059206016 0.07506133 -0.2576488 -0.023633074 0.013587955 0.08020569 0.17504096
0.043542933 0.027474023 0.0030519497 0.04141149 0.06759244 -0.011676312 -0.03109881 0.006012624
0.06572908 0.09777978 -0.013289211 -0.10982931 0.07515577 0.38164666 0.04442608 -0.05849186
00000000: ae09 3fbd 299c a93b ec7b 2a3e ab74 eebc
00000010: d0ea 92bd faaa 843d 3766 253d 9f4e 91bd
00000020: a1f9 2bbd 6dd2 1bbd c4d0 cfbd 53b4 8f3d
00000030: f511 98bd 9f0b f23d 0235 82bd e6ef fb3c
00000040: 90a9 9b3d 1cc7 7d3d 748d 4c3d fb46 a33c
00000050: 8cc4 873d ed77 bbbc 1ce4 d03d 04af 9e3d
00000060: 2409 673d 195a e8bb fae2 ccbd 5cef c43d
00000070: 476d e0bd 8095 80be 76ff 9b3d 1fc0 dc3c
00000080: 1b0d ac3c 94cd 553d 24da c7bd 2889 80bd
00000090: b079 9b3d 38c0 153e ac74 a73c 5a52 863c
000000a0: 3d0e 343d 92e3 133c 1328 14be 14f3 44bb
000000b0: 49ae fb3d a2ff 323c 7371 8ebc d9a2 cf3d
000000c0: 2778 b03d 2f05 613d 3cdd c03c 8a62 a9bd
000000d0: 29b1 f23d fe50 d73c c30f 093e d7f9 b6bd
000000e0: 45fb 603c 2d7c aa3d 4e3a 9bbd cc92 1abe
000000f0: 877a 743d 40c2 5cbd e00c e7bc 02d6 cf3d
00000100: 9036 2abd 98d1 3fbe 1d1c 89bc 035d 01ba
00000110: 1dc3 ea3d c00d 063d df3b 033d 9f72 11bc
00000120: 7822 923d fcab 05bd 944d eb3d 2052 0b3e
00000130: 03cb 99bd fdad e9bd e569 873d d897 8bbd
00000140: 7823 6ebd 1c26 febc cd0b 1e3d dcd5 733c
00000150: 9527 5d3d 8bd9 17bd 60ba 1fbb ede2 abbd
00000160: 9848 febc 1793 2ebd d765 9c3d ca39 173d
00000170: f87d 9b3d 1b06 a2bd 593a ffbc b3f0 cebd
00000180: cff0 8c3d de78 f53d 599b 05bd 950b 4bbc
00000190: 4594 8b3d 290d f9bd a254 42bd 679b 133e
000001a0: 3bc4 3c3d 7c30 f33c 79a2 93bd ba1c ca3d
000001b0: d47c 143d 547e f33d 1b32 89bd 81a8 2fbd
000001c0: d1c4 e73d 159c fc3a ba74 ef3d 0d1e 803c
000001d0: 37ae abbd 94f9 08bd 0ea8 8e3c a1a6 a8bc
000001e0: 8d98 43bc 35f6 90bc 12d7 403c a61f 6dbd
000001f0: 6310 0bbd 24f6 25bd 8d2d f33d 2d86 f73d
00000200: 0a3d 60bd fba4 793d 3067 c1bd 0529 213e
00000210: 005f 05be 1db8 8abc 6928 873e 301f 79bb
00000220: 82a1 1e3e 0029 6f3a abb2 b43d a5d9 45bd
00000230: 6f14 4f3c 7d2c f13c 7be8 dfbc 3fd6 0bbd
00000240: c3a7 39bd 5006 6f3d d7e7 babc c82a 6abe
00000250: 7ce8 3b3c faa3 94bd 6f2d 51bd 3f4a 683c
00000260: 3932 b63d 5690 cc3d 63af 653d d069 72be
00000270: 112c 6a3e 0a7f 82bd 868f 623d 757a 97bd
00000280: edaa abbd e9ee c03c 7ae8 223e 48af 7bbd
00000290: 5627 b83d cb74 993d 1dbe b33c 4e4c 38bd
000002a0: e6bd 18bd 526d 37bd ce5e 223e 3008 0dbd
000002b0: 4b89 d7bd d91d b9bc 8468 193e bdcc 053d
000002c0: 2311 6abd a393 6d3c a71c 33be 6d71 eebc
000002d0: 5a77 adbe bd50 9bbc 2257 d43c 5475 d33a
000002e0: 3bf7 09be ebd7 bbbd fe1f 13bd e3b6 a93d
000002f0: 9e12 acbd 3e31 33bd 5357 1d3e 4e58 eabd
00000300: d974 ad3d d157 a43d 6a26 33bd 144c b73d
00000310: 9ae3 253b 4f8c 4bbe 4805 34bb 08c7 863d
00000320: 0846 c5bd 6356 813d 7f98 383d 0eb3 62bc
00000330: 5290 e43b 9b16 33bc a114 683e 9915 503d
00000340: 429e ba3d 4830 70bc a2b2 ae3d bf5e 0e3e
00000350: fb06 87bd c232 45bc 4e1e 91bd 9c12 6f3d
00000360: c9b7 58bd f0da 40bd 9f13 8dbd fe36 503d
00000370: a7ea ef3c ac12 6b3d baa9 663d 9f99 d03d
00000380: 97bc 55bd 3602 e83d 09f9 633e 2188 9d3d
00000390: a7d1 ad3d f6b4 cdbb a18c 5f3d 9768 d7bd
000003a0: df86 933d 0282 72bd c1b9 993d 8bea 83be
000003b0: 269a c1bc 04a0 5e3c e142 a43d f03d 333e
000003c0: 135a 323d 3411 e13c 3803 483b 189f 293d
000003d0: e86d 8a3d 014e 3fbc eec2 febc 8c05 c53b
000003e0: f89c 863d c440 c83d feba 59bc 30ee e0bd
000003f0: 45eb 993d 3167 c33e 1ff8 353d 2995 6fbd

fc2.bias f4 [128]
0.10738242 -0.06616956 -0.027820483 0.0070681702 -0.052849527 -0.048776686 0.07826615 0.047312886
0.05497051 0.046998113 -0.05957754 -0.008473869 0.04993599 -0.06527738 -0.08581607 0.106771
0.045573976 -0.08147451 0.06290016 0.07156093 0.1201683 0.036591064 0.0063467943 0.030319529
0.012289364 0.1168878 0.077473104 0.029149741 -0.09573993 0.089271255 0.06364956 0.10297477
0.06338852 0.08517496 0.09521079 -0.05480561 0.05339194 0.10121207 0.0099740755 0.010678106
0.06285729 -0.026659396 0.11720539 0.095439814 0.039037533 -0.01167994 -0.08193396 -0.0332246
-0.0024146542 0.03669822 0.010527782 -0.008270349 -0.021866318 0.0307894 -0.014947202 0.0071467557
-0.009498107 -0.02987356 0.0058900407 -0.045586407 0.02177244 -0.062130585 0.042676687 0.08009309
0.069119856 0.06739102 0.049660422 0.10802414 0.05580411 0.027827235 0.06840112 0.050750535
0.07146213 -0.013754117 -0.064132646 -0.012640792 0.018929087 -0.14996226 0.043531854 0.08188331
-0.033650264 0.03183103 0.049401786 0.07158026 -0.020077001 0.081265 0.010384532 0.06446958
-0.036929898 0.07445854 0.055787385 -0.03199594 0.06571815 -0.0064973803 -0.03435086 -0.046664
-0.051950917 0.08966282 0.07120143 0.045361243 -0.09278023 -0.054115597 0.087047696 0.016343296
-0.04172118 -0.07253841 -0.028257323 0.0173228 -0.07321344 0.08548796 -0.09908467 0.019546168
0.09211341 -0.17710054 0.09981156 0.046270743 -0.023579882 0.0018821175 -0.043176126 0.020673953
0.039264325 -0.055045955 0.091521144 -0.057350565 0.0468823 0.03767712 0.09704386 -0.009834891
00000000: 50eb db3d e883 87bd c8e7 e3bc 1c9c e73b
00000010: bf78 58bd 10ca 47bd 014a a03d 28cb 413d
00000020: c228 613d 1881 403d 9407 74bd fcd5 0abc
00000030: ae89 4c3d 26b0 85bd 56c0 afbd c1aa da3d
00000040: c7ab 3a3d 1cdc a6bd cdd1 803d 898e 923d
00000050: cc1a f63d 83e0 153d c5f8 cf3b a960 f83c
00000060: 5459 493c df62 ef3d 38aa 9e3d 70cb ee3c
00000070: 4c13 c4bd d9d3 b63d b35a 823d 70e4 d23d
00000080: d7d1 813d 3670 ae3d e0fd c23d d97b 60bd
00000090: 82b1 5a3d 4648 cf3d 4e6a 233c 39f3 2e3c
000000a0: 53bb 803d ce64 dabc 6109 f03d f375 c33d
000000b0: d2e5 1f3d 385d 3fbc fecc a7bd 8516 08bd
000000c0: 2d3f 1ebb df50 163d b87c 2c3c 5c80 07bc
000000d0: fe20 b3bc 0d3a fc3c 1ce5 74bc 552f ea3b
000000e0: f39d 1bbc 65b9 f4bc 3e01 c13b d0b8 3abd
000000f0: 1e5c b23c a47c 7ebd c0cd 2e3d d907 a43d
00000100: b68e 8d3d 4e04 8a3d ba68 4b3d c33b dd3d
00000110: da92 643d f1f5 e33c e315 8c3d cbdf 4f3d
00000120: bd5a 923d f358 61bc fa57 83bd 531b 4fbc
00000130: 2c11 9b3c b58f 19be 754e 323d 70b2 a73d
00000140: dcd4 09bd 4161 023d 8759 4a3d ac98 923d
00000150: 8678 a4bc 446e a63d e223 2a3c a108 843d
00000160: ce43 17bd b87d 983d 5081 643d 2d0e 03bd
00000170: 3d97 863d fae7 d4bb 7db3 0cbd c022 3fbd
00000180: 7cca 54bd 24a1 b73d 0ed2 913d b6cc 393d
00000190: 9003 bebd 51a8 5dbd 1046 b23d 60e2 853c
000001a0: d4e3 2abd 058f 94bd e77b e7bc 8be8 8d3c
000001b0: eef0 95bd 5014 af3d e7ec cabd 491f a03c
000001c0: f5a5 bc3d d859 35be 016a cc3d 6486 3d3d
000001d0: 992a c1bc 62b1 f63a 73d9 30bd 6c5c a93c
000001e0: a1d3 203d de77 61bd 706f bb3d 6de8 6abd
000001f0: a807 403d 5353 1a3d eebe c63d 8622 21bc
