azure-functions/PredictFuture/parking_model.pt (torch, 584915 bytes, 10 tensors)

rnn.weight_ih_l0 f4 [512, 1]
000000 6b 3a 04 bd e9 58 8e bd 90 a4 c7 bc ef 01 09 be
       -0.032282274 -0.06950552 -0.024370462 -0.13379644
000010 1c 9e 0b 3d 0d b4 71 bd 29 a6 74 3d cc d1 f9 bc
       0.03408633 -0.0590096 0.059728775 -0.030495547
000020 a1 c8 53 b9 59 44 9b bc 78 5e 59 bd ea a7 05 bd
       -0.00020197268 -0.01895349 -0.053068608 -0.03263084
000030 0c 1c 72 bd 63 b9 5b bc c8 af 01 be 9e c5 94 bc
       -0.05910878 -0.013410899 -0.12664711 -0.018160637
000040 1f 00 c4 3d 67 da 6a 3c 9e 96 16 bd a6 2c b7 3d
       0.095703356 0.014334298 -0.036764733 0.08944063
000050 14 98 85 ba 83 3f 60 3d 53 e7 31 3c 07 b8 5f bd
       -0.0010192418 0.05474807 0.010858375 -0.05461886
000060 55 dd 09 bd e7 d6 75 3d 86 83 b1 bd ea 6a 8a 3d
       -0.033658344 0.0600194 -0.08667664 0.067586735
000070 8f 5c 98 3c 97 97 13 be e7 be 17 bb 40 93 7c 3d
       0.018598823 -0.14413296 -0.0023154558 0.061663866
000080 5c 59 43 3d b6 4c c4 bd 08 e1 0c bd 85 ca e2 3b
       0.04769264 -0.09584944 -0.034394294 0.006921115
000090 66 0e f3 bc f6 10 fa bd 69 b0 82 3c 27 b9 15 bd
       -0.029669952 -0.12210266 0.01595326 -0.03655353
0000a0 22 30 8b bd 1f e4 b4 3d 54 8b 71 bd 4f 2c 0b 3d
       -0.0679629 0.08832573 -0.058970764 0.033977803
0000b0 31 af 5f bc 4b e0 36 bc ac 0a b5 3d cf f1 9f 3c
       -0.013652609 -0.011161874 0.08839926 0.019524483
0000c0 e2 00 aa 3d 01 07 ad bc ad fa af bc 8e 2e 90 3d
       0.0830095 -0.021121504 -0.021481836 0.070401296
0000d0 e3 e8 0c 3d e1 40 4b 3c 7e f8 73 bb e8 3e 1d bd
       0.034401786 0.012405605 -0.003722697 -0.03839007
0000e0 81 9c 50 3c 2e 45 57 3c 29 42 8a bd 7b 04 14 3e
       0.012732626 0.013139052 -0.067509 0.14454834
0000f0 b9 ce 68 bc 0a be da bd eb 86 4b bd d3 cf 0e be
       -0.014209443 -0.10680778 -0.049689215 -0.13946466
000100 b7 da 00 3b de 56 30 3c a9 a6 98 bd e3 33 b3 bd
       0.0019661614 0.010762898 -0.07453663 -0.08750131
000110 71 90 13 3c aa e7 34 bd 5f 2f 3e 3d f8 19 b9 3d
       0.0090066055 -0.044166245 0.046431895 0.09038156
000120 42 58 db 3b 56 23 fa bc 26 8b c2 bd 03 6d b2 3d
       0.0066938708 -0.030534428 -0.09499197 0.087121986
000130 4f 71 fb bc aa db 14 bd 2a 4c b4 bd ae ff f0 bd
       -0.030693678 -0.0363423 -0.0880359 -0.11767517
000140 91 b4 88 bc b7 94 16 bd 0c 95 8a 3c 21 7c 7c bd
       -0.016687663 -0.03676292 0.016916774 -0.061641816
000150 cf 97 c4 3d f7 43 44 bc 40 44 7b bc 2c 13 6f b8
       0.09599268 -0.011979095 -0.015336096 -5.6999896e-05
000160 cb e8 39 3d fc 35 02 3d db 35 a9 bb d1 99 5c bd
       0.045388024 0.031789765 -0.005163891 -0.05385763
000170 df 80 b9 3c b7 e3 3c 3c 42 a7 86 3d c2 1e 73 bd
       0.022644458 0.011528901 0.06574871 -0.059355505
000180 c7 50 98 3d 68 03 4c 3d 51 73 d1 3d 40 c4 6d 3d
       0.07437282 0.049807936 0.10227073 0.058048487
000190 82 bc d6 bc d2 56 81 bd 00 84 6b 3d 3d 1c 30 3c
       -0.026212934 -0.06315388 0.057498932 0.01074892
0001a0 1a 79 c9 bc b9 76 53 3b 19 8f ed bd cd bf 22 3e
       -0.024593879 0.003226681 -0.11599559 0.15893479
0001b0 82 72 12 3d 5a ad 8f bd 4f 16 f6 3c 13 a4 35 3c
       0.035753734 -0.07015486 0.030039934 0.011086482
0001c0 04 a7 cf bd 53 b9 72 bb 29 13 5c bd 60 1d 1d bd
       -0.101392776 -0.0037036731 -0.05372921 -0.038358092
0001d0 c6 d4 81 3d 7b f4 0e 3d 5d 40 7a bd c7 43 ed 3d
       0.063394114 0.034901123 -0.061096538 0.11585193
0001e0 2a a8 d9 bb b2 78 ac 3d f5 e9 02 3d 8f 6a ec bd
       -0.006642361 0.08421458 0.0319614 -0.11543762
0001f0 65 7f 71 3d 39 09 f2 3d 8c 5b 83 3d eb eb 40 3d
       0.058959384 0.11818165 0.064139456 0.04709999
000200 30 e6 bf 3d f5 d9 03 3c 1d 7b cd bd d7 65 04 be
       0.09370077 0.0080475705 -0.100332476 -0.12929474
000210 94 7e 68 bd 38 48 d3 bc 5b 9d b1 bd 35 19 b2 3b
       -0.05676134 -0.025791273 -0.08672591 0.005435134
000220 b7 dd a5 bd 0d d5 a3 bd a6 65 ac bd bc 5d 44 3d
       -0.080989294 -0.079996206 -0.084178254 0.047940955
000230 07 77 53 3c 65 1d 03 3e 51 4b ed bb 79 6c 45 bd
       0.012906796 0.12804182 -0.0072416444 -0.04819915
000240 fd 85 08 3e 3e e0 d8 3d 08 87 0c be 30 14 ef 3d
       0.13332362 0.10589646 -0.13723385 0.11673772
000250 68 07 5a bd 46 84 e1 3d 53 29 37 bd 49 a6 e1 bc
       -0.05322972 0.11011557 -0.044717144 -0.027545111
000260 1e 96 66 3c 30 30 97 3c 13 b4 b2 bd c7 f5 85 3d
       0.014073877 0.018455595 -0.08725753 0.06541019
000270 78 7a 72 3d fd a4 35 be 21 78 54 bd 64 eb 47 3c
       0.059198827 -0.1773872 -0.051872376 0.012202118
000280 2c af 76 bd f1 0f 0c be fb 52 ec bd 42 af ee bd
       -0.06022565 -0.13677956 -0.11539265 -0.116545215
000290 e4 77 82 3d da a2 19 3d 28 0d 8a bd 6a 21 60 3c
       0.063705236 0.037508823 -0.067407906 0.0136798415
0002a0 f4 de 2d 3c 9c e0 d8 3d d7 85 94 bd c9 2a 00 3d
       0.010612238 0.10589716 -0.072520904 0.031290803
0002b0 5b fb 37 bc 4e cd 69 3d 68 da c8 3d fb fc 5a bd
       -0.011229361 0.05708056 0.09807283 -0.053463917
0002c0 a5 b8 23 bd 47 92 8e bc 34 fc d5 bd fe 71 8e 3d
       -0.039971013 -0.017403735 -0.104484946 0.06955336
0002d0 ae e1 c5 3d 89 ac de 3d 08 aa 1e 3d 29 cd c7 bc
       0.096621856 0.10872752 0.038736373 -0.02438982
0002e0 ce 44 91 bd cb 52 9c bb da 90 57 bd 5d 87 b9 3d
       -0.070932016 -0.004770612 -0.052628376 0.090590216
0002f0 58 a5 2d 3c 85 b7 7c 3d 07 44 70 bd 44 94 bf bd
       0.010598503 0.061698455 -0.058658626 -0.09354451
000300 82 7e ed bc 45 5d fa bc 7e 2a 8c 3d ac fd 39 bc
       -0.028990988 -0.030562053 0.06844042 -0.011351984
000310 5e 11 83 bd f6 0a c6 bd 28 45 0f 3e 24 5e 8f 3d
       -0.06399797 -0.096700594 0.13991225 0.07000378
000320 9f b5 97 3d ff 31 ee 3b ff f2 1d 3d 29 1f 6f 3d
       0.07407688 0.0072691436 0.038561817 0.058379326
000330 e6 32 7e 3d ad 46 75 3d 41 92 3b bd c2 24 fb bc
       0.06206026 0.059881855 -0.045793775 -0.030657176
000340 5d 84 bf bd b6 35 cd bd 8a df 32 3e 76 bc 96 3d
       -0.09351418 -0.1002001 0.17468086 0.07360165
000350 59 af 4d 3d 22 76 84 bc 25 58 96 3c 88 f0 09 3e
       0.050216053 -0.016169611 0.018352577 0.13470662
000360 8a 42 92 3c 37 3c f2 3d cb 82 d4 bd 40 28 1d bd
       0.017853994 0.11827891 -0.10376509 -0.038368464
000370 fc 28 c5 3d 36 17 88 3d 41 31 a3 3c 96 b1 ad bd
       0.09626958 0.06645052 0.019920947 -0.084811375
000380 90 e5 88 3c ae 41 5f 3d 60 b7 e0 3d 03 80 c6 3d
       0.016711026 0.054505996 0.10972476 0.09692385
000390 af a0 bf bc 14 98 29 bd c0 32 fd bc e3 9a fe bd
       -0.02339205 -0.0414048 -0.030907989 -0.12431886
0003a0 bc 1a e4 bc cc ec c7 3d 49 9b 9e bd 86 8f 1e 3e
       -0.02784478 0.09761962 -0.07744462 0.15484437
0003b0 dd 6f 53 bd f5 8f f6 bd 1b f8 40 3d 71 f2 a3 3d
       -0.051620353 -0.120391764 0.04711161 0.080052264
0003c0 3f 37 83 3d 0f 21 00 be 8c 52 98 3d a9 53 80 bd
       0.06407022 -0.12512611 0.074376196 -0.06265957
0003d0 c8 ab 33 bd b2 94 00 3e 9a 78 16 bd 89 dd 37 3d
       -0.043864995 0.12556723 -0.03673611 0.044889007
0003e0 88 67 5e 3d 30 ac b0 3d 60 3c 19 3e 5a 20 56 bd
       0.054297954 0.08626592 0.14964437 -0.052276947
0003f0 f8 b3 e0 3d 32 5c da bc 86 53 7d 3c a0 8b 6e bc
       0.10971826 -0.02665529 0.015461808 -0.014559656

rnn.weight_hh_l0 f4 [512, 128]
000000 32 42 6b bd e4 cc 79 3d fd 75 15 3d 44 40 24 3c
       -0.057436176 0.060986415 0.036489476 0.010025088
000010 c6 f0 81 3d 19 1b 39 bd 9d c4 4d bd 5f 49 98 3d
       0.06344752 -0.045191858 -0.050236333 0.074358694
000020 5c 3f 24 bd ba 5b ae bc 07 c3 ab bd 00 3b 76 3c
       -0.040099487 -0.021283973 -0.08386808 0.015028715
000030 1a 79 e3 bc a3 5b 13 3d 86 94 5a 3d 89 0c d6 3c
       -0.027767707 0.035976063 0.0533643 0.026129024
000040 0a 25 25 3d f5 28 90 3d 4c b3 2d 3d c0 f5 30 3d
       0.040318526 0.07039062 0.04240732 0.043203115
000050 d7 e1 58 3d c6 7c 9b bd 23 3d 9a bd 01 3e cc 3b
       0.052949753 -0.07592158 -0.07531192 0.0062329774
000060 7a 66 92 bc 2f f4 07 bd a2 7e d5 bc d0 58 d0 bb
       -0.01787113 -0.033191856 -0.02606136 -0.0063582435
000070 f4 3b 7e 3d 8c a0 af 3d 2d 4f 82 bc 49 c1 32 bd
       0.062068895 0.08575544 -0.015906895 -0.043641362
000080 68 8b 8e 3c b1 a0 dc 3d 62 5f 43 bc a5 99 79 3d
       0.017400458 0.10772837 -0.0119245965 0.060937542
000090 0d 32 da bc ff 59 47 3d e4 5c c6 3c 4e 3e 47 3c
       -0.026635194 0.04866981 0.024214216 0.012160851
0000a0 68 d6 99 3d e0 8c a6 bc c7 93 eb bc bb f7 50 3c
       0.07511598 -0.020330846 -0.02875699 0.012754376
0000b0 b5 b6 9a 3b ae 39 1b 3d ec db b1 bd 1a 74 85 3d
       0.0047214874 0.037896805 -0.08684525 0.06516285
0000c0 17 15 b7 bc e5 41 13 bd 19 cb 1b 3d cb fd 41 bd
       -0.022348924 -0.035951514 0.038035486 -0.047361176
0000d0 81 f8 cf 3d be 9d 95 3c 80 bf c6 bc 71 81 e3 bd
       0.1015482 0.018263694 -0.024261236 -0.11108673
0000e0 15 d9 00 3d ee da 19 3d 61 5f ac bd ba 26 24 bd
       0.031457026 0.037562303 -0.084166296 -0.040075995
0000f0 02 05 3c 3d e1 2a 54 bd 16 0a 82 3d e6 d6 51 3d
       0.045903213 -0.051798705 0.0634958 0.051230334
000100 b8 40 53 3d 10 88 7e 3d 58 ed 67 3d e5 94 7b 3d
       0.051575392 0.062141478 0.056622833 0.061421294
000110 68 d1 3e bd e6 3e f8 3c 23 60 15 bd a7 f4 8e bd
       -0.046586424 0.03030343 -0.036468636 -0.069802575
000120 06 15 0e 3d bf dc 4c 3b 11 af 52 bd 47 bd a7 3c
       0.03468802 0.0031259505 -0.051436488 0.020475997
000130 d6 a5 3d 3c 1e 98 aa bb dd af 63 3d 6f 8c 19 3d
       0.011575183 -0.005206122 0.05558764 0.037487444
000140 f3 07 7b bc 9c 6a 11 bd 9f 2d 91 3d 64 1e bd 3d
       -0.015321719 -0.03550206 0.0708878 0.09234312
000150 86 e6 c4 bd d7 ca 9a 3d 69 35 b7 bb 30 c9 d1 3d
       -0.09614281 0.0755822 -0.005591084 0.102434516
000160 ec 58 91 bd 93 f4 90 3d 95 da dd 3b cf 37 0c bd
       -0.070970386 0.07077899 0.006770442 -0.03423291
000170 98 86 f2 3c 85 f3 0c 3c fd a8 32 bc cb 6c ab 3d
       0.029605195 0.008602981 -0.010904548 0.0837036
000180 52 da 62 bb 6c 84 34 3d 68 5f c1 bc 6b b9 52 bd
       -0.0034614992 0.0440716 -0.023605064 -0.05144636
000190 78 d5 b0 bd 34 42 80 3b af 81 95 3c 2f b1 a5 bd
       -0.08634466 0.003914142 0.018250315 -0.08090436
0001a0 88 ae 8d 3c 89 f0 80 3c c1 c2 f3 bd e6 4d 24 be
       0.017295137 0.015739696 -0.11902381 -0.16045341
0001b0 9f 54 1c bd ef 4f 6f 3d 96 b3 fc 37 9e 37 7b bd
       -0.03816664 0.05842584 3.0124367e-05 -0.061332338
0001c0 a2 d0 eb bd 95 27 78 bd ca 88 d0 bd 70 38 4b 3d
       -0.11514403 -0.060584623 -0.101823404 0.04961437
0001d0 1d 98 a6 3c f2 38 78 bc e0 f6 90 bc 3d 85 09 bc
       0.020336205 -0.015150296 -0.017695844 -0.008393583
0001e0 e0 d6 0f 3d 4a 8f 6d bd c2 60 8e 3c f6 87 07 3d
       0.03511703 -0.05799798 0.017380122 0.033088647
0001f0 db e5 08 3b 1d 2d 03 3d 56 25 18 bd 9c 35 be bb
       0.0020888958 0.032025445 -0.03714498 -0.0058047306
000200 d4 41 81 bc a6 ff 65 3d 50 42 5b 3d c7 7a 5e bc
       -0.01577846 0.05615201 0.053530037 -0.013579077
000210 f5 af 83 bd af 3b c5 bd 67 a8 4c bd 78 73 23 bd
       -0.064300455 -0.09630524 -0.04996529 -0.03990504
000220 9b 9a e8 bd b5 be a9 3d c8 27 40 3c 17 e8 c6 bd
       -0.11357614 0.082883276 0.011728235 -0.097122364
000230 f1 8f 80 3d c6 99 60 bd 51 ce 02 3d 34 ab 39 bc
       0.06277455 -0.05483415 0.03193504 -0.011332322
000240 2c 15 9c bc 35 eb 4e bd aa 62 31 3d 9e 03 9f 3d
       -0.019053064 -0.05051728 0.043306984 0.07764362
000250 11 75 8f 3d 41 47 87 3d 22 ed 23 3d ab 46 34 bd
       0.070047505 0.066053875 0.04002107 -0.044012707
000260 3a 75 00 bd 3b 5a 60 bd 88 0d 4a 3d 13 7c 7f bc
       -0.031361796 -0.05477355 0.04932931 -0.015593546
000270 b0 05 87 bd 6b 52 09 bd 83 ad fe 3c 4d 68 8b 3d
       -0.06592882 -0.033525866 0.031088596 0.06807003
000280 3b a3 2a bc 8a 11 f7 bc 0b fd 1b bd 6d e5 11 3d
       -0.010414894 -0.03015973 -0.038083117 0.035619188
000290 88 9d 8e 3d fd a0 8e bd 42 98 20 3d 71 59 1c bd
       0.069636405 -0.069643 0.039207704 -0.038171235
0002a0 dd eb 8a 3d 60 49 07 3d 31 3c 32 bd ba 36 ac bc
       0.067832686 0.03302896 -0.043514434 -0.02102219
0002b0 b7 f2 7f bd 4e ba 15 bd ee d9 a0 3c a2 f5 81 b9
       -0.06248733 -0.036554627 0.019635167 -0.00024787808
0002c0 40 a7 8d 3c de 81 0d bd d6 5b 3f bc a9 f1 c7 3c
       0.017291665 -0.03454768 -0.01167961 0.024407225
0002d0 28 63 28 3d aa 97 ca 3c 74 76 cc bc 85 71 ef bc
       0.041110188 0.024730522 -0.024958827 -0.029228935
0002e0 c9 3f 92 bd f7 94 13 bd 16 cc 02 39 19 13 b6 3b
       -0.07141072 -0.036030736 0.00012473794 0.005556476
0002f0 d4 c8 9b 3d 17 7a 69 3d a1 28 83 bd 72 96 bc bd
       0.07606664 0.0570012 -0.06404234 -0.09208383
000300 00 93 29 3d 40 b9 39 3b c5 84 88 3d 41 f2 cd bc
       0.041399956 0.0028339177 0.06665949 -0.02513993
000310 52 f2 f1 bb 45 76 f8 bd 6b 3e 28 bd 50 96 6d 3d
       -0.007383623 -0.12131933 -0.04107515 0.058004677
000320 44 7a 0c 3d 6c d1 bf bc 6b 85 e9 3c c1 1b f5 3b
       0.03429629 -0.02341529 0.028506001 0.007480115
000330 e3 5e 8f 3d de 2b 12 bd b3 f0 57 3d 96 73 26 3d
       0.0700052 -0.035686366 0.052719783 0.040637575
000340 8c 75 07 bd a5 c8 e0 bc cb 3b 98 bb 78 c4 90 bd
       -0.033071086 -0.027439425 -0.0046457998 -0.070687234
000350 0a ca 8d bb 36 c5 78 3d 2e 28 a3 bd 61 4e 5f bb
       -0.0043270634 0.06073495 -0.07966648 -0.0034073817
000360 46 81 ce bd 0b 25 8b bd a0 ea 0a 3d 7f f6 af bd
       -0.10083251 -0.06794175 0.033915162 -0.08591937
000370 f2 f4 3d bd 90 b6 8c 3d 5f a5 66 3b cc f8 4e 3d
       -0.046376176 0.068707585 0.0035193784 0.05053024
000380 9d a6 8e bd 3a 18 dc bd 4b d9 2e 3d 72 04 fd bc
       -0.06965373 -0.10746808 0.042687695 -0.030885909
000390 65 e4 30 bb bc 44 35 bc d1 b0 da 3d cb ae 33 bd
       -0.0026991602 -0.011063751 0.10678256 -0.043867867
0003a0 92 ba 48 3c 86 68 e9 bb 3a 71 b0 bd 71 72 8a bd
       0.012251513 -0.007123056 -0.08615346 -0.06760109
0003b0 65 05 48 3d 09 0b 32 3d 39 9b da 3d ab 7a 9a 3d
       0.04883327 0.043467555 0.106741376 0.07542928
0003c0 a0 2f 96 bd 88 f3 23 3d 64 28 f5 bb 9a 6a 34 bd
       -0.073333025 0.04002717 -0.0074816216 -0.044046976
0003d0 4a cb 33 bd 31 c2 2d bd a5 a2 bd bd 3d 26 b9 3d
       -0.043895043 -0.042421523 -0.092595376 0.090404965
0003e0 f6 7a 08 bd 03 ab 48 3c 1e 48 af bd f7 95 1f 3d
       -0.03332039 0.012247804 -0.08558677 0.038961377
0003f0 82 17 4d 3d 45 52 49 3d 64 83 33 3c ca c8 7e 3d
       0.050071247 0.049150724 0.010956619 0.062203206

rnn.bias_ih_l0 f4 [512]
000000 67 e8 c1 bc 69 bc 80 bd 69 3e 48 bc 6c 51 0b 3d
       -0.023670388 -0.062859364 -0.012221911 0.034013197
000010 95 9f 06 bd 5f a9 93 3d 48 ad 32 3d b8 09 da 3c
       -0.032867033 0.07210039 0.043622285 0.026615962
000020 ff 74 99 bc e2 95 d2 bb fe 08 81 3d 00 b8 a9 3d
       -0.018732546 -0.006426559 0.06300543 0.08287048
000030 35 d8 0f 3c f9 be 2a 3d 86 3f fd 3b 36 5f a1 3d
       0.008779575 0.041686032 0.00772852 0.07879488
000040 92 3b ad 3d fc e4 56 3c 7c a5 18 bd d4 34 19 3c
       0.08458628 0.013116118 -0.037267193 0.009350974
000050 7a 86 b3 3a e7 b6 95 bd 7f 98 e5 bc 0b a8 2a bd
       0.0013696693 -0.073102765 -0.028026817 -0.041664165
000060 d5 bc b6 3d 62 b1 3c bd 34 7d 77 bd 89 df a5 3c
       0.089227356 -0.046067603 -0.060422137 0.020248191
000070 2c c2 d2 bc 54 8c 97 3d bc bf 2e 3d 32 13 8f bd
       -0.025727354 0.07399812 0.04266332 -0.06986083
000080 4a d5 83 3d 0e 84 74 3d c7 63 ca 3d 3b 36 08 bd
       0.06437166 0.05969625 0.09882312 -0.033254843
000090 65 ea 6b bc 68 2a 19 bd 87 59 5f 3d 55 8a 7a 3d
       -0.014399146 -0.037393957 0.05452874 0.06116708
0000a0 84 97 98 3c 8d 21 e2 bc 34 b1 88 3a bb d0 b3 3c
       0.018626936 -0.027603889 0.0010428787 0.021950116
0000b0 5e 1d 7e 3d 32 6b dd bc 22 f2 d4 bc 8e a7 ea 3c
       0.062039725 -0.027028654 -0.025994364 0.02864435
0000c0 73 2a a4 3d 43 72 86 3d 6f 83 38 bd e0 7c 5b bd
       0.08015909 0.065647624 -0.04504722 -0.053585887
0000d0 3f 91 19 3d 2b 96 84 bd d4 6c 89 3d c4 e1 25 bd
       0.037492033 -0.06473955 0.067102104 -0.04049851
0000e0 59 e0 96 b9 75 cf 27 bd 7b be 9c 3d 27 d5 3b 3c
       -0.00028777382 -0.04096933 0.07653519 0.011464394
0000f0 31 48 20 3d a7 76 b8 3d 24 c7 a9 3d 46 7b 29 bd
       0.039131347 0.09007006 0.08289936 -0.04137733
000100 50 e1 89 3c 09 be 51 3d 16 82 fd 3b 3d 0b e4 3c
       0.01683107 0.051206622 0.0077364547 0.02783739
000110 7f 0c 19 3d 34 d2 40 bd c6 a7 20 3d 95 d8 84 bd
       0.037365433 -0.047075465 0.0392225 -0.06486622
000120 a6 db 65 3d b7 ca 72 3d 45 d9 26 3c 57 01 e3 bc
       0.056117676 0.059275355 0.010183637 -0.0277106
000130 ba 03 87 3b 78 88 2c 3d 4f 1b 9b bc 3f 47 20 3d
       0.0041203173 0.042122334 -0.01893392 0.039130446
000140 2b e0 83 3c 68 30 8a bd 4c 8f 58 3c e6 df 92 bd
       0.016098103 -0.06747514 0.013217758 -0.071716115
000150 ab dc 19 3d 3c 89 af 3d 87 bb 83 bd da 69 a2 3d
       0.03756396 0.08571097 -0.064322524 0.07930346
000160 2c c6 be 3d 36 4d 17 39 4f 34 7e 3d 19 e6 c1 3d
       0.09315142 0.00014429245 0.062061604 0.09467716
000170 c1 56 c0 bb 99 3e cc 3c 32 62 1c bd a4 8c b6 bc
       -0.005869717 0.024932193 -0.038179584 -0.02228386
000180 bf 57 71 3d 1d b3 8b 3c 4b 16 bb 3c 3b f9 24 bd
       0.05892157 0.017053181 0.022837779 -0.040276747
000190 00 fc 77 bc 5b 20 43 bd 53 52 96 3d 2e 06 ca 3c
       -0.015135765 -0.04763828 0.07339921 0.02466115
0001a0 78 56 0e 3d 65 32 13 bc b2 eb 5f bd fa cb 0e 3d
       0.03475043 -0.008984183 -0.054668136 0.034862496
0001b0 1b 3b ad 3d b8 41 aa 3d 6c fb 65 3d 41 4a 90 3d
       0.08458539 0.08313316 0.056147978 0.07045413
0001c0 5b cb 8e bd 77 72 67 3d a0 42 82 3d 77 35 96 3d
       -0.06972381 0.056505647 0.06360364 0.07334416
0001d0 64 6e 15 3d c9 af 53 3d 0a 5d 84 3d e3 00 84 bd
       0.03648223 0.051681314 0.06463058 -0.06445482
0001e0 9a 08 70 3d 2e 92 29 3d 83 6f b9 3d 1c a4 1b 3d
       0.058601953 0.041399173 0.09054472 0.037998304
0001f0 21 d3 77 3d b4 b9 98 bd a9 25 ad 3d c7 ec de 3d
       0.060504083 -0.07457295 0.08454449 0.108850054
000200 24 c2 1d bd 87 af 9b bc 52 c4 2e 3d 0a 78 0d 3e
       -0.038515225 -0.019004596 0.042667694 0.13815323
000210 78 e2 20 3d 4b c0 72 3d cc 7e 49 3d 21 64 8a bd
       0.039278477 0.059265416 0.04919319 -0.06757379
000220 75 9c 57 3d 0b 8b 9a 3b c8 42 fd bb e6 c0 b2 bc
       0.052639443 0.0047162822 -0.007728908 -0.021820497
000230 68 c4 11 bd 80 51 fa 3d 35 0c 93 3d b3 8b 6e 3d
       -0.0355877 0.12222576 0.07180063 0.058238696
000240 48 18 2c bd 9f 08 8e 3d ec de 86 bb bd 41 be 3d
       -0.042015344 0.06935238 -0.00411593 0.09289882
000250 16 79 be bc 15 24 c4 3c a5 79 94 bd 0e 44 03 3d
       -0.023251098 0.023942987 -0.07249764 0.032047324
000260 7e 08 b0 bc 99 c7 6e 3c e2 8a 4e 3d 0f 9f ea 3c
       -0.021488424 0.014573955 0.050425418 0.028640298
000270 0a f3 c4 3d 14 8d 8d ba f4 f7 56 bc 1f e9 ba ba
       0.096166685 -0.0010799491 -0.01312064 -0.0014260149
000280 30 14 5f 3d b6 45 07 3c 96 7a 76 bd 3b 83 7a 3d
       0.05446261 0.0082563665 -0.0601755 0.061160307
000290 85 a0 51 bd 1c 67 95 bd c6 72 52 3d e3 01 bb 3c
       -0.051178474 -0.07295057 0.051378988 0.022828048
0002a0 a5 d7 85 3c 70 e5 35 3c 25 b8 28 bc 57 cc 9e 3d
       0.016338179 0.011102065 -0.01029781 0.077538185
0002b0 03 82 1f 3d 36 e8 f5 3b 80 00 bf 3d d1 99 7f 3c
       0.03894235 0.0075044883 0.09326267 0.0156006375
0002c0 a8 66 a8 3d ac d6 04 3c 22 c0 7c bc 12 3f 1a 3d
       0.08222705 0.008107822 -0.015426667 0.037657805
0002d0 bd 2b 9d 3d bc 45 4f 3d 8a 5c da 3c 67 d1 b0 3d
       0.07674358 0.050603613 0.026655454 0.0863369
0002e0 02 bc a2 bd a1 95 44 3d f6 4a a3 3d 35 ed 98 bb
       -0.07946016 0.04799426 0.07973282 -0.004666949
0002f0 af 29 1f bd 14 46 9f bd 40 10 1e bd 2b 39 c7 bc
       -0.038858112 -0.07777038 -0.038589716 -0.024319252
000300 7b 0f c9 ba 3b a4 89 3d 35 27 2f bc 8d 3d 0f 3c
       -0.0015339697 0.067207776 -0.0106905 0.008742702
000310 8b 20 9b 3c 34 21 2b 3d 66 7e 26 bd 4b dc 46 3c
       0.018936416 0.04177971 -0.040647887 0.012137483
000320 db 8e e5 3c 47 7b 94 3d af e8 be 3d 40 1b da 3b
       0.02802222 0.07250076 0.093217246 0.0066560805
000330 72 46 17 3d ee 35 5a bd 49 bd 8a bd 1c ac 74 3d
       0.036932416 -0.053274088 -0.067743845 0.05973445
000340 00 c9 94 3d 1a 56 e7 3c ab c7 96 bd d1 05 ae bb
       0.072649 0.028239299 -0.073623024 -0.005310752
000350 54 44 38 3d 08 e8 ab 3a 3e c4 8e ba b7 92 86 3d
       0.044987038 0.0013115415 -0.0010892225 0.065709524
000360 a5 33 ad 3c 74 ea b2 3d f4 b5 0e bd e1 22 ce 3d
       0.02114279 0.08736125 -0.034841493 0.100652464
000370 80 bc 3b bd 44 2e 79 3c ad 8f 37 3d 32 12 44 bd
       -0.045834064 0.0152087845 0.044814754 -0.047868915
000380 23 36 10 3d 83 4d 6f 3d 6b 19 8b 3c 99 b9 83 3d
       0.03520788 0.05842353 0.016979894 0.06431884
000390 1c 07 05 bd cf 4a 9c 3b a2 be 75 3d 85 ea 31 3d
       -0.032477483 0.00476966 0.059996255 0.043436546
0003a0 11 3d 3f 3d 29 2d 98 bc ba 26 03 bd 93 7b f2 3b
       0.046689097 -0.018576222 -0.032019354 0.007399985
0003b0 f8 b2 3a 3d 26 81 20 bc af 2d 12 bd 7d 93 1a bd
       0.045580834 -0.009796416 -0.0356881 -0.037738312
0003c0 a5 05 08 3d ca 01 6c bd 2f ec b0 3d 5f 5a 92 3c
       0.033208508 -0.057618894 0.086387984 0.017865358
0003d0 fe 4b 3c 3d dc e0 1b bd d3 9d 32 3d bc db d5 3c
       0.04597091 -0.03805624 0.043607544 0.026105754
0003e0 61 92 16 3d e4 eb f4 3c 95 52 4c bd 36 3e 58 3c
       0.03676069 0.029897638 -0.049883444 0.013198426
0003f0 5c d2 a7 3d ac d8 82 bd 97 d9 8b bc a7 04 fe 3d
       0.0819442 -0.06388983 -0.017071528 0.12403231

rnn.bias_hh_l0 f4 [512]
000000 6e f0 0d 3d 2c 9a b2 bb 38 05 95 bc 2e a8 76 3d
       0.03465312 -0.0054505076 -0.018190965 0.060218982
000010 12 15 6f 3d 35 6a 63 bd 7a b3 ab 3c e7 8b 13 bd
       0.058369704 -0.05552121 0.020959605 -0.036022093
000020 39 2b 4c 3d dc 4f df 3c 95 64 4a 3d bb 69 92 3c
       0.049845908 0.02725976 0.04941233 0.017872682
000030 c3 6d 94 bd a5 06 4e bd 93 21 51 3c 43 fc 87 3d
       -0.07247498 -0.050299305 0.012764352 0.06639912
000040 ca d0 a9 bc 06 bc d7 3c 41 83 5f bd 98 ed 3f bd
       -0.020729441 0.026334774 -0.054568533 -0.046857446
000050 9c 05 e2 bc f4 1c b6 3d 95 d3 58 3d c5 e8 3a 3d
       -0.027590565 0.08892241 0.052936155 0.045632143
000060 04 2c 65 3d 6d f8 d9 3c f2 0a 47 3d 31 ab f1 3c
       0.05595018 0.026607716 0.048594423 0.029500576
000070 3f 3c f9 3c 78 57 4a 3b 26 f2 6f 3d 71 a6 8d bd
       0.030424235 0.003087489 0.05858054 -0.06916512
000080 f1 ad c5 3a 27 fd 75 3d 4b 95 0f bd cb 13 2e bd
       0.0015081746 0.060055878 -0.035054486 -0.042499345
000090 b8 05 c9 3d 5a 14 41 3d 39 17 96 3d 62 6e 3d 3d
       0.09815544 0.04713855 0.07328648 0.046247847
0000a0 18 50 3d bd 13 a8 87 bc 24 f2 00 bd 98 5a 9b 3c
       -0.04621896 -0.016559636 -0.031480923 0.018964097
0000b0 64 aa 3d bd cb 2f 55 3d 16 68 90 bd 31 02 63 3d
       -0.046305075 0.052047532 -0.07051103 0.05542201
0000c0 22 35 88 3c 02 51 87 3d 24 7a 1f 3d 3a 74 94 3c
       0.016626898 0.06607248 0.03893484 0.018121827
0000d0 a3 ae db 3d cf 36 4a 3d bd 90 53 bd 66 1e 84 bd
       0.10726669 0.049368676 -0.051651705 -0.064511105
0000e0 bb f3 df bc 71 47 18 bd 8b 47 84 3d 92 0f 73 bc
       -0.0273379 -0.037177507 0.06458958 -0.014835255
0000f0 72 00 32 bd 87 7d 65 3d 8d 18 19 3d f3 e3 0f 3c
       -0.043457456 0.056027915 0.03737693 0.008782375
000100 91 ee 66 3d 10 6b 8b 3d b0 c8 a1 bd 56 39 44 3d
       0.05637986 0.0680753 -0.07899606 0.047906242
000110 4a d8 14 3d 12 53 da 3c b1 0f c0 3b 96 29 4e bd
       0.03633908 0.02665094 0.0058612456 -0.05033263
000120 8b c1 9e 3d 06 bc 9f 3d c1 f3 10 bd 94 ce a1 3d
       0.07751759 0.077995345 -0.03538871 0.0790073
000130 f7 aa ad 3d 51 3d a8 3d c6 4c b4 3d 7f 91 c9 3d
       0.084798746 0.0821482 0.08803706 0.09842204
000140 d1 c5 d0 3d 48 a6 92 bd 6c 15 28 3d b2 b1 9b 3d
       0.101939805 -0.07160622 0.041036054 0.07602252
000150 02 9b 94 3d c2 fd f9 bc e1 ca 65 3b 61 83 62 3b
       0.07256128 -0.030516509 0.0035063552 0.0034563171
000160 78 e6 b7 3c 3a 4d 95 bd 19 19 a5 3d 9c 10 d3 bb
       0.022448763 -0.072901204 0.080614276 -0.006441189
000170 cf 1f 32 bd ba 27 a4 bd 65 73 06 bc 89 61 ad 3d
       -0.043487366 -0.0801539 -0.008206223 0.08465869
000180 61 9c 19 3c 4c ba 95 3d 7f e4 85 bd d4 61 69 bd
       0.009375663 0.07310924 -0.06537723 -0.05697806
000190 3f f0 7d 3d 04 a9 c0 3d 71 60 03 3c 8c 43 6a 3c
       0.061996695 0.09407237 0.008018599 0.014298331
0001a0 f6 36 51 3d ce 77 12 bc 9f 41 b2 3d 81 ae f2 bb
       0.051077805 -0.0089396965 0.087039225 -0.0074060564
0001b0 15 af 02 3c 61 62 80 bd ee 15 26 bd 57 2a 7a bc
       0.007976313 -0.06268764 -0.040548258 -0.015268884
0001c0 df f6 4d bd c1 56 99 3d 9e 43 94 3d f5 2d 5e 3d
       -0.050284263 0.0748725 0.072394595 0.054243047
0001d0 dd 9f 61 bc f2 5e a7 3d e5 ef 5b bc d2 1a 54 3d
       -0.0137710245 0.08172406 -0.0134238945 0.05178339
0001e0 b6 af 3f bd 39 37 4a 3d 78 89 8b 3d 29 41 a4 bd
       -0.04679843 0.04936907 0.068133295 -0.08020241
0001f0 e4 83 76 bd 25 b2 a4 bc 6b 3d cb 3d f9 45 6a 3d
       -0.060184374 -0.020104477 0.09923824 0.057195637
000200 fa 7b 43 3d bb 58 eb 3c 8f 9c d4 ba 65 e4 54 3c
       0.047725655 0.028728833 -0.0016220975 0.012993907
000210 a0 36 77 ba 69 50 1d 3d 63 04 b5 3c 6c 8b 67 bd
       -0.0009430442 0.038406763 0.022096818 -0.056529447
000220 e4 6a 03 3d 63 92 69 3d 21 9c d5 3c 09 67 ac 3d
       0.03208436 0.05702437 0.026075425 0.0841809
000230 51 ef 6d 3c a1 e8 12 3e 3b 6e 4a 3d 06 d5 42 bc
       0.0145223895 0.14346553 0.04942153 -0.011891609
000240 95 e6 b9 3d e7 22 41 3d c9 9e a9 3c 53 0f d9 bc
       0.09077183 0.047152426 0.020705597 -0.026496565
000250 dd cc f3 3c a1 7c b3 3d 8a 9b 6b 3d 16 d1 23 3d
       0.029760772 0.087640055 0.05752138 0.03999432
000260 90 bd 88 3d 59 f0 ce bc 8a 5b 01 3d a9 6d aa 3c
       0.06676781 -0.025261091 0.03158144 0.020804243
000270 f0 51 99 3d 90 d4 60 3d 5a fe 58 bc a3 d1 4c 3d
       0.074863315 0.054890215 -0.013244236 0.050004613
000280 4c e7 92 bc 19 9e 83 3d d9 e1 91 bd c5 02 66 bd
       -0.017932557 0.06426639 -0.07123155 -0.056154985
000290 42 09 83 bd b5 29 a9 3d 37 45 e0 bc 19 7c d9 3b
       -0.0639825 0.08259908 -0.027376754 0.006637108
0002a0 07 c8 9d 3d 07 f6 70 bd 5c 81 15 bd a3 7f de 3c
       0.07704168 -0.05882838 -0.03650032 0.027160471
0002b0 5b 61 be 3d 54 32 f8 3b db 18 29 bc c2 cc 83 bd
       0.09295913 0.007574359 -0.010320867 -0.06435539
0002c0 c7 3c b4 bc ba ec 23 3d d1 89 8c bd 55 98 79 bd
       -0.022001637 0.040020682 -0.06862224 -0.06093629
0002d0 c6 7e 4e 3d 58 e5 8d bc b7 41 74 3d 3a d9 6b 3d
       0.05041387 -0.017321274 0.059632983 0.05758021
0002e0 88 59 8e bd 9a f9 e8 3d d3 53 2c bc 97 9d ad 3d
       -0.069506705 0.11375733 -0.010518032 0.084773235
0002f0 3e 05 12 3d bb fe 08 bd 9c 16 22 3b 27 2f 36 bd
       0.03564953 -0.033446055 0.0024732715 -0.04447856
000300 f3 e6 78 3d f7 88 6f bd 48 d9 46 3d db 85 a2 3c
       0.060767125 -0.05848023 0.04854706 0.019839218
000310 8a 21 c1 3c c2 97 33 3d ba 53 a0 3b 50 81 d7 ba
       0.023575563 0.0438459 0.0048927935 -0.0016441736
000320 1a ac e8 bb 70 53 4a bd d0 ca c2 3d c5 5f 0e bc
       -0.007100594 -0.04939598 0.0951134 -0.008689825
000330 82 f6 5a 3d 0f 77 32 3c bd 02 32 3d d6 a1 b9 3c
       0.053457744 0.010892644 0.043459643 0.022660177
000340 76 8d 84 3d b4 5e b2 3a d3 86 7f 3c 09 18 64 3c
       0.06472294 0.0013608546 0.015596109 0.013921746
000350 de a5 9a bd 36 8d 2e bc 05 11 81 bd a1 59 88 bd
       -0.07551168 -0.0106537845 -0.06302074 -0.0665772
000360 5b 72 66 b9 39 73 92 3d 4c 1b 86 3c 14 a9 e3 3d
       -0.0002197711 0.07150883 0.016370438 0.111162335
000370 b3 6c 45 bd c5 0d 48 3b a2 8f bb 3d 40 ab 8e 3c
       -0.048199367 0.0030525785 0.09158255 0.017415643
000380 b9 87 34 3c 22 1b 7b 3d d2 b3 e4 3d ae 4e 69 3d
       0.011018687 0.061305173 0.111671105 0.0569598
000390 40 36 89 3d af 2c d5 bb 13 d3 71 bd 49 79 39 3d
       0.066998005 -0.006505571 -0.059039187 0.045281682
0003a0 3a ca 94 3b be 93 f3 bc de 11 c8 3d 10 3b 8d 3b
       0.004540709 -0.029733535 0.09769033 0.0043100193
0003b0 e7 44 96 bd b7 3f 9a 3d ae cc 63 bd 2b 78 d1 bc
       -0.07337361 0.07531684 -0.05561512 -0.025569996
0003c0 24 e5 b1 3c 09 41 85 3c 5a 96 55 3d 09 a3 a6 3d
       0.021715708 0.016266363 0.05214534 0.08136565
0003d0 f8 39 6c bd 05 ce 0d bc c8 66 8d 3c bb d8 40 bc
       -0.05767247 -0.008655076 0.017260924 -0.011770423
0003e0 b3 b6 2c 39 bc a7 c2 3d b9 ad a2 bc ee d4 3b 3c
       0.00016471259 0.09504649 -0.019858228 0.011464341
0003f0 40 16 43 3d 14 39 c0 3c 65 7f c5 bd a6 d6 24 3e
       0.04762864 0.023464717 -0.09643439 0.16097507

fc1.weight f4 [128, 387]
000000 87 dc 3f bd 0a 7a 57 bd 20 60 83 bb 40 37 67 3a
       -0.04684117 -0.05260662 -0.0040092617 0.00088201836
000010 b3 4e 50 bd fe cf 82 bd 56 70 44 3d e5 b0 09 3c
       -0.050856303 -0.063873276 0.047958694 0.008403991
000020 82 8f 93 bc 9c b3 0c bd ed 2d 9f bd 8e 2c dc 3c
       -0.018012766 -0.034350976 -0.077724315 0.026876714
000030 db 59 c7 bc 8f 26 33 3d 00 25 a3 bc 18 31 54 3c
       -0.024334839 0.043737944 -0.019915104 0.012951158
000040 ae 35 89 bb f7 74 a9 3c f8 e3 84 3b 52 54 89 3b
       -0.0041873073 0.020685656 0.0040554963 0.00419096
000050 a1 44 1a 3d 37 f3 89 bc dd 38 80 bc 06 71 2b 3c
       0.037663106 -0.016839607 -0.015652115 0.010463959
000060 73 86 7a 3d e7 d4 b4 bc 65 fc 09 bd e0 f8 a0 3c
       0.061163377 -0.022074176 -0.033687968 0.019649923
000070 bf 08 b2 3d 3c 08 04 bd 25 ad b3 3d ae b7 fd 3a
       0.086930744 -0.032234415 0.08773259 0.0019357109
000080 fb b7 ad bc dc 3b cd bc ed 65 ad bc 40 b4 7a bc
       -0.021205893 -0.025052957 -0.021166766 -0.015301764
000090 f6 71 cc 3b 03 b6 d3 bc 08 d4 74 bd a2 62 f8 bc
       0.006239171 -0.025843626 -0.05977252 -0.03032047
0000a0 9c 2f b6 3c f9 d5 af 3d b5 d8 15 bd 7a cd 77 bd
       0.022239499 0.08585734 -0.03658362 -0.060498692
0000b0 65 99 c1 bb 99 4d 5d ba 08 c0 34 3d cb 99 3d bd
       -0.0059081786 -0.0008442044 0.044128448 -0.046289247
0000c0 d3 8a 56 3c 25 a7 5a ba c1 54 f1 bc 09 6e 0c 3d
       0.013094622 -0.00083409465 -0.02945936 0.034284625
0000d0 44 bd dd 3c b2 5b 49 bc 62 79 15 bd 6d 5d af 3b
       0.027067788 -0.012289928 -0.036492713 0.0053517134
0000e0 c9 8c 0b 3d d1 7d 30 3d df 39 55 3d ba 3c 90 3d
       0.03406981 0.043088738 0.052057143 0.07042833
0000f0 a0 67 3e 3d 4a 54 97 bc ac ed ef 3c c1 6d c5 3c
       0.046485543 -0.01847281 0.029288135 0.024100186
000100 e9 e7 89 bd ad df b3 bc 7d 0a a6 3d 57 0e 32 3d
       -0.067336865 -0.021957243 0.08107469 0.043470707
000110 97 bd b2 bc 9d cb 4c bc 8f 4f e2 3b 5c 58 5e bd
       -0.02181892 -0.012499717 0.006906457 -0.054283485
000120 a7 eb b6 3c b8 5c 8b 3d c3 60 8d bd d0 93 4d bc
       0.022329165 0.06804794 -0.069032215 -0.012547448
000130 a6 d6 c8 3c d4 71 d9 3c a0 b9 7e bd 34 2f 2b 3d
       0.024516415 0.026543535 -0.062188745 0.041793063
000140 c5 5c c9 bc 93 f4 69 bc 30 ab b0 3d 4b 17 9c bc
       -0.024580369 -0.014279502 0.086264014 -0.019054076
000150 a4 6d a7 bd 8d 47 34 bd ea 4d 37 3d be 4a 34 3c
       -0.08175209 -0.04401355 0.04475204 0.011004148
000160 6e 0d d4 3c e5 df 85 3d ec 50 93 3c 90 5a 0a bd
       0.02588531 0.06536845 0.017982922 -0.033777773
000170 37 39 07 3d e6 74 17 bd d7 04 89 bc 07 fc 84 ba
       0.03301355 -0.036976717 -0.01672594 -0.0010145911
000180 1c 35 33 bd ff 4e 7d bc 31 fb 15 bd 0e 2e 12 bd
       -0.04375182 -0.015460729 -0.036616508 -0.035688452
000190 1f f4 75 3c 44 6a 3a 3d f1 5c 76 bc 75 46 39 3d
       0.015011816 0.0455115 -0.015036807 0.04523321
0001a0 f5 3b aa bc 6f 28 bd 3c 44 6e 39 bd 14 7e 0c 3d
       -0.020780543 0.02309057 -0.045271173 0.034299925
0001b0 2c 6c 17 bd fa c0 3b 3d 81 69 2c bd 35 ca a7 bc
       -0.036968395 0.045838334 -0.042092804 -0.020482162
0001c0 12 7c 00 bd 44 02 36 3d 06 29 ab 3b 2f 50 9f 39
       -0.031368323 0.044435754 0.0052233962 0.00030386585
0001d0 9c 01 4f bd 7e b1 61 b9 e3 51 7a bc f7 3d b7 3c
       -0.050538644 -0.00021523793 -0.015278312 0.022368414
0001e0 f6 05 25 bd 61 77 57 bd 3f 49 fa bd 8e 31 12 bc
       -0.040288888 -0.052604083 -0.12221002 -0.008922948
0001f0 2d 98 2e bd ad bc 59 3d 0b 99 ab 3b 08 22 8c 3c
       -0.042625595 0.05315845 0.00523675 0.017106071
000200 16 e4 4e bc 67 87 ba 3b ec eb d5 3c af 39 cd 3c
       -0.012627622 0.0056924107 0.026113473 0.02505192
000210 c1 69 bd 3d 6d c6 ef bc d8 c9 7d 3d 30 fd 09 be
       0.092486866 -0.029269421 0.06196007 -0.1347549
000220 b9 34 4c be d5 c8 e3 bb b7 90 77 3d cd 8c 4f 3d
       -0.19941987 -0.0069514313 0.060440745 0.050671387
000230 05 49 20 3e 02 e2 a5 3d 6c f8 f7 bd ad 42 b5 3d
       0.15652855 0.08099748 -0.121079296 0.08850608
000240 cd 39 94 3d 5c 06 b5 3d 2a 96 c6 3d 0d d9 21 3e
       0.07237587 0.088391036 0.0969661 0.15805455
000250 9a b8 73 3c 55 71 0a be 57 cb cd bd 6a 6d 0c 3c
       0.014875555 -0.13519795 -0.100485496 0.008571008
000260 e5 e4 bf 3d fa dd 96 3d bf b5 e8 3d 59 9a ab bd
       0.0936983 0.073665574 0.1136279 -0.08379049
000270 fb 85 51 3e 16 b6 63 3e ce 4e 0d 3e 04 74 22 be
       0.20461266 0.22237429 0.13799593 -0.15864569
000280 00 b9 1b be 11 db 55 bd 78 f3 0a be 78 47 60 3e
       -0.1520729 -0.05221087 -0.13569438 0.21902263
000290 6e 9d 45 3b 4c a7 58 3e 46 30 86 bd b7 4e 65 3e
       0.003015365 0.21157569 -0.06552176 0.22393309
0002a0 68 f5 40 3d 24 4d 9d 3d 7f 83 22 3e 28 56 d4 3d
       0.047109038 0.07680729 0.15870474 0.103679955
0002b0 34 56 ce 3c d8 cb 3b bd b2 17 30 3d d6 d2 e8 bd
       0.02518759 -0.045848697 0.042991348 -0.11368339
0002c0 3e 0f 58 be b3 3d f9 bc 10 71 92 3d 6a 94 18 3d
       -0.21099564 -0.030424928 0.07150471 0.037250914
0002d0 39 6b 11 3e 66 a7 1b be 1f 59 55 bd f8 f8 af 3c
       0.14201058 -0.15200576 -0.052086946 0.021481022
0002e0 d2 6c d1 bd 7b 95 93 bd 31 00 fe bd 2b 7e 86 bd
       -0.10225834 -0.072062455 -0.1240238 -0.065670334
0002f0 dd ed c7 3d e1 56 22 bc d4 3f 16 be b8 21 3b 3e
       0.09762166 -0.009908409 -0.14672786 0.18274581
000300 fe 84 af bc a9 b1 8b 3d e5 95 96 bd d9 81 4c 3c
       -0.02142572 0.06820995 -0.07352809 0.01248213
000310 5d 27 44 bc c5 20 6c bd 34 4b 09 3e 29 b7 86 bc
       -0.011972276 -0.05764844 0.13407594 -0.01644476
000320 82 58 cc 3d 52 4f 2e 3c 78 c6 de bc e4 76 00 be
       0.09977819 0.010639029 -0.027194247 -0.12545353
000330 8e ea 44 bd 4c 14 b7 bc f3 16 79 3d 75 a3 b0 bd
       -0.04807525 -0.022348545 0.0608129 -0.08624927
000340 89 1e 43 bd b2 50 cc 3c 94 b3 8c bd 1e d5 42 be
       -0.047636542 0.024940822 -0.06870189 -0.1902661
000350 38 d0 23 be ed a3 94 bc 17 6e bd bd a7 47 1e be
       -0.15997398 -0.018144572 -0.092495136 -0.1545702
000360 90 ab f9 bd c4 80 81 bd 5f 11 0e 3d db 60 8c 3b
       -0.12190926 -0.06323388 0.034684535 0.004284007
000370 b8 48 c0 3d 14 1a 0f 3d 6d 6b 3d bd 4d 2d 25 be
       0.0938887 0.03493698 -0.046245027 -0.16130562
000380 d7 fb 30 bc ca 3a 31 3e e7 4b be 3d 1b b2 93 bd
       -0.010802231 0.17307582 0.09291821 -0.07211705
000390 98 82 de 3d 7b 05 fe bd 9a 49 93 3d 40 8e 14 3e
       0.108647525 -0.12403389 0.07191773 0.14507389
0003a0 a3 94 01 bd 3b 3a 48 3c f4 97 1d 3e 84 ef 5d bd
       -0.03163589 0.0122209145 0.15389997 -0.054183498
0003b0 06 e9 4f bd b0 a9 e3 3c 30 70 ba 3c a5 5e 2a 3c
       -0.050759338 0.027790874 0.022758573 0.010398542
0003c0 21 7c 7f bc bf 44 e6 bb c6 4e 58 3d 13 74 b0 3d
       -0.0155935595 -0.007027238 0.0528095 0.086158894
0003d0 ae c7 e8 3c 58 3a 06 bc 94 34 33 3d b2 cb 9b 3d
       0.028415527 -0.008192621 0.043751314 0.07607211
0003e0 d9 51 09 3e ab 52 cb 3d 42 08 0d be 8d 7c 81 3d
       0.13410129 0.09927877 -0.13772681 0.06322584
0003f0 f0 23 d9 bd 4f 84 46 bd 71 6d 41 bb 52 13 0c 3e
       -0.10602558 -0.048466023 -0.0029514695 0.13679245

fc1.bias f4 [128]
000000 bf 31 60 b9 4b a6 4d 3d 60 51 13 bd a7 03 0e bd
       -0.00021380837 0.050207417 -0.035966277 -0.034671452
000010 0e f1 4b 3c 0b b1 7a 3d 5f ff 15 3d 9a 7f 24 bd
       0.012447609 0.061203998 0.036620494 -0.040160753
000020 cd eb 70 3d 41 c7 67 3d 88 14 57 3d 04 d7 4a 3d
       0.058818627 0.056586508 0.052509815 0.04952146
000030 64 9f 24 3d e0 9d a4 bc ff 9f 2e 3d 0e 9f 29 bc
       0.04019107 -0.020094812 0.042633053 -0.010352863
000040 c4 a6 91 3d 7f 50 5f 3d e7 f4 c6 bb 5b 0c 3c 3c
       0.07111886 0.054520126 -0.006071675 0.011477555
000050 94 47 03 bc 50 67 29 bd a8 33 68 bc 76 35 01 bc
       -0.008012671 -0.041358292 -0.014172472 -0.007886281
000060 27 b6 64 bd d3 a2 8a 3d c7 e2 06 3c a1 b8 a8 3c
       -0.055837777 0.067693375 0.008232779 0.02059585
000070 fd b4 b7 3a ce 29 ff b9 51 a1 26 3d 88 b6 0c 3d
       0.0014015731 -0.00048668537 0.040681187 0.034353763
000080 10 3f 3c bc de dc 8f 3d 1e 7b 4c 3c 7c 63 4d bc
       -0.011489645 0.07024549 0.012480525 -0.012535926
000090 d2 d6 f2 3c 46 75 8b 3d f4 63 f8 bc 0a 84 33 3d
       0.02964345 0.068094775 -0.030321099 0.043827094
0000a0 02 a6 be 3b 4e d3 0e 3c 45 e0 fa bc 49 0f a7 3c
       0.0058181295 0.008717371 -0.030624518 0.02039303
0000b0 9f 0e c5 bc 59 29 dd 3c d2 16 88 3d 9b cc 21 bc
       -0.024054823 0.026997255 0.06644978 -0.009875442
0000c0 88 8e 76 3d b1 96 73 bc fb 02 92 3c 45 3e 6d 3b
       0.060194522 -0.014867471 0.017823687 0.0036200446
0000d0 70 89 9f 3b bf 48 f3 bc 4b 6a 59 3d f3 99 dd 3c
       0.0048686787 -0.029697774 0.053079884 0.027050948
0000e0 70 f3 e0 3c 77 66 ca 3c 3a 6d 24 bd d3 be 78 3c
       0.02745983 0.024707062 -0.04014323 0.015182215
0000f0 5c 9b 1e bc 56 48 ab 3c e0 cf 85 3a 66 ed 14 3d
       -0.009680595 0.020908516 0.0010209046 0.036359213
000100 f4 96 35 3b e0 5d 06 bd d5 c3 16 bd f1 9a b4 bb
       0.0027708383 -0.03280437 -0.036807854 -0.0055116345
000110 ba 58 a4 bc b5 52 64 bb 92 52 89 3d c0 3f 25 3d
       -0.02006184 -0.0034839336 0.06705202 0.040344
000120 47 9b 57 3b 25 6c 1d bd 15 47 cc bc 56 ff 11 3d
       0.003289895 -0.038433213 -0.024936238 0.035643898
000130 14 97 1a bd 5c 3c b8 3c 5e ca ab bc 0b 49 f2 3c
       -0.037741736 0.02248972 -0.02097052 0.029575845
000140 92 38 d5 3c 6f 76 11 3d 93 a1 50 3d af a2 9a 3c
       0.026027951 0.035513338 0.05093534 0.018876402
000150 3a fd 50 3d aa 96 16 3d cb 54 bd 3c d7 20 09 bc
       0.051022746 0.03676478 0.023111722 -0.008369646
000160 53 08 d5 3c 92 25 8b bc f4 39 98 3d b5 2c 63 bd
       0.026004946 -0.016985688 0.07432929 -0.055462558
000170 2d 6d 4d 3d 10 0b fb 3c bf 1f 83 bb ce a1 09 3d
       0.050152946 0.030644923 -0.004001587 0.033601575
000180 70 f0 cc bc 63 f9 f6 bc e3 69 06 3d 50 41 20 3a
       -0.025016993 -0.030148214 0.032815825 0.0006113248
000190 3b 71 b1 3c 2b a1 f6 bb 49 39 3a 3d 05 c0 81 bc
       0.021660438 -0.007526537 0.045464788 -0.015838632
0001a0 8b 74 60 bc 95 05 e5 3c 2d ed 65 3d 14 53 af 3c
       -0.013699661 0.027956763 0.05613439 0.02140192
0001b0 9c e6 cb 3c 1d b6 44 3c ff 9f 81 bb 6e f1 df 3c
       0.024890237 0.01200631 -0.0039558406 0.027336802
0001c0 af a8 ba 3c e6 ca 69 3d 37 8c 42 bc a1 e7 e9 bc
       0.022785513 0.057078265 -0.01187425 -0.028552832
0001d0 a8 6b 20 3d 7f 26 39 bb ef 2e e8 3c 87 58 2b 3d
       0.03916517 -0.0028251705 0.028342692 0.041832473
0001e0 c0 83 94 bb f9 ee 97 3c 1b de d5 bc 9c 5f 11 3d
       -0.0045323074 0.018546568 -0.026106885 0.03549157
0001f0 8a 98 9f bc 58 1c 84 bc 18 16 59 3d d5 9d 51 bc
       -0.019481916 -0.016126797 0.052999586 -0.012793978

fc2.weight f4 [128, 128]
000000 43 03 df 3c c7 a3 a4 bd ad 91 e3 bc 40 a5 ed 3d
       0.027223235 -0.080390505 -0.027779425 0.116037846
000010 c2 0f c4 bd 6e 27 ed 3c 60 a0 c8 bd 7d e4 8f 3d
       -0.09573318 0.028949466 -0.09796214 0.070260026
000020 e0 87 a6 bc c8 c0 8f bd db 40 80 bd 97 48 79 bd
       -0.020328462 -0.07019192 -0.0626237 -0.060860243
000030 15 05 4b 3d 73 de ff 3c 00 00 f0 bc b3 37 0c 3c
       0.049565393 0.031234002 -0.029296875 0.008558202
000040 5a da fd bc 6f d5 7c bc cb b6 ce 3c 4b 4c f8 3c
       -0.030987907 -0.015431746 0.025233647 0.030309817
000050 b4 8e 88 3d 4f e5 47 3e 15 69 a7 3d 43 12 9c 3d
       0.066678435 0.19521068 0.0817434 0.07620671
000060 1a 5a fe 3d bb d4 b9 3d 98 10 b3 bd a3 e7 d3 3d
       0.12419529 0.09073778 -0.087433994 0.103469156
000070 72 35 c3 3d 09 0c 83 3d 45 1d b4 bc 66 aa 32 3d
       0.09531678 0.0639878 -0.021986613 0.043619536
000080 0e af 39 3c db 1b f3 bd cb af a6 b9 9a d7 b7 bd
       0.01133324 -0.118705474 -0.00031792963 -0.089766696
000090 26 b0 f1 3c 3a b4 b1 3d ea 58 06 3e 9e 40 2f bd
       0.02950294 0.086769536 0.13119856 -0.042786233
0000a0 d9 b6 aa 3d ec 6d 6f 3d 5a b9 b2 3d 88 cf bf 3c
       0.08335657 0.05845444 0.08726759 0.023414388
0000b0 ae af 10 3e 69 2a f4 3d 78 7f b6 3c 5d 67 8c 3d
       0.14129516 0.119221516 0.022277579 0.068556525
0000c0 ea b1 ad 3d 55 40 0d 3d 1b 20 ac bd 24 c2 49 3e
       0.084812 0.03448518 -0.08404561 0.19702965
0000d0 7e 35 6e bd 73 23 e4 3d 7c c6 33 3d c4 1d a5 3d
       -0.058156483 0.11139574 0.04389046 0.08062318
0000e0 4b 57 c5 bc ac 59 f7 bd 38 33 50 3c 62 58 a0 3d
       -0.024089476 -0.120776504 0.012707524 0.07829358
0000f0 9b dc 4c 3d 88 df 45 bd 92 32 1b 3e f1 6a 9b bd
       0.050015073 -0.04830888 0.1515601 -0.07588757
000100 3a a3 da 3d e8 7d 77 3b 65 b9 25 3e e1 09 2e be
       0.10675664 0.0037764255 0.16184004 -0.16995956
000110 83 18 f7 3c 98 b0 3d 3d 9a 31 3e bd 35 23 1f be
       0.030163055 0.04631099 -0.046434022 -0.15540774
000120 28 90 b1 3c 2b 2e ba 3c 80 6d ea 3e 18 9d 83 bd
       0.021675184 0.022727093 0.45786667 -0.06426448
000130 7e 12 05 bb 09 d9 06 3d 89 af 56 bd d9 6b 8c bc
       -0.0020305212 0.032921825 -0.052413497 -0.01714127
000140 98 af e5 3b e8 91 2f 3d a4 d8 97 3d 3f fe 16 bd
       0.007009458 0.042863756 0.07414368 -0.03686356
000150 14 dc 3a 3d 67 8b 1b 3c f2 6c 0d bd 47 a7 e6 3d
       0.04562004 0.009493685 -0.034527726 0.11262374
000160 94 d2 85 bd 51 44 86 bc ce e9 36 3d 4d 55 0f be
       -0.06534305 -0.016389998 0.044656567 -0.13997383
000170 9c 6e 6d 3a f1 29 86 3c fd e6 c3 3d a2 db cb 3d
       0.00090573146 0.016377421 0.09565542 0.09954001
000180 c5 48 02 3c 37 54 af 3c d7 b1 99 3b 32 d7 68 3d
       0.00795192 0.021402461 0.0046903896 0.05684585
000190 65 b2 bc 3b 6d be 86 3c 72 a0 86 bb 08 5b 2f bc
       0.005758571 0.016448224 -0.004108482 -0.010702856
0001a0 a3 5d 12 3e e0 73 64 bd 74 f9 c5 3d 2b c9 e1 3d
       0.14293532 -0.05577457 0.0966672 0.11024698
0001b0 67 e7 fa 3d 9b 7d 9d be 11 3c 8a be 28 e7 0b 3d
       0.12251168 -0.30759892 -0.26998952 0.034155995
0001c0 ba a4 c4 3d 84 cb ba 3d fd 6c 02 be ce af 6a bd
       0.096017316 0.09120849 -0.12736888 -0.057296567
0001d0 87 ea 11 be 35 f0 19 bd 4d ee 25 3d 8f 13 05 3e
       -0.14249621 -0.037582595 0.040510464 0.12995742
0001e0 c1 19 95 3c a0 01 ce 3d e5 da 75 3e bb 88 17 3c
       0.018200757 0.10058904 0.24009283 0.009248908
0001f0 dc c1 d7 bc 2e a5 1b 3e d1 49 35 3d ca 14 bf 3c
       -0.026337557 0.1519973 0.04425985 0.023325343
000200 95 44 48 3d 6b 7c 0b 3c 22 0f 29 bd 60 1c 36 bd
       0.04889353 0.00851355 -0.041274197 -0.044460654
000210 e2 98 01 3d ee ec 95 bc 72 14 59 3d 6c f6 75 3d
       0.03163994 -0.018301453 0.052998014 0.06004946
000220 42 4d a9 3b 88 17 36 bc 30 57 9d 3d 57 16 a3 bd
       0.0051666806 -0.011114009 0.07682645 -0.07963245
000230 40 90 70 bb 59 88 f1 bb 36 61 6a 3d 23 83 e6 3c
       -0.0036707073 -0.0073709902 0.057221614 0.028138703
000240 ca 1a 98 bd c0 26 6f bc a6 23 72 3d 33 74 a3 3d
       -0.074269846 -0.014596641 0.05911603 0.079811476
000250 2c 73 9d 3d ae bb 15 bd ac 30 23 bd 28 e5 5d bb
       0.07687983 -0.03655594 -0.03984134 -0.0033858512
000260 3a f3 78 bd 7e 5e 81 bd 97 da 99 bd 83 43 61 bd
       -0.060778834 -0.06316851 -0.07512396 -0.054996025
000270 39 da b9 bc 03 64 3a bd ea 0d 4a 3c e1 ef b3 bd
       -0.022687064 -0.045505535 0.012332419 -0.08785988
000280 34 50 a6 bc d7 41 6b 3d 06 c9 91 3d 17 6a 22 3d
       -0.020301916 0.057435837 0.0711842 0.039651956
000290 6a 58 16 3d 7f 05 a1 bd 71 68 97 bd f7 ba 01 3d
       0.036705412 -0.078623764 -0.073929675 0.031672444
0002a0 00 45 a4 3d 86 6b 84 3a 91 51 e7 bc 48 1b a5 3d
       0.08020973 0.0010102845 -0.028237136 0.08061844
0002b0 3c 85 82 3d f2 1b 07 3d 5e d4 ad bc 0b c0 8b bd
       0.06373069 0.032985635 -0.021219429 -0.06823739
0002c0 81 7e 57 3d fb b7 96 bb 34 be 98 bd ee 8a 2b 3c
       0.052610878 -0.004599569 -0.07458153 0.010470135
0002d0 c4 ee b6 bd 87 f3 3a bd e1 38 bc bc 14 b9 a3 bb
       -0.0893226 -0.045642402 -0.02297634 -0.0049964283
0002e0 6b 37 a1 bd af d8 b5 bd de 66 17 3d 92 71 f0 bc
       -0.07871898 -0.0887922 0.036963336 -0.02935103
0002f0 31 a1 36 bd d9 5c 85 bd 2d d5 01 bd 74 32 38 bc
       -0.044587318 -0.0651185 -0.03169744 -0.011242498
000300 7c 23 d9 3b 68 77 98 3d 87 5e 46 3c 5f fb 22 3d
       0.0066265445 0.0744465 0.012107498 0.039790507
000310 48 d8 cd 3c ad 0a 86 bd 9f 1c 10 3c 37 6b 19 bd
       0.025127545 -0.06545005 0.008795886 -0.037455764
000320 4a 4d 9d bc b5 10 3e 3d 8b 6d 5d bd 25 df f7 bb
       -0.019201893 0.04640265 -0.054059546 -0.0075644427
000330 82 a5 a4 bd 14 35 91 bb be af 60 bd f8 38 f2 bc
       -0.080393806 -0.0044313762 -0.0548551 -0.02956818
000340 c9 f9 b9 bd 8b a1 70 bc de 84 ac bd ed c9 99 bd
       -0.09080846 -0.014686952 -0.0842378 -0.075092174
000350 83 ce aa bc 67 6b 99 bd 5c 49 3a 3d b7 a8 9d bc
       -0.020850426 -0.074911885 0.045480117 -0.019245489
000360 a3 8c b6 bc f7 9e b7 bd 8e 9a 8c bd d2 d8 32 bd
       -0.022283858 -0.08965867 -0.068654165 -0.043663807
000370 ff 74 fe bc 8d 4d 98 bc 5c f7 2e bd 03 79 76 3d
       -0.031061647 -0.018591667 -0.04271637 0.060174
000380 41 52 95 bd 67 c1 70 bd aa 09 ab bd ea 7a a1 bd
       -0.07291079 -0.058778193 -0.08351453 -0.07884772
000390 c8 ff 4a bd d6 9a 5e bd 11 f8 b6 3c 0e 95 34 3d
       -0.04956034 -0.05434688 0.022335084 0.044087462
0003a0 bd 1e 84 bd 79 45 ca bb 78 30 2c 3d 46 15 5d 3a
       -0.06451175 -0.0061728326 0.04203841 0.0008433651
0003b0 d1 50 1f bd 23 96 e5 3b 19 fd af bd ca b1 de bc
       -0.038895432 0.007006423 -0.085931964 -0.027184386
0003c0 b8 2a c7 3c b5 60 ef bb 6b 30 59 3d 25 34 68 bd
       0.024312362 -0.0073052295 0.05302469 -0.056690354
0003d0 ee 11 f3 bc 63 e5 26 bd 01 be 7e 3b 7e f3 a2 bd
       -0.029671635 -0.040746104 0.0038870575 -0.07956599
0003e0 85 1c 15 bd e1 8c 92 3c fd fe a1 bb e7 fd a2 bd
       -0.03640415 0.017889442 -0.004943727 -0.07958584
0003f0 36 97 54 3d bc 29 72 3d 82 a4 af bd c4 9c 33 3d
       0.05190202 0.059121832 -0.08576299 0.043850675

fc2.bias f4 [128]
000000 f8 fb a0 3d 9b 20 d9 3b 10 c7 c2 3c 18 10 3e bd
       0.07860559 0.0066262013 0.023776561 -0.046402067
000010 95 ac 06 bd 85 d3 20 bd 7f 6a 47 3d 02 ce cb bc
       -0.03287943 -0.03926422 0.048685547 -0.024878506
000020 05 60 97 bd 3f 46 a4 3d e5 56 e9 3d 1b 82 51 bd
       -0.07391361 0.08021211 0.11393527 -0.05114947
000030 f0 38 0e 3d 26 43 61 3d 0f 08 81 bc 84 34 eb bc
       0.03472227 0.05499568 -0.015750913 -0.028711565
000040 8d df 9d bd a2 84 58 3d 1f a4 7b bd d8 7f 78 bc
       -0.077086546 0.052860864 -0.061435815 -0.015167199
000050 9a 30 65 bd 0e 7b 9a 3d 9e 18 89 ba 13 5b b4 bc
       -0.055954553 0.07543002 -0.0010459607 -0.022016084
000060 50 db f9 bb 2e ca 60 3d 2e 9c b3 3d d9 9b f1 3c
       -0.007625021 0.054880314 0.08770023 0.02949326
000070 18 ce 46 3c ea 81 4b 3d 22 48 93 bd 6e ae 6d 3c
       0.0121340975 0.049684443 -0.071914926 0.014506919
000080 f1 29 9e 3c 9d 27 ce bd d1 7c 0d 3d 63 0a b4 3d
       0.019307109 -0.100661494 0.034542862 0.087910436
000090 3d e0 9b 3d 9d 89 ec bc dc e2 6d 3d fb ee 21 bd
       0.076111294 -0.028874213 0.058077678 -0.03953455
0000a0 e4 05 86 3d 07 b8 3b ba b6 55 f6 3c 61 89 b1 3c
       0.06544092 -0.0007160906 0.030070167 0.021671953
0000b0 96 91 61 bd f3 a0 f6 3c bf d9 6d bc d5 bc 27 3d
       -0.055070482 0.030106043 -0.014517247 0.04095157
0000c0 aa 9a 84 bc b0 c5 61 bc b4 56 98 3d 9c 7a 82 bd
       -0.01618703 -0.0137800425 0.07438412 -0.06371042
0000d0 09 d6 2b 3c 94 76 b6 3d fd c3 71 3c 14 ef c8 bc
       0.010488042 0.08909336 0.0147562 -0.024528064
0000e0 58 ae 87 bd b7 58 85 3d 01 4f 1a bb 64 c2 24 3d
       -0.0662505 0.06511062 -0.0023545625 0.040224448
0000f0 32 dd f3 3d dd 37 94 bd 02 34 2d bd 27 8c 49 bd
       0.11907424 -0.072372176 -0.042285927 -0.049205925
000100 d5 01 c6 3c 71 c7 44 bd 34 4e 94 bc 7b de cb 3d
       0.024170795 -0.048041765 -0.018103696 0.09954544
000110 15 87 ba 3c 37 9b bf bc b6 32 58 bb b1 76 31 bd
       0.02276949 -0.023389442 -0.003298921 -0.043326084
000120 71 b0 65 3d 80 6d aa bc 9e 5f 00 bc 94 62 16 3d
       0.05607647 -0.020804167 -0.007835297 0.036715105
000130 e2 92 1b 3d 4d 2f 8b bd fd c3 17 3d eb cc 91 3d
       0.037981875 -0.06796131 0.037052143 0.07119163
000140 15 41 54 3d 20 25 a2 3c a6 9b c3 bc b5 32 99 3d
       0.05181988 0.019793093 -0.02387793 0.07480375
000150 f7 23 83 3d 25 82 7e 3d 3e 87 03 3d 4c d6 a4 bc
       0.06403344 0.062135834 0.0321114 -0.020121716
000160 c0 22 48 3c bf c1 95 bc c0 3d 77 3c 18 dd 6c bb
       0.012215316 -0.018280862 0.015090406 -0.0036142524
000170 9a a8 f3 3b 81 ab e3 3d 0b 4b 07 bd 9d fd 98 3d
       0.0074358704 0.11116696 -0.03303055 0.07470248
000180 43 0c 35 3d c6 1e 8b 3d 60 8b 15 3d 20 25 97 bb
       0.044201147 0.06792979 0.03650987 -0.00461258
000190 ae 5f 42 bd bd 8b b9 bc 3d 8d b2 bc f7 87 7b 3d
       -0.04745453 -0.02264964 -0.021795863 0.061408963
0001a0 0a 90 4a bd 44 c4 86 3c 9b fa 40 3c af 83 5a bd
       -0.049453773 0.016451009 0.011778499 -0.05334824
0001b0 52 27 e5 3c 45 fd aa bc 58 02 db 3d 40 4a 2d 3d
       0.027972851 -0.020872721 0.106938064 0.04230714
0001c0 ca ef 08 3d 49 a8 29 bc e8 8a 22 3d 94 29 86 3d
       0.033431806 -0.010355064 0.039683253 0.06550899
0001d0 26 b3 99 3c bf 1b 00 3d 08 85 6f 3d b5 04 4b 3d
       0.018762182 0.03127646 0.058476478 0.049565036
0001e0 81 80 ac 3d e4 50 86 3d 4e 48 e3 bc 00 c5 7c bc
       0.08422948 0.065583974 -0.027744438 -0.015427828
0001f0 2f 17 cb bc a0 b2 3d 3c 86 80 c6 3c 39 24 42 bd
       -0.024791328 0.011578232 0.024231207 -0.047397826
