azure-functions/PredictFuture/parking_model.pt (torch, 584915 bytes, 10 tensors)

rnn.weight_ih_l0 f4 [512, 1]
000000 6a 24 80 3c 98 76 8e bd 50 9b 11 3d 99 fa a0 bc
       0.015642364 -0.06956214 0.03554851 -0.019650744
000010 31 5c a2 bd 0e 20 91 3d ec fd 2b bd f6 78 e7 3b
       -0.0792774 0.07086192 -0.041990206 0.00706398
000020 22 7f 1f bd 2c 66 45 3d 69 78 82 3d 98 a9 d4 3c
       -0.038939603 0.04819314 0.06370623 0.025959775
000030 51 18 a4 bd 95 48 c3 bd be 1e ff 3c 64 83 6a 3d
       -0.080124505 -0.09535328 0.031142589 0.05725421
000040 0f 1c f3 3c e4 b0 9f bc 46 cf 31 3d 42 5f 9f bd
       0.029676465 -0.019493528 0.043410562 -0.07781841
000050 79 38 31 bc cf bd aa bd 2f 4f c5 3b 9b 6f 89 3b
       -0.010816687 -0.08336984 0.0060214023 0.0041942126
000060 de d2 a8 3b 24 a4 46 bd f9 c1 0d 3d 80 c1 86 bd
       0.0051520905 -0.04849638 0.034608815 -0.06579876
000070 08 0b d2 3d 97 0f d3 3d b7 58 03 bd 41 6a 28 bd
       0.1025601 0.10305708 -0.032067027 -0.041116957
000080 ed cf cf bd 5b 70 b4 3d 2e dc 8f 3d 09 2b d1 bc
       -0.101470806 0.088104926 0.07024418 -0.025533216
000090 21 17 87 bc 88 89 c5 3c 45 e8 75 3d 87 dd ab bb
       -0.01649052 0.024113432 0.060035963 -0.005244914
0000a0 af 18 18 bd 47 5b 0c bd 1f fd 31 bd db 9a 3f 3c
       -0.037132915 -0.034266736 -0.043454286 0.011694635
0000b0 88 e0 29 bd 42 32 48 bd af e3 37 bc 07 af ec bc
       -0.041473895 -0.048876055 -0.011223718 -0.028892053
0000c0 c3 1d ed bd 3c fc d4 bd bb 82 83 3d 8d 84 31 3e
       -0.11577942 -0.103996724 0.06421419 0.1733572
0000d0 2b 86 cc bd d0 70 f1 bc 16 7b 9e bd be e3 d2 bd
       -0.09986528 -0.029472739 -0.077383205 -0.102973446
0000e0 48 22 a0 3c 1f e2 7e 3d c0 e2 1f 3c 72 c2 ab bd
       0.019547597 0.062227365 0.009758651 -0.08386697
0000f0 cb 80 57 bc 08 aa ab bc 1f e5 26 3c 13 51 f3 3d
       -0.013153265 -0.0209551 0.010186463 0.11880698
000100 b3 b0 a3 3d 18 80 b9 3b c7 a3 d2 bd aa f5 43 bd
       0.07992687 0.005661022 -0.10285144 -0.047841705
000110 87 c5 55 3c 7c 59 f9 bd dd aa 80 3d a2 0c 22 bd
       0.0130475825 -0.12175271 0.062825896 -0.03956283
000120 2d 6d ee bd 0e a2 f2 3b 31 27 10 be 43 ad 91 3d
       -0.116419174 0.0074045723 -0.1407745 0.07113125
000130 68 a5 3a bc bf 5c 68 3d 51 92 ae 3d 9b 4b 0d 3d
       -0.011391975 0.056729075 0.085240014 0.03449593
000140 51 df ae bb a1 36 d3 bd c8 ca 9f 3d eb 68 a6 3d
       -0.00533668 -0.10313154 0.07802349 0.0812548
000150 3b 2a a6 bd ba f2 4a 3d 72 f7 2f 3d f8 93 00 bd
       -0.081135236 0.04954789 0.04296059 -0.031391114
000160 2e 6e 9d 3d d3 7a ad 3b f8 c1 a0 bd 8e 78 01 3d
       0.07687031 0.005294183 -0.078494966 0.03160911
000170 85 33 95 3c 6f ac 9b bc 66 2a 75 3d fe 4f a9 bd
       0.018213043 -0.019003121 0.059854887 -0.082672104
000180 2a 1c 01 be aa 08 e5 3c 19 ef 9f 3a 1d 99 c0 bc
       -0.126084 0.027958233 0.0012201994 -0.02351051
000190 ee 5e 0c 3d bd 8d 91 bd f4 68 d5 3d 12 e7 cf bd
       0.03427022 -0.071071126 0.10420409 -0.10151495
0001a0 9d ee 15 bd fb fd 06 3d 14 80 e6 3c 98 3b ad 3b
       -0.036604512 0.03295706 0.028137244 0.005286645
0001b0 da 87 48 bd 20 d9 02 3d f9 4e 17 3e fb f3 a0 bd
       -0.048957683 0.031945348 0.1477622 -0.078590356
0001c0 e3 9a 9a 3c 2a be 4d 3d bb c5 8b 3d a8 21 d0 bd
       0.018872684 0.050230183 0.068248235 -0.101626694
0001d0 ce fc df bc 85 57 d6 bc 2d 65 15 3c da bb 4c 3d
       -0.027342226 -0.02616478 0.0091183605 0.049983837
0001e0 c6 c5 a1 3c f4 59 e7 3d 1f ee 8a bc 4c 76 4c 3d
       0.019747626 0.11296454 -0.016959248 0.049917504
0001f0 a8 1e 66 3b 03 98 b7 bc ed 94 e5 3c 25 47 38 3b
       0.0035113487 -0.022411352 0.028025115 0.0028118577
000200 ca 3c f8 3c 9c f0 09 3d fb 08 9c 3b 68 d8 7c bd
       0.030302424 0.03367673 0.0047618127 -0.06172982
000210 f0 3c 69 3d 07 3a ee 3d 5a 0f c8 bb 38 41 c2 3c
       0.05694288 0.116321616 -0.0061053457 0.02371274
000220 ff 7f d0 bd 7b 63 6c 3d db 14 e4 3d 5b ab cb 3d
       -0.10180663 0.05771206 0.1113679 0.09944793
000230 57 96 68 bd 13 01 0e be e6 16 19 3d fe bc 70 bd
       -0.056784 -0.13867597 0.037375353 -0.058773987
000240 15 a7 1c 3d eb 58 3a 3d 8a 92 ac bd 8b 09 34 3d
       0.03824528 0.045494955 -0.084263876 0.043954413
000250 75 f7 c5 3d 65 0c 2b bd cc 88 01 be 37 0e 9f 3d
       0.09666339 -0.041759867 -0.1264984 0.07766383
000260 05 fb 4a bb 4a 2d bf 3d 84 04 f6 bc 21 fa 56 bd
       -0.0030972373 0.0933481 -0.03003145 -0.052484635
000270 06 8d 85 3c ed 1f dd 3d bd 09 b5 3d aa 2d 69 3d
       0.016302597 0.10797105 0.08839748 0.056928314
000280 f1 58 90 bd ef 1b 37 3d fc 46 02 bd 12 a7 e5 3c
       -0.07048214 0.044704374 -0.031805977 0.028033767
000290 49 b7 e7 3c 63 ea a6 bd 43 ca c9 bc 14 ca c1 3d
       0.02828564 -0.081501745 -0.024632579 0.094623715
0002a0 0c 57 24 bc 84 60 11 bd 66 cd 9c bd 9c 8d 17 3e
       -0.010030519 -0.035492435 -0.07656364 0.14800113
0002b0 09 28 e1 bd 50 9b 3c 3d 8b 53 19 3c dd 52 d2 bd
       -0.10993964 0.046046555 0.009358297 -0.10269711
0002c0 67 90 cf bd 49 74 3d bc f3 b4 12 3d d7 dd 8b 3e
       -0.101349644 -0.011563369 0.035817098 0.27317688
0002d0 79 d7 ec 3c 2d 16 82 3d 4f 70 62 3c da 0d ca 3c
       0.02891134 0.06351886 0.013820722 0.024664808
0002e0 91 0f d8 bd 1e aa bf bd 0c af 37 bc 77 e8 67 bd
       -0.10549844 -0.09358619 -0.011211168 -0.05661818
0002f0 9e 62 17 3d 54 a4 e6 bd ca 32 b7 bd 85 17 17 3e
       0.036959283 -0.11261812 -0.08945234 0.14755066
000300 83 e0 e3 3d 59 14 89 3d e2 1a 10 3d fd 8d be 3c
       0.111268066 0.06693334 0.035181887 0.023261065
000310 e7 e4 93 3d 2f f0 f6 bd 3a eb 6c bd bf b2 8c bd
       0.07221394 -0.1205753 -0.057841517 -0.068700306
000320 67 55 da bb 10 87 5b bb e1 ff 95 bd 25 bc 1f bc
       -0.006663013 -0.0033497252 -0.07324196 -0.009749447
000330 c6 c7 79 3d 15 7c 36 3b 71 9b 34 bd b5 54 18 3e
       0.060981534 0.0027844955 -0.044093553 0.14876063
000340 72 4b 0b 3e dd 2a 58 bd 05 04 cb 3c c3 1c fc 3d
       0.13602999 -0.052775253 0.02478219 0.12310173
000350 19 82 f0 3c 1d 27 73 3d 74 8f 7f 3c 7b ba 0b bd
       0.02935891 0.059363473 0.015598167 -0.03411339
000360 2b fb 52 3d 53 79 2a 3d d1 b5 05 3d 9e 15 f7 bc
       0.051509064 0.04161961 0.032644097 -0.030161675
000370 df ef 8a bd d8 47 00 bd 38 1e 87 3d 65 18 15 bd
       -0.06784033 -0.031318516 0.06597561 -0.036400218
000380 b1 37 f3 bd d8 9e ae bd 10 a6 6d bd 09 7d 23 bc
       -0.11875857 -0.08526391 -0.058019698 -0.009978541
000390 67 5f 32 bd e6 6f 57 bd b2 9c cd 3c a2 02 dc 3c
       -0.043548014 -0.05259695 0.025099132 0.026856724
0003a0 38 58 fc bd d1 cd 67 3d b2 2e 1f 3d 52 02 b6 3c
       -0.12321514 0.056592766 0.03886289 0.022217903
0003b0 7f 74 f9 3c d2 1f cf bd 47 12 e5 3d 78 af 9b bc
       0.030451057 -0.10113491 0.11185127 -0.019004568
0003c0 f1 aa f1 3c d1 e2 e2 3c 32 44 c6 3d fa 64 b3 3c
       0.029500457 0.027696045 0.09680976 0.021898735
0003d0 61 f3 45 bd 23 95 b1 bd 5e 2d 4b 3d c4 ed 8c 3d
       -0.048327807 -0.08671024 0.049603812 0.06881288
0003e0 a0 59 29 3d e5 bc b8 3c db 97 b9 bc b9 17 40 3e
       0.04134524 0.02255101 -0.022655418 0.1875905
0003f0 6d 96 97 3d d8 0d 51 3c 09 d3 1b bd 11 32 23 bd
       0.07401738 0.012759648 -0.038043056 -0.03984267

rnn.weight_hh_l0 f4 [512, 128]
000000 1b e5 b2 bb 49 09 1a bd 69 ff ec 3d 1a d4 6c 3d
       -0.0054594404 -0.03760651 0.11572153 0.057819463
000010 8f ff c0 bc d6 b7 76 bc 24 e3 02 3d 2c 3e 88 bb
       -0.02355936 -0.015058478 0.0319549 -0.004157802
000020 fe 0f 4b bc 0a 60 b6 3c 19 5e 1a bd 0b 4b 2d 3d
       -0.01239395 0.022262592 -0.037687395 0.042307895
000030 a7 f7 8e bc 9e 3b 4a 3c 87 77 6c bd d6 4e 36 3d
       -0.017452074 0.012343315 -0.057731178 0.044508778
000040 62 0e 38 3d 2d 7f a3 3c 59 03 00 3d 93 f5 19 3d
       0.04493559 0.019958103 0.031253193 0.037587713
000050 f9 b5 7f bd 6a 13 d0 3b fc 2b 0f bd 7e 52 13 3d
       -0.062429402 0.0063499706 -0.034954056 0.035967343
000060 da 83 7d bd 70 82 a9 3d 9c d5 ad 3d 3d 5c d8 bd
       -0.06189332 0.08276832 0.084880084 -0.10564468
000070 64 04 29 bd 01 2e 3c 3d 7b 46 e6 bc 7d 06 0e 3d
       -0.041263953 0.04594231 -0.02810978 0.034674156
000080 59 00 68 bd 64 b8 93 3d 5d 32 6b bd 61 e7 dd 39
       -0.056640957 0.07212904 -0.057421077 0.00042324796
000090 9d 60 9d 3d 6b e0 0a 3d 08 24 42 3d d8 6d 6f 3d
       0.07684443 0.033905428 0.047397643 0.058454365
0000a0 4b fb 5b bd 65 c1 28 bc ce 5b ff 3c 7a 09 ca 3c
       -0.05370645 -0.010300015 0.031171706 0.024662722
0000b0 1e bc a7 3b bc dd 8f bd 0b 16 6a 3b ab 64 b8 bd
       0.005118861 -0.07024714 0.0035718705 -0.09003576
0000c0 5b 84 a1 3d 92 7d 2b bd 41 c2 b3 3d a9 33 6b bc
       0.07886573 -0.0418678 0.08777285 -0.014355578
0000d0 9a 2f 10 3c 7f 88 6c bc 70 7e 6a 3d 79 07 5e 3d
       0.008800412 -0.01443684 0.057249486 0.054206345
0000e0 2f 35 b6 3c b8 42 b4 bd c0 d8 1c 3d 1c 3a 56 bd
       0.022242157 -0.08801788 0.038292646 -0.05230151
0000f0 42 b0 96 3c 0b 95 62 3d 67 dc 5f 3d 2a 1a 54 bd
       0.018394593 0.05531792 0.05465355 -0.051782764
000100 fa d9 cf 3b 45 2f 43 3c 0f 7f e0 bc a9 8b aa bd
       0.0063431235 0.011913125 -0.027404336 -0.08327419
000110 88 b6 10 3d d2 4a 4e 3d 28 34 97 3d a8 cc fb bc
       0.035330325 0.050364323 0.07382995 -0.030737236
000120 29 09 79 bd b2 5a 82 3c 94 24 76 bd 90 fe 2a 3d
       -0.06079975 0.015912388 -0.060093477 0.041746676
000130 ef f9 ae bd 90 9b f8 bc 3d 21 39 bd d8 ea 6c 3d
       -0.08543765 -0.030347615 -0.045197714 0.057841152
000140 7a a7 5c 3c a6 a9 d3 3b 26 e6 2e 3d 38 a5 41 bd
       0.013467664 0.0064594327 0.042699955 -0.047276706
000150 53 f8 ee bc 7a 47 7f bd a7 91 72 3d 30 1e 92 bd
       -0.029171145 -0.062324025 0.059220936 -0.07134664
000160 d7 08 00 3d fc fa 30 bd 77 8e 0f 3d 27 62 03 3d
       0.03125843 -0.043208107 0.035047974 0.032076027
000170 d4 45 3c bd c3 5f 0d bd 08 51 10 3c 48 f0 22 bd
       -0.04596503 -0.034515154 0.008808382 -0.03977993
000180 91 bf 3d 3d 3a c4 9d 3d 7c 43 89 3d 7a e2 aa bc
       0.04632527 0.07703443 0.06702325 -0.020859946
000190 58 e2 86 3d 03 f9 6c 3c b4 52 4c bd 43 f8 a8 bd
       0.065861404 0.014463666 -0.04988356 -0.08250477
0001a0 63 84 76 bd 47 16 8f bd 80 cc ae bd ef b4 9c bd
       -0.060184848 -0.06986671 -0.08535099 -0.07651698
0001b0 76 9e c1 bc 41 84 47 bd d3 84 ad 3c 89 9c 19 bd
       -0.02363513 -0.04871011 0.0211815 -0.0375028
0001c0 5b 44 84 bc 81 ab 0a 3c b3 aa 6c bd ed 0f 33 bd
       -0.016145876 0.008463741 -0.05777998 -0.04371636
0001d0 0d 97 98 3d ab e2 96 3d 5b 9e 92 3d d8 cb 6e bd
       0.07450686 0.07367452 0.0715911 -0.05829987
0001e0 1c bc 30 bd 83 9e ac 3c 10 f6 7b 3d 14 a5 83 3d
       -0.043148145 0.021071678 0.06151396 0.064279705
0001f0 b6 9f 96 bd 45 ef 01 bd 60 18 9c bd 12 ae e2 3d
       -0.07354681 -0.031722326 -0.07621837 0.110683575
000200 7a 8b 31 3d c8 a4 ea bb 15 a9 c2 3d a8 7c 34 3c
       0.043345906 -0.0071607567 0.09504906 0.0110160485
000210 18 7f 3d bd 2f 17 1a bd 84 8c 66 3d 01 88 ef 3c
       -0.046263784 -0.037619766 0.05628635 0.029239656
000220 89 f6 ac bd d3 66 9f bd b5 0c 8f 3d 19 fa 4f bd
       -0.0844546 -0.07783284 0.069848455 -0.05077562
000230 7b 25 81 bc b9 79 56 3b 92 7e 66 3d 36 ca 0d 3d
       -0.015764942 0.003272636 0.05627305 0.03461667
000240 2a 62 6c bb 29 25 32 3d 38 85 5a 3d 85 bd 03 3d
       -0.0036069253 0.04349247 0.053349704 0.03216316
000250 e8 f7 ef bc 24 15 57 bb be 07 34 3d 50 6f 40 3d
       -0.029293016 -0.0032818997 0.043952696 0.046981156
000260 99 2f be 3d 64 a9 93 3d ad 85 51 bc e3 c5 56 bc
       0.09286422 0.07210043 -0.012788218 -0.013108703
000270 b4 e7 54 bd c5 89 b8 3d 32 09 03 3d e6 ff 52 bd
       -0.05197878 0.090106525 0.03199119 -0.051513575
000280 7b 37 0c 3c c1 a0 7c bd a6 a7 8a 3d 2d b6 e4 3c
       0.008558149 -0.061676744 0.06770258 0.0279189
000290 89 b2 e8 3b 2d ed ec bb 64 99 c5 bd f9 e4 19 3d
       0.007101361 -0.007230422 -0.096483976 0.03757188
0002a0 d8 5e 62 bd 80 36 ac 3d 15 d7 27 3d ca 08 93 3d
       -0.05526623 0.084088326 0.040976603 0.07179411
0002b0 fc 3d 42 bd 3c ed ef bc 5c 91 5d 3d c7 a7 be bd
       -0.047422394 -0.029287927 0.054093704 -0.09309345
0002c0 08 6c 84 bd 88 44 aa bd d4 ae 30 3d f0 1a 8f bd
       -0.06465918 -0.083138525 0.04313548 -0.0698756
0002d0 0e 33 02 3c 97 a1 5c bd 8c 0e 5e bd c2 a7 2c bd
       0.007946743 -0.05386504 -0.05421309 -0.042152174
0002e0 81 fc 08 3d 6a 72 8f bc fe 7f c8 3c 0e 4c bf 3c
       0.03344393 -0.017510612 0.024475094 0.023351695
0002f0 f8 77 8e 3d 16 b6 6d bb 7b e9 b3 bc 1a 10 e2 bb
       0.06956476 -0.0036271862 -0.021961918 -0.006898892
000300 90 59 5d bc fc df 73 bd ea a9 be bc d9 e0 3f bd
       -0.013510123 -0.05953978 -0.02327438 -0.04684529
000310 34 36 19 bd e5 a9 3d 3d fc b6 bc 3c f1 d3 8f bd
       -0.037405208 0.046304602 0.023036472 -0.070228465
000320 43 d5 83 3d 1b 45 1c bd 25 cc f7 3c 03 25 70 3d
       0.06437161 -0.03815184 0.03024871 0.058629047
000330 be e2 bb 3c be 67 c9 bd 20 6d 03 3c c7 44 6c 3d
       0.022935268 -0.098342404 0.008021623 0.05768278
000340 8b 8b 13 3c 5e f9 95 bd f7 b6 dc 3c ec cf 8c bd
       0.009005438 -0.07322954 0.026942713 -0.068755955
000350 b3 c7 36 3d ca 3c b5 3c cc f8 8d 3d 51 cb 93 bc
       0.04462404 0.022123713 0.0693222 -0.018041285
000360 02 a1 23 bd 00 ac ba 3d d5 69 b5 bd 39 62 22 bd
       -0.03994847 0.09114838 -0.088580765 -0.039644454
000370 c9 6b 9f bd aa 9a 31 3d a1 b9 2a 3c a5 f8 82 bb
       -0.0778423 0.04336039 0.010420234 -0.003996926
000380 77 ee 04 3d 46 be 05 bc 9a 0e 82 bd f6 5e b2 3d
       0.03245398 -0.0081630405 -0.06350441 0.087095186
000390 db 26 93 3d 41 0c 96 3c 4e c8 88 bc 74 6f 55 3c
       0.071851455 0.01831639 -0.016697075 0.013027061
0003a0 cd 44 82 3c cb 89 b7 bb 2a ec 9a 3d f0 af 2f bd
       0.015901947 -0.005601143 0.07564576 -0.042892396
0003b0 c8 a4 9f 3d 16 e9 55 3c 73 71 46 bd 3a 08 9a 3c
       0.077951014 0.01305606 -0.048448037 0.01880275
0003c0 34 fe 85 3c b4 50 1b 3d f4 55 c1 3d d0 d1 35 bd
       0.016356565 0.03791876 0.094402224 -0.044389546
0003d0 29 40 92 bd 64 1e 6b 3d d0 9b a1 bd b6 ec 6d bc
       -0.07141144 0.05740203 -0.07891047 -0.014521768
0003e0 5f 5c 97 bd e0 5e 6c 3d 01 20 01 bd f9 d2 31 bd
       -0.07390665 0.057707667 -0.031524662 -0.04341409
0003f0 9e 07 8b 3c b2 84 1c 3d d8 c7 bb 3d 0a 72 ef 3c
       0.016971406 0.038212486 0.091689765 0.029229183

rnn.bias_ih_l0 f4 [512]
000000 e6 58 0d 3d 70 fd f1 3c 7b ac 00 bd b1 17 6f bd
       0.03450861 0.029539794 -0.03141449 -0.058372203
000010 4f 8f 95 bc 27 81 76 bd f1 e6 91 3d 49 11 a2 bc
       -0.018256811 -0.060181763 0.07124127 -0.019783633
000020 02 d0 21 3d 94 ee c4 3d 41 43 2f bd d5 14 17 3d
       0.039505012 0.09615818 -0.042788748 0.0368851
000030 c4 46 15 3d 19 df ab bc 82 95 45 bd f6 60 58 3c
       0.03644444 -0.020980405 -0.048238285 0.013206711
000040 96 2a 8a bd 08 bd 68 bd a3 d4 41 bd 53 2d 60 bd
       -0.06746404 -0.0568209 -0.047321927 -0.054730725
000050 1e 13 cd bc b7 f1 cb 3c a5 3d a4 bc 8f df 27 bd
       -0.02503353 0.024895532 -0.020048926 -0.040984686
000060 bb 59 be 3d da 84 a8 3d c4 16 b0 3d 1b 6e 72 3d
       0.092944585 0.082284644 0.08598092 0.059187036
000070 f2 87 e2 3c ad a9 79 bb 72 62 a3 3c 76 df 97 bc
       0.027652714 -0.003809552 0.019944403 -0.018539172
000080 ce db bd bc c1 b4 ac bd c0 ec c2 3d 43 60 56 3a
       -0.0231761 -0.084329136 0.09517813 0.0008177796
000090 a4 7e 6d bd cc 55 8e bd 4e d0 69 3d ff da 20 3d
       -0.057982102 -0.06949958 0.05708342 0.03927135
0000a0 b5 94 d7 3c 1c b9 81 bd a8 ac 04 bd f7 e9 c1 3b
       0.026316026 -0.06334135 -0.03239122 0.0059177834
0000b0 8c 5e a6 3d a4 fe 4d 3b 68 c5 a0 bd 9c 27 35 3d
       0.08123502 0.0031432295 -0.07850152 0.044227228
0000c0 e3 98 5b 3d 90 12 ad bd d9 2c 72 3c 00 40 13 3e
       0.0536126 -0.08450806 0.0147812 0.14379883
0000d0 61 00 74 bd 80 f0 93 bc 9d 04 69 bc 86 4e 8f 3d
       -0.059570674 -0.018059015 -0.014222291 0.06997399
0000e0 97 75 14 3c b3 73 6e 3d f8 65 bb 3c 40 df 08 3d
       0.009061239 0.058215808 0.02287577 0.033416033
0000f0 18 43 74 bb 9c 34 e0 3c f5 28 43 3d 92 89 89 3d
       -0.0037271436 0.027368836 0.04764648 0.067156926
000100 81 b0 dd bc d3 cc 33 3b 2b c6 82 bb b5 fc 89 3c
       -0.027061703 0.0027435317 -0.0039909086 0.016844133
000110 39 56 73 3c 86 91 b0 3d a8 e5 a3 3d c7 19 90 3d
       0.0148521 0.086215064 0.08002788 0.07036167
000120 e5 80 69 bd f6 8d 81 3d 31 a2 12 3e d1 7d 04 bd
       -0.05700769 0.06325905 0.14319684 -0.03234655
000130 44 d0 83 bd 57 27 d6 bb 63 c9 1c 3d a6 cb 13 3d
       -0.06436208 -0.0065354514 0.038277995 0.036082886
000140 7a df 64 bc d0 4e 9c 3d 6f 57 ee 3c 3d 57 85 bc
       -0.013969297 0.0763222 0.029094426 -0.01627695
000150 43 e6 29 bd 5d c0 18 bd 1d c9 76 bd ce 1c af 3d
       -0.04147936 -0.037292827 -0.06025039 0.08550416
000160 10 fe a0 3d 7e 05 b3 3d f4 48 e8 3d 73 17 17 bd
       0.078609586 0.08741282 0.1134204 -0.036887597
000170 be 1d aa 3d 3b f4 f5 3d c0 d2 ed bc f7 e3 3c bb
       0.08306454 0.12009474 -0.029031157 -0.00288224
000180 30 32 d1 bc 13 23 a2 3d 00 5b fb 3c e0 d0 0b 3d
       -0.025536627 0.07916846 0.03068304 0.034134746
000190 33 cc 0d bc 6c 3b d5 3c 6a 09 40 bb 32 58 83 3d
       -0.008654642 0.026029311 -0.0029302486 0.06413306
0001a0 b1 47 15 bb 98 56 44 bd 5f 38 a8 bc 39 3b 8e bc
       -0.0022778327 -0.047934145 -0.020534692 -0.017362224
0001b0 4f 4f ad 3d e7 04 5e 3c 24 a7 14 3e 30 3b 9b 3c
       0.084623925 0.0135509735 0.14516884 0.018949121
0001c0 69 f5 cf 3d 81 39 50 bd c3 d8 01 3c f8 4b 3f 3c
       0.1015423 -0.05083609 0.007925215 0.011675827
0001d0 fd 46 ac 3c b8 a7 b2 3b 60 c5 76 3d 6e 69 5f bc
       0.021029944 0.0054521225 0.060246825 -0.013635976
0001e0 78 78 00 3d 66 1d 96 bd bb f4 63 3d 80 d7 37 bc
       0.031364888 -0.07329826 0.055653315 -0.011220813
0001f0 b5 64 e6 3b ab 7a 76 bd 0c 8c 8d 3c e5 ad ce 3d
       0.007031048 -0.06017558 0.017278694 0.100917615
000200 95 8f 87 3d d7 22 02 3c 9d 2d 14 3c 00 26 d8 bc
       0.06619183 0.007942877 0.009044078 -0.026385307
000210 e2 e5 88 3d 6f ee 3a 3c 98 1f a7 3c 40 6f 51 3d
       0.06684472 0.011409386 0.020400807 0.051131487
000220 da 6d 1f 3d cb 96 1b bd c0 ed c8 bc b0 2b 3f 3d
       0.038923122 -0.037985604 -0.02452743 0.046672523
000230 d0 90 dd bc d4 0c 3c 3d d3 c9 14 3c a0 7c db bc
       -0.027046591 0.04591067 0.009081322 -0.026792824
000240 cc 4b 8c 3c f1 80 00 3e 88 e6 98 3d fb c9 da 3d
       0.017125987 0.12549187 0.07465845 0.10683056
000250 59 3f 96 bc 35 6d 55 bd 8e d9 33 bc cb f3 99 bc
       -0.018340753 -0.0521061 -0.010977162 -0.018793007
000260 a7 4e e5 3d 25 53 44 3d 8c cb 81 bc d2 25 8a bd
       0.11196642 0.047930855 -0.015844129 -0.06745495
000270 e3 da 6f bd 64 d8 2f bd c8 cd bf 3d 05 cc 0f bd
       -0.058558356 -0.042930976 0.093654215 -0.035106678
000280 b5 e5 43 3d f3 db 0c bd 0f 91 0e 3d 8c 52 61 3d
       0.047826488 -0.034389447 0.034806307 0.055010363
000290 c3 88 b1 3d 7b b0 da 3c a0 72 91 bc a8 f3 32 3a
       0.08668663 0.02669548 -0.017754853 0.0006826469
0002a0 3b 6a 88 bc ed d8 90 bc 3e 36 b5 3d 60 1e a3 3d
       -0.016652217 -0.017681563 0.088482365 0.07964778
0002b0 bd 63 e0 3c d8 7e 99 3d b0 07 93 bd 1f fd 35 3d
       0.027391309 0.07494897 -0.07179201 0.04443085
0002c0 af d4 6e bd 28 c4 94 bd 53 54 63 3b cc 86 e8 3d
       -0.0583083 -0.07263976 0.0034687712 0.113538355
0002d0 4d 0a 27 bd c3 bc 99 3d bb 2c 3d 3d 0d d4 2d 3d
       -0.040781308 0.075067066 0.046185236 0.042438556
0002e0 56 91 0c bd a2 22 a9 3c b2 c9 22 3d 6b b3 88 3c
       -0.03431829 0.020646397 0.039743133 0.016687116
0002f0 d8 e0 73 b9 69 75 66 bc 52 e4 98 bc 4e 94 b6 3d
       -0.00023258047 -0.014066079 -0.01866356 0.089150056
000300 6e 93 5d 3d ad 21 7d 3d 98 3e 01 bd e4 67 a8 3d
       0.054095678 0.061799694 -0.031553835 0.082229406
000310 f9 b2 b8 bc 8f c3 30 bd 97 cb 52 bc 04 6a 97 3d
       -0.022546278 -0.04315525 -0.012865922 0.07393268
000320 c4 3f b6 3d 92 04 ec 3b 35 4f 51 3e ec 7b c5 bc
       0.08898881 0.0072026933 0.20440371 -0.024106942
000330 07 89 a6 3d b5 82 5b bd 8f 56 1c bd 19 e9 d4 3c
       0.08131605 -0.05359145 -0.038168486 0.025990056
000340 d8 22 90 bd be 3e 8f 3d c5 b6 67 bd 16 f3 ae 3d
       -0.07037896 0.06994389 -0.056570787 0.08542459
000350 64 2f 0c bc d6 c4 4b 3b 7d 03 ec bc 36 86 b2 3d
       -0.008556221 0.0031092665 -0.028810257 0.08717005
000360 a9 43 aa 3d 06 e8 1a bd 0c 35 85 3d 29 4a 29 bd
       0.083136864 -0.03781893 0.065042585 -0.04133049
000370 a7 a7 56 bd 4d 73 a1 bb 0a 5b b4 3c b7 66 f2 3c
       -0.05240598 -0.004927075 0.022016067 0.029589994
000380 aa 52 30 3d be a1 7d bd fd 17 7b bd cd 59 9b bc
       0.043047585 -0.061921827 -0.061302174 -0.018963719
000390 a6 44 38 bd f1 cd 57 3d 45 34 5a bc d9 14 f4 3c
       -0.044987343 0.052686635 -0.013318126 0.029795097
0003a0 cb f1 5b 3d 8f 92 79 bd db b9 bc 3d 2a e6 18 3e
       0.05369739 -0.060930785 0.092151366 0.1493155
0003b0 95 bf 6d 3d 9a 2d 1c 3b f5 2a 47 bd 7f 3e 8d 3d
       0.058044035 0.0023830892 -0.04862495 0.06896686
0003c0 86 b0 16 3d 4a d2 6c 3d 71 27 06 3d fb fd 5b 3c
       0.03678944 0.057817735 0.032752458 0.013427253
0003d0 bd 17 8c 3d b3 fc 73 bd ee f9 19 3d a8 53 04 3d
       0.06840465 -0.059567165 0.037591867 0.032306343
0003e0 e7 f8 93 3d 88 22 97 3d 5a 14 9c 3c ad cc ff bc
       0.07225209 0.07379633 0.019052673 -0.031225527
0003f0 fd c2 83 39 0d ce 37 bd cd 0d af 3d d6 fc 24 3d
       0.00025131545 -0.04487424 0.08547554 0.040280186

rnn.bias_hh_l0 f4 [512]
000000 28 dc bc 3c bd 1d 44 bc 3e 40 ed 3c 02 f8 a5 bd
       0.023054197 -0.011969981 0.028961297 -0.08103944
000010 a2 8e 65 bd ac cd a7 bc a2 21 36 bd 37 c3 45 bc
       -0.05604423 -0.020483814 -0.04446567 -0.012070469
000020 55 c9 65 3c d4 d9 c3 3d f8 01 66 bd 64 f8 f3 3b
       0.014025052 0.09563032 -0.05615422 0.007445382
000030 35 5c db 3c e5 b2 e6 3c 91 f2 8c 3d 44 a8 ae 3d
       0.026777366 0.028161475 0.06882203 0.08528188
000040 9d 14 58 bd 3b 3c 71 3c 0f 24 c9 3c 0a 7f 2e 3d
       -0.052754033 0.014723833 0.024553327 0.042601623
000050 8b bb 3b 3d 9a 49 bf bc 71 3f 95 bb 05 08 56 bd
       0.04583315 -0.023350526 -0.004554682 -0.05225374
000060 23 7a b4 3d db 96 47 bb 6a a9 54 3d bb d5 0b bd
       0.08812358 -0.0030454907 0.05191938 -0.034139376
000070 66 8c 93 bd 75 3d d1 bb 1b f2 22 bd ae 2e 95 3d
       -0.07204513 -0.0063855 -0.03978167 0.07284294
000080 6b 1c d5 3d 3a 42 9a bd 60 0b 52 3d 0b c9 3c 3c
       0.10405811 -0.07532163 0.05128038 0.011522542
000090 c1 3e d2 bc 42 bc 20 bc f2 cd a5 3d 4d f1 34 bd
       -0.025664689 -0.009810509 0.080959216 -0.044175435
0000a0 1f d2 37 3d e2 b0 02 bd 98 00 f7 bc a8 21 a2 3d
       0.04487812 -0.03190697 -0.03015165 0.07916576
0000b0 17 66 56 bd 51 cb 8a bd eb 78 5d 3d ea 4b 5f bb
       -0.052343454 -0.06777061 0.054070394 -0.0034072348
0000c0 3d 35 aa 3d a7 52 85 3d 77 18 c1 3d fc 3f 46 3c
       0.08310936 0.06509905 0.094284944 0.012100216
0000d0 c1 40 16 bd 4d 71 b7 bd e2 d1 5a bd f1 53 b2 3d
       -0.036682848 -0.08957157 -0.053422816 0.08707417
0000e0 5d 1d b4 3d 80 9f cd bc 97 56 9f 3c f9 15 ca bc
       0.08794663 -0.02510047 0.019450469 -0.02466868
0000f0 90 fb 5e 3d ff c5 84 bc 14 02 35 bd b8 38 a8 bc
       0.054439127 -0.016207693 -0.044191435 -0.020534858
000100 f6 5d 13 3c 58 27 c7 bc 41 27 4d 39 13 df 9d 3d
       0.00899457 -0.024310753 0.00019564947 0.07708564
000110 20 06 60 bc e5 d9 c1 3c 72 1b ac 3d ec b4 1f bd
       -0.013673335 0.02366347 0.08403672 -0.0389909
000120 57 d2 57 bd 24 78 99 bc 3b f6 d3 3d 70 d9 88 3d
       -0.05269083 -0.018734045 0.10349699 0.06682098
000130 8f 8f 73 3d db cd 92 bd fa 5a e4 bc 2b ae 0d 3e
       0.05946308 -0.0716817 -0.027875412 0.13835971
000140 ea 84 c6 3d 1b ae 35 3d d5 60 70 bd 10 98 8d 3d
       0.0969332 0.044355493 -0.058686096 0.06913769
000150 89 b1 4c 3c 9b 5f c2 bc 88 b0 da bc 15 86 e3 3d
       0.0124935 -0.023727229 -0.026695505 0.111095585
000160 ae 66 c3 bc 1b 18 a1 3c 9b 98 58 3d bf f2 a4 bd
       -0.023852672 0.019664815 0.05287991 -0.08054113
000170 71 6d 93 bd 5e 30 cf 3d ee c2 aa bd 48 ec 7f bd
       -0.07198609 0.10116647 -0.08337961 -0.062481195
000180 c3 1e c7 3d cc bb 92 bd 6a fd c5 3c cd aa 12 3c
       0.09722664 -0.07164726 0.024168689 0.008951855
000190 74 30 3f 3d 75 9b 74 bc 46 22 04 3b 5f 66 95 3c
       0.046677068 -0.014929642 0.002016203 0.01823729
0001a0 13 93 89 3d 2b f4 bb 3d 91 af 12 bd ed 99 8e bc
       0.06717505 0.09177431 -0.035811964 -0.017407382
0001b0 1d a2 55 bd af 36 b3 bd 45 e3 bc 3d 06 f2 aa 3d
       -0.052156556 -0.087506644 0.09223036 0.083469436
0001c0 76 f5 fb bc 61 a0 8b bc d6 b5 57 3d 92 ad b3 3d
       -0.030756693 -0.017044248 0.052663647 0.0877334
0001d0 3d ad b4 3c 6a 90 7e 3d 3e ca c0 bd ba b4 20 3d
       0.022055263 0.062149443 -0.09413575 0.039234854
0001e0 b2 73 6f 3d 3a d6 36 bd 7f c0 86 bd b4 3b 9d 3d
       0.058459945 -0.044637896 -0.065796845 0.07677403
0001f0 06 3c 47 bd 93 f6 e6 bc ae fb 41 3d 32 36 76 3c
       -0.048641227 -0.028193748 0.04735916 0.01502757
000200 80 ac 6b 3c eb 5f 73 bd c7 db 82 3d a9 cc 30 3d
       0.014384389 -0.059417646 0.063895755 0.04316393
000210 ab 33 3e 3b 16 b0 cf 3c d5 e1 f7 3c 83 2f 72 3d
       0.0029022496 0.025352519 0.030259052 0.059127342
000220 55 6c 92 3c 09 1a 1e bd 85 4e b0 3d a3 ea c3 3b
       0.017873922 -0.038599048 0.086087264 0.0059788986
000230 ce cd d2 3d b6 fa 4b 3d 06 d4 09 bd ec ad 1d bd
       0.102931604 0.049799643 -0.033649467 -0.038495943
000240 ad cc 5e bd 71 c0 88 3c e2 0b 67 3b 38 ee ad 3b
       -0.054394413 0.016693326 0.0035254885 0.005307939
000250 6c 51 c1 bc 00 81 50 ba de c0 21 bc 15 85 9f 3d
       -0.023598395 -0.0007953793 -0.009872643 0.07789055
000260 61 e1 69 bd b8 f9 80 3d 7e bc 6a bd b0 e9 3d 3c
       -0.057099704 0.0629763 -0.057308666 0.01159136
000270 01 bd bb 3d 4c b8 6d bd 99 4a f1 bc 84 1c 13 bd
       0.09166909 -0.058037087 -0.029454516 -0.035915866
000280 bc b7 39 bd 0d 7c 8f 3a 3b 75 2f bd 3e 31 5c 3d
       -0.04534124 0.0010947004 -0.04283641 0.0537579
000290 96 5f 26 bd 39 76 99 3d 79 1c b6 3b 27 21 49 3c
       -0.0406185 0.07493252 0.0055575934 0.012275971
0002a0 bd 9e cf 3d 29 99 88 3d e4 3c 8b bd 90 2d db 3d
       0.10137699 0.06669838 -0.06798723 0.1070205
0002b0 3c 71 f3 3b 6d 08 df 3d 3c bf 66 3d 27 ef 7c bd
       0.00742927 0.10890279 0.05633472 -0.06175151
0002c0 ab a1 62 bc 70 b2 76 bd b0 80 61 bd fa 96 7f 3d
       -0.01383249 -0.060228765 -0.055054367 0.06239984
0002d0 9a d6 7a bd 80 b8 56 bd c0 c9 b2 3c 7f f4 75 3c
       -0.061239816 -0.052422047 0.021824718 0.015011906
0002e0 e7 74 22 bd 4e df 82 3c 1f 48 2a bd b6 20 c8 3c
       -0.039662268 0.01597562 -0.041572686 0.02442966
0002f0 73 6d 51 3d 0e c8 66 bd ba 13 ba 3d 8f 39 9f 3d
       0.05112977 -0.05634313 0.09085794 0.0777465
000300 f2 59 a2 3d 78 01 4e bd 11 57 34 bd 3e 05 79 bd
       0.07927312 -0.05029437 -0.044028345 -0.060796015
000310 20 88 c9 bc 13 0e a8 3c 72 e5 ad 38 8f e1 0b 3d
       -0.024601042 0.020514524 8.29202e-05 0.034150656
000320 56 75 bb 3d 7b 79 1d bd eb 8d e4 3d 7d b0 79 bd
       0.091532394 -0.03844593 0.11159881 -0.060959328
000330 33 c5 3e 3c da ad e2 bc 4b 0c 87 3d 0c 2b 21 3d
       0.011643696 -0.02767079 0.065941416 0.039347693
000340 a1 54 9e 3c c6 6c a3 bc da 4a 6a 3d 8d 9b b7 3d
       0.019327464 -0.019949328 0.05720029 0.08965216
000350 13 cc f0 bc 05 96 a3 3d 64 4d 30 3c b2 c0 1e 3e
       -0.029394185 0.07987598 0.010760639 0.15503195
000360 80 80 28 3d a0 45 80 bd 9e 98 82 3d a1 da ac 3d
       0.041138172 -0.0626328 0.06376766 0.08440138
000370 30 c7 98 3c d8 c0 58 bd 64 c7 75 3d 38 58 ee 3c
       0.018649668 -0.052918285 0.060004607 0.0290948
000380 00 90 59 bd 1c dd 74 bc 48 a3 d0 3c f8 64 df bc
       -0.053115845 -0.014945295 0.025468484 -0.027269825
000390 c8 a5 31 bd f9 b8 1a 3d 36 2d 1c bd f9 08 db bc
       -0.043370992 0.03777406 -0.038129054 -0.026737677
0003a0 94 05 af b9 2e 2d a1 bd 9a 11 4c 3d 2f fc d5 3d
       -0.00033382757 -0.078699455 0.049821474 0.10448491
0003b0 82 fe ba 3d d2 a3 56 bc 83 7f fd bc 80 0d d4 bc
       0.09130575 -0.013100581 -0.030944591 -0.025885344
0003c0 eb 60 77 3d 4b f3 28 3c 5a 50 15 3d b5 87 98 bd
       0.060395163 0.010311912 0.036453582 -0.07447759
0003d0 ea 52 f7 3b 3f 04 aa bc 30 12 f0 ba 5e a1 93 3d
       0.007547726 -0.020753978 -0.0018315967 0.07208513
0003e0 aa 61 b7 3b 88 da 8f 3d 40 f0 26 bd 69 38 19 3d
       0.0055963593 0.070241034 -0.040756464 0.037407313
0003f0 8f ae 81 3a 5e f4 37 3c 6e 01 e4 3d d5 23 11 3e
       0.0009893941 0.011227695 0.11133085 0.14173825

fc1.weight f4 [128, 387]
000000 66 fd 02 3d 86 99 59 3d 1f 55 8e 3d 95 c6 a9 bb
       0.03197994 0.053124927 0.06949829 -0.0051811435
000010 f0 17 8c 3c d4 26 13 3c 45 f6 7a 3d 91 39 d2 bc
       0.017101258 0.008981425 0.061270017 -0.025662215
000020 7e 1c f2 3c 83 ca 0c bd f9 c6 22 3c 24 a6 95 bc
       0.029554602 -0.034372818 0.009935134 -0.018267699
000030 3a db 39 bd 71 30 80 3b f9 83 fd 3b 0e 93 d0 bc
       -0.045375086 0.0039120247 0.0077366796 -0.025460746
000040 d8 64 60 3d f5 c9 b4 3d 82 85 0d bd 51 27 92 3d
       0.054783672 0.08827583 -0.03455115 0.07136405
000050 ab b9 93 3c 66 df 98 3c 59 db 51 bd 18 71 ee 3b
       0.01803287 0.018661212 -0.051234577 0.0072766654
000060 a2 e9 05 3c 42 2e a0 3c fc 5a ad bc 01 fa 11 3d
       0.008173378 0.019553307 -0.021161549 0.035638813
000070 5e 43 ca 3d b5 7d 94 bc 35 9f e9 3b a1 b9 4d 3c
       0.098761305 -0.018126348 0.0071295747 0.012556464
000080 ec 05 a6 3d 82 90 d3 3c 02 2b 1e 3c 9f 7f 4d bd
       0.08106598 0.025825743 0.009653809 -0.050170537
000090 11 3f 72 3d cc 0b 9e 3d 65 5b 2d 3d d4 c4 16 bd
       0.059142176 0.07717094 0.04232349 -0.036808804
0000a0 c0 18 80 bc a2 e7 82 3c e8 0b 7b bd f3 35 56 bc
       -0.015636802 0.015979592 -0.06129065 -0.013074386
0000b0 96 85 3a 3c 30 5d 12 bd 61 84 0f 3d 86 3c 0a bd
       0.011384388 -0.0357334 0.035038356 -0.033749126
0000c0 f3 51 68 3d 41 dc ad 3d e0 81 ba 3b 51 f8 45 bc
       0.056718778 0.08489276 0.005691752 -0.012083129
0000d0 b3 d6 8f bc e0 7c 26 bd 94 fb b1 3c 17 a7 1e 3d
       -0.017558431 -0.040646434 0.021726407 0.038733568
0000e0 a0 d6 56 bd 6d 86 96 bd 91 2a 32 3d 4f 49 2d 3d
       -0.052450776 -0.073498584 0.043497626 0.04230624
0000f0 a6 31 92 bc d4 a0 12 3d 2a 40 ef bb 62 5a 06 3d
       -0.01784594 0.03579791 -0.00730135 0.03280104
000100 6b 2c 79 3d 54 fe 9a bd bc 28 21 3d d8 66 c1 3c
       0.060833376 -0.075680405 0.039345488 0.02360861
000110 20 95 13 3c 5b e9 17 bd 4c 8d 38 bd fc eb 0b bd
       0.009007722 -0.03708778 -0.045056626 -0.0341606
000120 f9 5d c3 3c d9 3b 84 bc fa 9e b4 bb 10 3e 7e bc
       0.02384852 -0.016141819 -0.0055121155 -0.015517727
000130 96 a3 01 bd 8a 0f 3b bd d9 28 06 3d a4 50 f9 bc
       -0.03165015 -0.045669116 0.0327538 -0.03043396
000140 85 bb 9e 3c 08 ff be bc 02 65 5d bd 8d c9 08 3d
       0.019376526 -0.023314968 -0.054051407 0.03339534
000150 d5 a8 4d 3d 14 3c de 3a da 63 85 bc b2 73 92 bd
       0.05020984 0.001695516 -0.016282964 -0.071509734
000160 b8 74 35 3d f4 5d 70 3b e9 b5 e1 bc 03 6e 03 3d
       0.044300765 0.0036677094 -0.027552562 0.032087337
000170 a1 e6 1b 3d 02 55 7a 3c a1 b4 9d 3b 1e 8b 82 3d
       0.03806174 0.0152790565 0.0048127924 0.06374191
000180 1b 21 bf 3c 5c 84 4d 3d 57 ab 86 bc 2a 29 d2 3b
       0.023331216 0.050175056 -0.016439123 0.0064135985
000190 48 cd 81 3d 26 24 20 3d 35 13 1e bc 9b fe de bc
       0.063379824 0.039096974 -0.009648134 -0.027221015
0001a0 e1 65 95 3c 8b c9 6b bd f6 61 88 3c 64 5b 00 bd
       0.018237056 -0.057565253 0.016648274 -0.031337157
0001b0 11 c7 de bc eb a2 93 3c f4 37 89 bc b4 02 8a 3d
       -0.027194532 0.018022021 -0.016750313 0.06738797
0001c0 3e 84 0d 3d 24 d5 74 bd f9 dd 1d 3d c3 ae 8e 3c
       0.034549944 -0.05977358 0.038541768 0.017417317
0001d0 3d 67 f4 bc 3f 6f c8 bb 35 04 1a 3d 28 4d 35 3d
       -0.029834384 -0.006116777 0.03760167 0.044263035
0001e0 11 94 0e bd 8c 91 0e 3d 59 31 39 bd a9 48 cc 3c
       -0.034809176 0.034806773 -0.045213077 0.02493699
0001f0 e4 aa ab bc f0 54 03 3c 70 6e 58 3c 49 da 9b 3c
       -0.02095551 0.008015856 0.013209924 0.019024985
000200 1b 60 14 bc 39 cf 55 bd c4 dc bc 3d fd cb 44 3d
       -0.009056116 -0.052199576 0.09221795 0.0480461
000210 89 bd b1 3c 66 41 6f 3d 1b 00 11 be 1e bc 0f be
       0.021696823 0.05841198 -0.14160196 -0.14036605
000220 eb ec b2 3d 5f d2 d2 ba 4a 02 03 be 99 0c eb 3d
       0.08736595 -0.0016084424 -0.12793842 0.11477012
000230 66 77 9c 3d 62 8e 1e 3d 05 04 19 be f5 a9 89 3d
       0.07639961 0.038710006 -0.1494294 0.0672187
000240 23 60 05 3e 63 e3 d1 3a d6 31 39 be 15 72 cc bc
       0.13024954 0.0016013201 -0.18085417 -0.024956742
000250 59 bb 54 3d f0 f5 de bc 03 47 46 bd ae 2d a5 bd
       0.05193648 -0.027216882 -0.048407566 -0.08065353
000260 39 cb 44 be 02 1e e3 3d 92 64 5f bd 7d 28 17 bd
       -0.19218148 0.11089708 -0.05453927 -0.036903847
000270 c5 b2 d2 3d 01 08 db 3d 5a 8c b6 3d 8f f5 ec bd
       0.10288004 0.10694886 0.08913489 -0.11570274
000280 d3 b5 7a 3d 32 1f 30 3d fb e4 94 bd 50 15 09 3e
       0.061208557 0.0429985 -0.07270237 0.13387036
000290 1e de 75 bd f1 91 46 3e 66 10 8d bc 68 37 1c 3e
       -0.06002628 0.1939161 -0.017219733 0.15255511
0002a0 f7 eb ab bd fb af 08 3e 1b 1b 10 3e e2 a8 17 3d
       -0.08394616 0.13348381 0.1407284 0.037026294
0002b0 69 46 53 3d 6c ad b7 bb 93 4d 2b bd de 73 c1 3b
       0.05158082 -0.0056053903 -0.041822027 0.005903705
0002c0 00 28 67 be 05 87 95 bc 25 5f 0d 3e 09 08 54 3d
       -0.22573853 -0.018252859 0.13805826 0.051765475
0002d0 ea 9b fc 3d ba 13 15 bd a0 6d 8a 3c dd 5f fe bd
       0.12334426 -0.036395766 0.016897976 -0.12420628
0002e0 05 f1 c6 3b d8 3a ad bc d6 f7 7a be 9f 68 72 be
       0.0060712122 -0.021146223 -0.24508604 -0.23672722
0002f0 c1 7d 78 3d 5a 64 18 bd a2 c7 c4 3c 12 30 32 3c
       0.060666803 -0.037205078 0.024020974 0.010875719
000300 e7 c9 e0 bc 28 8a 8b 3c fd e1 79 bc f5 bd ab bd
       -0.027440025 0.017033651 -0.015251634 -0.08385841
000310 77 38 82 bd ad cf 91 be 12 1f 82 3d 1e 9d c1 bd
       -0.06358426 -0.28478757 0.063535824 -0.09453796
000320 ba 8f 9f bb fd 9c 0d be 7d 84 38 be aa 22 1d be
       -0.0048694285 -0.13829418 -0.1801929 -0.15345255
000330 8e b7 aa bd 99 dc 3d be c5 00 ba bd ed c2 a9 3d
       -0.083357915 -0.18541183 -0.09082178 0.08289132
000340 e6 ee 98 bd a4 45 40 be df cb 57 bd c3 6c ed bd
       -0.07467441 -0.18776566 -0.05268466 -0.1159301
000350 99 eb 9c bd 16 f6 ed 3c a0 5c a3 3b a4 58 94 3c
       -0.07662124 0.029048007 0.004985407 0.018108673
000360 1e b2 38 bc ed fa ee bc 21 31 a8 bc ee 8c d4 bd
       -0.011272935 -0.029172385 -0.020531239 -0.10378443
000370 4f f8 02 3d db c9 9b bc 84 ff bc bc 39 2b 07 3c
       0.031975087 -0.01901715 -0.023071058 0.008250051
000380 4d 7f ed 3d 10 81 b4 3d a2 7c 6a bd e1 31 29 be
       0.11596546 0.08813679 -0.057247765 -0.16522934
000390 8c 3c 74 3d 36 e1 e1 bd 3c 67 00 be 4e 23 b0 3d
       0.059628054 -0.11029284 -0.12539381 0.08600484
0003a0 d6 f5 01 be c4 59 40 3c ae c7 5b 3d 68 46 e4 3c
       -0.12691435 0.011740152 0.053657226 0.027865604
0003b0 29 63 fc bd 8f 61 28 bc ca d8 bf bc aa ee d1 bd
       -0.12323601 -0.010277166 -0.023418803 -0.102506
0003c0 66 19 8e 3c c7 5c af 3b ea e3 a3 3d 6d f0 79 3d
       0.017346095 0.005351636 0.080024555 0.061020304
0003d0 73 6d 72 bd 98 5e 28 be 97 7c cf bd 15 93 82 bd
       -0.05918641 -0.16442335 -0.101311855 -0.0637571
0003e0 d3 2f 52 3d 8a 64 6e 3d 44 71 db 3c c5 70 f8 3d
       0.05131514 0.05820135 0.026787408 0.12130884
0003f0 8c 9c 8a bc 84 4e 57 be d8 34 30 be 44 9f 82 3c
       -0.01692035 -0.21026045 -0.17207658 0.015945084

fc1.bias f4 [128]
000000 7e 68 03 3d ad 32 80 bb c2 c3 16 3d ab df 99 3d
       0.032082073 -0.003912291 0.036807783 0.075133644
000010 5e 92 02 bc 87 a8 49 3d 3c d9 b9 3b c3 d6 df 3b
       -0.007969467 0.049232986 0.0056716483 0.0068310215
000020 c7 b8 4b 3d 25 3d 1d 3d 43 a4 33 3c 46 a4 22 bb
       0.049736764 0.03838839 0.010964456 -0.0024817153
000030 d1 44 48 3d b3 f3 1e bc 0a c7 a3 bb 22 0b 8a 3d
       0.048893753 -0.009701657 -0.0049980925 0.06740405
000040 d7 d6 3e 3d bc 03 29 3d 7b e5 e3 bc a3 9e b2 bc
       0.046591606 0.041263327 -0.027819386 -0.02180416
000050 b3 6c 1a 3d 9c f9 6a b9 71 19 09 3d 8c d4 02 bd
       0.03770132 -0.00022408966 0.03347153 -0.03194098
000060 14 61 b9 3c e3 77 bd 3c 47 9c be 3c 3e b1 93 bc
       0.022629298 0.023128456 0.023267878 -0.018028852
000070 2d b1 0c bd 80 2f 53 3d 24 cd 24 3d e9 a1 e2 bc
       -0.034348655 0.05155897 0.0402347 -0.027665095
000080 6c a4 8a bc 7f 9d 63 3d b2 b1 01 bd 32 b4 f6 3c
       -0.016924106 0.05557012 -0.031663604 0.03011522
000090 af 80 1e bd 7e 8a e9 3c d3 21 9c 3d 44 8e 32 3c
       -0.03869694 0.028508421 0.07623639 0.010898177
0000a0 90 3d 86 3d 4e e3 43 3c 18 bf f8 bc e8 6f 1e 3d
       0.06554711 0.011956049 -0.030364558 0.03868094
0000b0 50 30 8d 3d 1e d9 76 3c da dc ad bb 58 80 08 3d
       0.068939805 0.015066413 -0.0053058686 0.033325523
0000c0 83 fc 18 bc 71 fe a9 bc 9b bb a4 bc e5 f3 0a 3d
       -0.009337547 -0.02075121 -0.020108989 0.033924002
0000d0 27 0c 0b bd e5 74 8f bc 59 69 7d 3c e0 c2 54 3d
       -0.033947136 -0.017511794 0.015467011 0.05194366
0000e0 42 57 32 bd cd 4b a6 3c 78 f4 f3 bc 21 3b f5 bc
       -0.043540247 0.020299817 -0.029779658 -0.029935421
0000f0 f5 b1 55 3d 6d bc 03 3d 01 33 d7 3c 5d 7c 3a 3d
       0.052171666 0.03216212 0.026269438 0.04552876
000100 ad 08 e3 bc 06 79 00 3d 86 1d d8 bb 29 81 97 3d
       -0.027714098 0.031365417 -0.0065953163 0.07397682
000110 9e 2f 85 3b d6 0c 19 3d 68 89 e3 3b 52 d5 6f 3d
       0.0040645143 0.037365757 0.0069438703 0.058553047
000120 bd a0 47 3d c4 13 27 3c 69 18 89 3d 9c b9 a5 3c
       0.048737276 0.010197584 0.06694109 0.020230107
000130 11 44 53 3d 13 59 96 3b 0d 9e 5b 3d 54 4a d2 3b
       0.051578585 0.004588255 0.053617526 0.006417552
000140 31 05 df 3c 0f aa 65 bd 0f d8 46 bd fe d5 35 3d
       0.027224155 -0.056070384 -0.048545893 0.044393532
000150 c6 6b 1b 3b d6 10 56 bd 03 12 a8 3d 3a db 8f bd
       0.002371536 -0.05226215 0.082065605 -0.07024236
000160 61 c0 55 bc 30 6d 92 3c 6e fb a5 bb 1c 63 83 3c
       -0.013046355 0.01787433 -0.005065373 0.01603847
000170 01 26 60 3b 3c a3 a7 bc 24 63 ff 3c 2f a7 23 bd
       0.003420234 -0.020463578 0.031175204 -0.03995436
000180 8e 31 2e 3c 6d b4 45 3c b9 a2 15 3d cb d8 e9 3a
       0.010631932 0.012066943 0.036532138 0.0017841099
000190 06 f8 f6 3c 97 92 0b bb 81 44 ca bc 91 14 8b bc
       0.030147564 -0.002129709 -0.024690868 -0.01697758
0001a0 01 63 a8 3c 9b ff b6 3c e9 46 b2 3b a1 4a 51 3d
       0.020555021 0.022338679 0.005440582 0.051096562
0001b0 92 01 a3 bc 75 f8 81 bc 22 5d 04 bd 3b 31 e2 bc
       -0.01989821 -0.015865544 -0.03231538 -0.027611366
0001c0 84 30 1f bb 26 1a 64 bd ae 51 b4 bc 9f 99 2f 3d
       -0.0024290392 -0.055689 -0.022011604 0.042871114
0001d0 d1 42 03 bd 7c ca 5a 3b 61 04 f6 3c 87 92 11 bd
       -0.032046143 0.003338485 0.030031385 -0.03554013
0001e0 29 0a e7 3c f6 13 61 3c 9d 56 37 bd bb 5f 7f 3d
       0.028203087 0.013737669 -0.044760335 0.062347155
0001f0 66 6a 46 bd 1d 5e 12 3d ac e3 0e bd c7 c1 15 bd
       -0.048441313 0.035734285 -0.034885094 -0.036561754

fc2.weight f4 [128, 128]
000000 e4 c3 cc bd c5 d2 0a bd 40 6b 02 bd 80 e8 52 bd
       -0.09998301 -0.03389241 -0.031840563 -0.05149126
000010 42 c8 e5 bc 07 1d a3 3d 2d eb e4 3c 98 32 c3 bb
       -0.028049592 0.07964521 0.027944172 -0.005956959
000020 cb 80 94 3c a1 22 14 bd 8c 81 c9 3d 90 0d 7c bd
       0.01812782 -0.036165837 0.09839162 -0.06153637
000030 3c cb 0a 3e 51 9f 21 bc ca 23 a7 bd 53 aa 5f bd
       0.1355409 -0.009864644 -0.08161123 -0.054605793
000040 64 ef 14 be f7 89 0c 3d c7 49 32 3e 09 71 72 bd
       -0.14544445 0.03431126 0.17410956 -0.05918983
000050 aa ee 25 bd cb 33 ae 3c 89 6b df bd 9b 68 ba bd
       -0.04051081 0.021264931 -0.109091826 -0.09101983
000060 5e 4e 8d bd c3 16 c7 3d 0a 4c a2 3c 22 2d a9 3d
       -0.06899713 0.09721138 0.019811649 0.082605615
000070 b9 cf 08 3e f2 2b c1 3d 8d 5e b6 bd 08 9f 28 3e
       0.1336049 0.0943221 -0.08904753 0.16466916
000080 77 49 cb 3d 7f f2 cc bc 43 5b 9d 3e bd 48 1c bd
       0.09926122 -0.025017975 0.3073369 -0.038155306
000090 45 63 67 3e 85 0b 09 3e 92 d1 2b bd 3e 5d 28 3c
       0.22596462 0.133833 -0.04194791 0.010276137
0000a0 64 2f b8 bd cf 40 76 be 91 87 05 bd 07 52 2a 3d
       -0.08993414 -0.2404816 -0.03259999 0.041582134
0000b0 fe c1 4e bd e7 09 16 3e 71 0a 0b 3e 6d 6b 86 3d
       -0.050477974 0.14652215 0.13578202 0.065634586
0000c0 45 8d 64 3e b2 96 96 3d 61 6b c3 3d a0 ed 83 3d
       0.22319515 0.073529616 0.09541965 0.06441808
0000d0 63 c7 12 3c 70 04 a8 bd 70 17 90 3e f8 e9 0b 3c
       0.00895867 -0.082039714 0.2814288 0.008539669
0000e0 b2 56 7b 3d 39 2a 7e bd 8a 72 0d 3e f4 f5 17 3d
       0.061361976 -0.062051985 0.13813224 0.037099794
0000f0 74 c5 e6 bd fa 46 f0 3c 6d ac 9c 3d e2 74 38 3d
       -0.1126813 0.02933072 0.07650075 0.045033343
000100 aa a8 fb 3d e3 0c b6 3d c6 08 0f 3d 35 ce a0 bb
       0.122880295 0.08889177 0.034920476 -0.0049073943
000110 1c 9b 10 be bc 3d cf bd 13 cf 7e 3d 60 c4 9a bc
       -0.1412167 -0.10119197 0.0622092 -0.018892467
000120 81 28 d1 3c 0c dc 12 3e 96 b5 14 3e 21 71 80 3b
       0.02553201 0.14341754 0.14522395 0.003919736
000130 fd e8 64 bc 4a d3 9c 3d b6 33 7a 3d e7 f5 80 be
       -0.013971564 0.07657488 0.06108447 -0.2518761
000140 df 0a f4 3c 91 55 95 3c 94 0f 01 3e fd cc e5 3d
       0.02979034 0.018229278 0.12603599 0.11220739
000150 ff e6 7b 3d af b0 d8 3d 81 64 b9 bc f9 51 22 3e
       0.061499592 0.10580575 -0.022630932 0.15851583
000160 b7 88 93 3e 87 3d 59 3d 04 d6 2e 3c c7 b9 cc bd
       0.28815243 0.053037193 0.0106711425 -0.09996372
000170 1f 98 e8 3d ac b7 8a 3e 97 2e ba 3d 33 b2 d8 bd
       0.1135714 0.27093256 0.090909176 -0.10580864
000180 57 ed 95 3d 4f d5 3d 3b b8 e8 8e 3d e2 9b 25 3b
       0.073206596 0.0028966253 0.06977981 0.0025269915
000190 5d 5d 27 3b 90 38 e8 bd cd 8e 5a 3d e5 df e4 3c
       0.0025537827 -0.113389134 0.05335884 0.027938792
0001a0 a5 bc 39 bd 96 2a c6 bd 97 08 18 3e 7b 9e ee 3b
       -0.04534592 -0.096760914 0.14847027 0.007282076
0001b0 9a 2b 7c bc ee 6f 23 3d af 4d 81 3e c2 6b 27 be
       -0.015391255 0.039901666 0.2525458 -0.163497
0001c0 a8 8a b8 bd 0b cc af bc ff 7f 10 be 00 a7 41 bd
       -0.090108216 -0.0214596 -0.14111327 -0.047278404
0001d0 db c2 34 3e 63 97 f7 3d 45 3f 61 bd c1 1a f2 3d
       0.17652456 0.120894216 -0.05499198 0.11821509
0001e0 61 7b 3f 3e dd 05 20 bd 28 52 23 bd eb 83 12 3e
       0.18699409 -0.03906809 -0.039873272 0.14308135
0001f0 6e 7d 09 be b4 4e 25 3e 72 e8 c2 3d b9 3b d0 3d
       -0.13426754 0.16143304 0.09516992 0.10167641
000200 7b 47 ae bc cd eb fa bc 4b 04 b0 b9 dc c2 63 3d
       -0.021274319 -0.030630017 -0.00033572534 0.055605754
000210 af da 91 3d f5 4c 07 3d cf b7 a3 bd ab 17 2f 3d
       0.07121789 0.033032376 -0.07994043 0.04274718
000220 31 14 05 be ef 60 a2 3d e8 75 a2 3c 67 47 fa bd
       -0.12995984 0.07928645 0.019831613 -0.1222065
000230 8e fb 3d bd 2a e2 18 3d cc 39 04 be ed 6a 07 3e
       -0.04638248 0.03732506 -0.12912673 0.13224383
000240 49 e7 8d 3c bb 26 b0 bc 3e b8 8d bd e9 3e 95 3d
       0.0173222 -0.021502843 -0.06919907 0.0728739
000250 31 de af 3d 54 64 3f 3d e3 f7 37 3c 5c 20 a9 3c
       0.085873015 0.04672654 0.011228534 0.020645313
000260 50 38 43 3d 52 ed a2 3d d1 53 b1 3d 76 84 de 3c
       0.047661126 0.079554215 0.08658565 0.027162772
000270 bf 67 13 bc c6 87 d2 3c 77 1d f6 bd b9 ce 3b 3c
       -0.008996903 0.025699507 -0.12017339 0.011462861
000280 59 a6 19 bd 98 ff fe 3d a2 ec cc 3d 95 a8 85 3c
       -0.037512157 0.124510944 0.100060716 0.016315738
000290 7f b8 af bb df 4e 92 bc a9 3c e3 3d 6a fb 25 3e
       -0.00536257 -0.017859874 0.110955544 0.16209188
0002a0 44 c6 9b 3d d5 ec 5f bb de 3a d0 bd 9d 87 df 3d
       0.076061755 -0.0034168263 -0.10167478 0.10914538
0002b0 cb a1 ec bd 1d dd 0b 3e 93 41 a8 3d 18 b2 12 3d
       -0.11554297 0.13658567 0.08215632 0.035814375
0002c0 4f e5 82 3c 95 1c fa 3d c8 98 9b 3d cc 0e 9b bd
       0.015978483 0.12212483 0.075975 -0.07571182
0002d0 08 4b 40 3c 25 aa 00 3e a6 48 7c 3d 7a b3 84 3d
       0.011736639 0.12564905 0.06159272 0.06479545
0002e0 db d9 11 bd ab 39 18 3e 54 31 2b bd d4 d1 c7 bd
       -0.035608154 0.14865749 -0.04179509 -0.097568184
0002f0 a1 1b e0 3d 04 09 00 3d 6c 39 32 3e 14 75 0e 3e
       0.1094277 0.031258598 0.17404717 0.1391185
000300 31 2b d5 bc e7 38 8d 3d cd ef 63 3e bd ca c9 3d
       -0.026021572 0.06895619 0.22259445 0.098531224
000310 5e 55 f1 bc 11 6e 01 be 8f a9 96 3d 2f f0 e9 3d
       -0.029459652 -0.12639643 0.073565595 0.114227645
000320 27 d1 00 3e 32 0e df bc a0 a8 93 3d dc 25 1f bd
       0.12579785 -0.027228449 0.07209897 -0.038854465
000330 b2 16 ed 3a d4 ff 43 bc a8 ff cd bd a5 fb fe bb
       0.0018088429 -0.01196285 -0.10058528 -0.007781463
000340 aa 74 a0 3c d3 2a 32 3e 2f 29 28 3e f7 6c 1a 3d
       0.01958688 0.17399149 0.1642196 0.037701573
000350 1e 8b aa 3d e7 db 10 3e c3 d2 09 3b 3f db 44 3d
       0.08327316 0.14146386 0.0021030165 0.048060652
000360 81 48 33 bd ea 95 58 3c 69 7c 52 3d c9 98 b1 bd
       -0.043770317 0.013219336 0.051388178 -0.086717196
000370 97 1a a1 3c fd f9 be 3e 45 f1 a0 bd 63 2c 7c 3d
       0.019666 0.373001 -0.078585185 0.061565768
000380 f9 34 71 3d f5 a8 ba bd 41 f7 c1 bc 6e 52 bd bd
       0.05888841 -0.09114257 -0.02367747 -0.09244238
000390 60 77 1b be b7 e2 59 3c 20 ad de 3d 43 78 ef 3c
       -0.15182257 0.013298682 0.10872865 0.02923215
0003a0 a0 a8 13 3c 76 71 94 bd 46 2a 0c 3d 97 37 2a bd
       0.009012371 -0.072482035 0.034220003 -0.04155692
0003b0 bf f4 66 3d 72 34 52 3d 66 3e ea 3c 51 ef 1a bd
       0.05638575 0.051319547 0.028594207 -0.037825886
0003c0 d3 c1 cc bd ce f7 09 bc 02 e3 21 be 26 a2 eb 3c
       -0.099979065 -0.008420898 -0.15809253 0.028763842
0003d0 c2 59 2e 3c 59 de 8c bc 46 b8 38 bc 0c b8 1e 3e
       0.010641517 -0.017195867 -0.011274403 0.15499896
0003e0 b3 1f 17 3e 82 7a 36 3e fd a5 f2 3d 62 df cc 3d
       0.14758186 0.1782017 0.11848066 0.100035444
0003f0 ee cb d6 3d 01 65 52 bb fc 0d 9c 3d 96 6b a2 bd
       0.10488115 -0.003210366 0.07619855 -0.07930677

fc2.bias f4 [128]
000000 15 61 42 bd 87 af b1 3d f5 bd be 3d b1 4a 5b 3d
       -0.047455866 0.08676057 0.09313575 0.05353803
000010 7d f7 f5 bb b0 70 c2 3d 07 56 d0 3d dd 18 20 bd
       -0.0075063095 0.0949415 0.101726584 -0.03908621
000020 11 85 99 bd 85 b5 49 bd 21 a7 d8 3d 8a e8 0e 3d
       -0.074960835 -0.049245376 0.10578752 0.034889735
000030 05 50 23 3d ed 0d 83 bd 3e f0 5b bd 9a 2a c3 bc
       0.039871234 -0.063991405 -0.05369591 -0.023824025
000040 95 42 a9 bc b5 ac 56 3c 85 94 f8 bc ce b7 5c bc
       -0.020661632 0.0131027 -0.030344257 -0.013471557
000050 c9 c8 89 bd c8 7e 5f 3d af 7a b1 bd 2d 25 23 3e
       -0.0672775 0.054564267 -0.08665978 0.1593215
000060 be d1 cd 3c d3 79 5a 3c c7 e5 29 bb 3f b9 5b 3d
       0.025124427 0.013334709 -0.0025924311 0.05364346
000070 97 ec 92 3d a1 54 bd 3d ec 3e b8 3d 29 ac 04 3d
       0.07174032 0.09244657 0.089963764 0.032390747
000080 62 52 9a bd 3a eb 97 3d a5 af 50 bd 16 ac 68 bd
       -0.075352445 0.07417913 -0.050948758 -0.05680474
000090 89 bc 91 bc ef 3a f8 3d 4a 39 73 bd e6 f3 13 bd
       -0.017790096 0.12120616 -0.059380807 -0.03612127
0000a0 9c 57 07 bd d3 e8 88 3d 71 6b c8 3c be 43 93 bd
       -0.033042535 0.06685033 0.024465295 -0.07190655
0000b0 65 2d 85 3d 0d 06 08 3d 66 95 6b 3d 8e 5b 0f 3e
       0.06502799 0.033208895 0.057515524 0.13999769
0000c0 7e af 93 3d e2 d3 4b 3d 5d 18 7a bc aa d1 a0 3b
       0.07211207 0.049762614 -0.015264598 0.0049078064
0000d0 f7 8a bf 3c a2 91 1f bd 3f 7a f1 bc fd 23 bd 3c
       0.023381693 -0.038957246 -0.029477237 0.02308845
0000e0 b0 23 a0 3d 90 aa e9 bc 58 75 0e 3d ae d0 88 bd
       0.07819307 -0.028523713 0.034779876 -0.066804275
0000f0 7f 8b 8b 3d f2 3e 9f bc 3f 3c a7 3c 5d c2 f0 3c
       0.06813716 -0.019439194 0.02041447 0.029389555
000100 3f 53 03 bd 86 72 60 3d 71 29 9d bc ef 21 34 bd
       -0.03206181 0.054796718 -0.0191848 -0.043977674
000110 d1 1d 52 3c f0 7f 57 3d c5 82 8a bb 1d e6 0f 3d
       0.012824492 0.052612245 -0.0042270147 0.035131563
000120 aa 34 46 3d 90 50 c8 bd 91 25 c1 bd e4 5f 52 3c
       0.048390068 -0.09780991 -0.09430993 0.012840245
000130 fd 04 30 bb 15 10 14 bd ae 65 22 bc 16 6f eb 3c
       -0.0026858442 -0.03614815 -0.009911938 0.028739493
000140 ca f1 82 3d 72 52 ed 3b 93 b7 24 bc 45 39 b1 bd
       0.06393774 0.0072424943 -0.010053533 -0.086535014
000150 49 ea 84 3d 72 a2 19 bd 43 b6 84 3d e1 8a 00 3e
       0.06489999 -0.037508436 0.06480076 0.12552978
000160 75 20 2a 3d 8e 5a 0c bd 3e be 6f bc 02 ad 83 3d
       0.04153486 -0.034266047 -0.01463276 0.06429483
000170 ed 05 84 bd 0e 61 c2 bc 53 52 3d 3c 82 76 4f b9
       -0.06446443 -0.02372792 0.011555272 -0.00019785206
000180 ce e1 7a bd e9 7d 99 bd 60 f3 ce 3d 91 8e 57 bc
       -0.0612505 -0.074947186 0.10105014 -0.013156549
000190 6e c9 38 3d 3c 7b a8 3d b9 51 90 3d fd 88 64 bc
       0.045113973 0.0822663 0.07046837 -0.013948676
0001a0 c2 3f 13 bb b6 e3 54 3d c2 8e 2e 3d ed 05 d6 3c
       -0.0022468423 0.051974975 0.042616613 0.026125873
0001b0 b0 18 1e 3d 3f a8 b1 bd 21 65 ba 3c bb 2b d3 3d
       0.038597763 -0.086746685 0.0227533 0.10311075
0001c0 3c b0 b3 3d da 82 04 bd 9b 6b 8d 3c 09 02 84 3d
       0.087738484 -0.032351352 0.017263224 0.06445701
0001d0 89 68 9d bd 7f fa 6b bd ff 24 82 bc 83 64 cf bc
       -0.07685954 -0.05761194 -0.015886782 -0.025316482
0001e0 b9 88 c0 bd a3 74 41 3d 6c 48 d9 3d 0b a4 9f 3d
       -0.09401078 0.047230374 0.106095165 0.077949606
0001f0 b0 83 af 3b 22 2e 92 bd 65 a7 46 bd ee 83 ec 3d
       0.0053562745 -0.071377054 -0.048499484 0.11548601
