azure-functions/PredictFuture/parking_model.pt (torch, 584915 bytes, 10 tensors)

rnn.weight_ih_l0 f4 [512, 1]
-0.06415663 -0.18121219 -0.09985554 -0.078330845 -0.051785722 0.09812601 0.0026644012 -0.06619408
0.02246432 0.120310456 -0.09104572 -0.03931381 0.027542312 0.059449222 0.06601575 -0.09160428
-0.018949198 0.07439712 0.10761835 0.035368923 -0.012071153 0.07677285 0.07241953 0.08495395
0.10609583 -0.01843158 -0.115108594 0.048281595 -0.07473957 -0.077070214 0.011628316 -0.05816479
0.0044055837 0.067925304 0.05953476 -0.06028209 -0.00843954 -0.04261383 -0.08848559 0.035510004
0.09259182 0.013987661 0.1088164 0.039382216 -0.12801261 0.12674138 0.07338631 0.025234556
-0.039648794 -0.06788385 -0.0152850365 -0.03799154 -0.031975415 -0.12607934 0.05574548 0.0014179448
0.10603936 0.030472223 -0.05419699 -0.013905066 -0.11024581 0.02144195 -0.0439799 0.039361738
0.059348196 -0.053993214 -0.086824685 0.018018404 -0.08012252 -0.12530865 -0.09661165 0.07265258
-0.007015651 -0.0405964 -0.050489824 -0.05656366 0.056902006 -0.07926939 0.058829438 -0.08073148
-0.05052951 0.04281657 -0.11367523 -0.0014676442 -0.099834025 -0.05281639 0.049047418 0.053078245
0.0063555813 -0.04673546 -0.02344813 -0.0012173956 -0.009989518 0.002358584 0.02858247 -0.02751557
-0.061172906 0.05340072 0.12092147 0.076425254 0.071210876 -0.02600287 0.020525465 -0.02710837
-0.045732185 -0.003739018 -0.0021216306 0.0015561825 0.06626276 -0.024126278 0.13318042 0.00921643
-0.014429261 -0.067831725 -0.062115483 0.1029422 0.073067814 0.058053046 0.013144089 0.10358065
0.112854294 -0.011402347 0.049317174 0.00976851 0.10476071 0.0041014976 -0.0767546 0.121131666
0.045755763 -0.059375964 -0.03728598 -0.10045706 -0.06257592 0.12164614 0.077302195 -0.015337247
0.059657004 0.12341055 -0.023387702 0.03373706 0.119345896 0.0028147148 0.078416884 -0.062202055
0.04912131 0.073828414 0.04786842 0.02897797 0.061395206 -0.028964425 0.02441483 0.086514555
0.12381306 -0.08993531 -0.05561748 -0.09022919 -0.07126857 -0.0753515 -0.06327936 0.011976924
0.14112777 -0.04627447 -0.12524714 0.07905914 -0.07563856 -0.056376886 -0.085817404 -0.026838196
0.037058007 0.03519262 -0.040787358 0.034817334 -0.10920873 0.09729546 0.11234587 -0.0045791464
0.11287745 -0.13871585 -0.016317384 -0.0142581845 0.04684329 -0.10184407 0.02646463 0.040981214
0.04185795 -0.019790592 -0.03888949 -0.10531925 -0.005078268 0.05869379 0.0017401291 -0.015322901
-0.005161457 -0.079061575 0.02594404 -0.050736707 0.02320651 -0.016597578 -0.106375195 -0.02992877
0.04581002 0.056155615 0.07446393 0.045314647 -0.022607813 0.034701504 0.048071824 -0.005484642
-0.016310044 -0.043984752 -0.01637965 -0.027757818 -0.12688637 0.035369247 0.014149539 -0.10366378
-0.07081069 -0.02128722 -0.12507816 -0.037335157 -0.07725899 -0.08266003 -0.026634084 0.055528026
-0.060830418 0.012864794 0.104242824 0.025848111 0.036329996 -0.058678005 -0.13713707 -0.09994433
0.014512773 -0.08979609 -0.11314141 0.007007859 -0.064940505 -0.058084868 0.15287425 0.00044201026
0.004780533 0.063805364 -0.09384765 0.1030396 0.15045366 0.10221501 -0.08097725 0.0056527085
0.0080867065 0.0028223877 0.058111995 0.08331851 0.007816036 0.052620105 -0.00216428 0.08185034
00000000: 8d64 83bd b08f 39be 1081 ccbd ec6b a0bd
00000010: 441d 54bd 4af6 c83d 3c9d 2e3b c390 87bd
00000020: 1807 b83c 5465 f63d 2e76 babd 8507 21bd
00000030: 6aa0 e13c 0781 733d 4433 873d 069b bbbd
00000040: 593b 9bbc 845d 983d 0267 dc3d 01df 103d
00000050: 16c6 45bc 153b 9d3d b150 943d 56fc ad3d
00000060: c548 d93d d3fd 96bc 0ebe ebbd ecc2 453d
00000070: 0f11 99bd fdd6 9dbd b184 3e3c 343e 6ebd
00000080: b75c 903b 6c1c 8b3d b8da 733d 5aea 76bd
00000090: ff45 0abc d78b 2ebd ef37 b5bd f072 113d
000000a0: c8a0 bd3d 812c 653c 22db de3d 3f4f 213d
000000b0: bd15 03be 7ec8 013e 904b 963d b3b8 ce3c
000000c0: c666 22bd b006 8bbd 176e 7abc 049d 1bbd
000000d0: a7f8 02bd f11a 01be 5f55 643d 55da b93a
000000e0: 2a2b d93d e2a0 f93c aafd 5dbd 13d2 63bc
000000f0: 8ec8 e1bd 07a7 af3c 4524 34bd c639 213d
00000100: 1817 733d fd27 5dbd 24d1 b1bd 559b 933c
00000110: 4717 a4bd e950 00be 54dc c5bd e0ca 943d
00000120: 8ce3 e5bb 6948 26bd 6bce 4ebd 4caf 67bd
00000130: 1412 693d fd57 a2bd 23f7 703d 8c56 a5bd
00000140: 08f8 4ebd 6d60 2f3d 8fce e8bd f85d c0ba
00000150: c875 ccbd 0056 58bd f2e5 483d 9368 593d
00000160: 7b42 d03b af6d 3fbd 4b16 c0bc 0591 9fba
00000170: 13ab 23bc 7992 1a3b c925 ea3c 5568 e1bc
00000180: 7190 7abd b7ba 5a3d ada5 f73d d884 9c3d
00000190: 02d7 913d f903 d5bc 0525 a83c 5f12 debc
000001a0: ac51 3bbd 500a 75bb 0e0b 0bbb d2f8 cb3a
000001b0: c5b4 873d 79a4 c5bc 7360 083e 8200 173c
000001c0: b568 6cbc 5ceb 8abd ce6c 7ebd 5cd3 d23d
000001d0: 94a4 953d 08c9 6d3d 4e5a 573c 1822 d43d
000001e0: 2720 e73d e9d0 3abc ce00 4a3d 1a0c 203c
000001f0: c88c d63d db65 863b 8431 9dbd e113 f83d
00000200: 656a 3b3d 3634 73bd 2fb9 18bd 6ebc cdbd
00000210: ce27 80bd 9d21 f93d 9d50 9e3d 1449 7bbc
00000220: e75a 743d acbe fc3d 9197 bfbc df2f 0a3d
00000230: 9f6b f43d 1477 383b 0899 a03d 95c7 7ebd
00000240: 6d33 493d 5a33 973d ad11 443d 3563 ed3c
00000250: 8a79 7b3d cd46 edbc 9c01 c83c 8b2e b13d
00000260: b491 fd3d 0130 b8bd 28cf 63bd 15ca b8bd
00000270: 42f5 91bd e351 9abd 9c98 81bd dc3a 443c
00000280: cc83 103e 4c8a 3dbd c940 00be c2e9 a13d
00000290: 64e8 9abd 73eb 66bd 09c1 afbd c7db dbbc
000002a0: 23ca 173d 2326 103d a510 27bd 9f9c 0e3d
000002b0: d4a8 dfbd d842 c73d 9715 e63d aa0c 96bb
000002c0: 4b2c e73d 870b 0ebe 09ac 85bc 299b 69bc
000002d0: c0de 3f3d a093 d0bd 5acc d83c ebdb 273d
000002e0: 3e73 2b3d e11f a2bc 964a 1fbd 9eb1 d7bd
000002f0: 9967 a6bb e668 703d 0b15 e43a e80c 7bbc
00000300: 7121 a9bb 09eb a1bd 9888 d43c 4bd1 4fbd
00000310: 941b be3c a5f7 87bc 3ddb d9bd 2e2d f5bc
00000320: 4aa3 3b3d 6e03 663d 8c80 983d da9b 393d
00000330: 0534 b9bc 2a23 0e3d f6e6 443d 83b8 b3bb
00000340: a49c 85bc 5b29 34bd 9e2e 86bc 5d64 e3bc
00000350: 80ee 01be 58df 103d 78d3 673c ad4d d4bd
00000360: 3205 91bd 8962 aebc 7d14 00be c0ec 18bd
00000370: f639 9ebd a949 a9bd b92f dabc 5b71 633d
00000380: 5129 79bd dbc6 523c 437d d53d 6bbf d33c
00000390: c3ce 143d 5958 70bd a96d 0cbe 9daf ccbd
000003a0: fbc6 6d3c 03e7 b7bd afb6 e7bd 2fa2 e53b
000003b0: 87ff 84bd 66ea 6dbd 118b 1c3e 9dbd e739
000003c0: 04a6 9c3b 63ac 823d 3233 c0bd 6d06 d33d
000003d0: 8610 1a3e 1a56 d13d 67d7 a5bd 5b3a b93b
000003e0: 1b7e 043c cff7 383b d806 6e3d e5a2 aa3d
000003f0: d50e 003c 2e88 573d 98d6 0dbb 27a1 a73d

rnn.weight_hh_l0 f4 [512, 128]
0.050121386 -0.007445086 0.031618424 0.022921577 0.035725832 -0.010215798 -0.012022768 -0.027176397
0.08410041 -0.025937013 -0.06972895 -0.074564755 -0.083390154 -0.07017596 0.036568247 -0.073493615
0.03291938 -0.027217323 0.029940685 -0.08277558 -0.00685553 -0.038019113 -0.021472983 0.07617412
0.044220567 0.0554829 0.07560858 -0.05082682 0.016092863 -0.10479991 -0.030661061 0.0683563
0.037577894 0.007020156 0.019174878 -0.039472204 0.06324562 0.070194215 0.089434735 0.044105727
-0.039685614 -0.080179065 0.035808273 0.10188963 0.035966862 0.05626582 -0.0708916 -0.035089057
0.012252386 -0.0109021 -0.022426903 0.03439349 -0.040145714 -0.02848791 0.008284714 -0.091312416
0.00012362916 0.023193808 -0.011473303 0.024795497 0.04625586 -0.021159483 -0.00820508 0.06989343
0.007476331 -0.08958476 0.008136712 -0.055235233 0.012484892 -0.008865885 0.000137106 -0.005406973
-0.045410685 -0.10133147 -0.07313922 -0.022586266 0.039639503 -0.084401526 0.03195498 -0.02842303
-0.049693085 0.10783011 -0.008142574 -0.02806482 -0.034178887 -0.020952435 0.090251565 -0.035931643
-0.08714255 -0.07172167 -0.032632608 -0.022425128 0.036718227 -0.033207543 -0.05744423 0.034696303
0.06844464 -0.09575753 -0.09019498 0.050353184 -0.0341871 -0.006109613 -0.04096433 -0.07931978
0.08680853 -0.056285676 -0.049648393 0.057930596 -0.008825085 -0.064663425 0.05780058 0.038927622
-0.0012144847 -0.09843193 -0.0481824 -0.048161898 0.0116671845 -0.06334246 0.051314116 -0.011672602
0.021459213 -0.040199958 -0.06740577 0.08935135 0.016910413 -0.041215315 0.0534928 -0.063533194
0.0794302 -0.02650665 0.03068815 0.005134265 0.0119002 -0.026867658 0.04015407 0.087962076
-0.049283877 -0.07692974 0.02347037 -0.07439824 -0.020112304 0.107515186 -0.05112787 0.06562202
0.022615146 0.055482816 0.041440405 -0.05345035 0.050272956 0.03830835 -0.062376827 0.09295231
0.031903505 -0.051743664 0.04238057 -0.10675005 -0.07049864 -0.05866957 -0.0150962435 -0.0707271
0.06810082 0.0955379 0.0059018764 -0.009609291 -0.018165085 0.02338663 0.053337578 0.0725039
0.07222274 -0.00096262 -0.050292183 0.046803523 -0.080831006 -0.047105536 0.10071076 0.05793421
-0.011568834 0.008151739 0.04316816 0.04889242 0.024577882 0.10546441 -0.06918617 0.03831944
-0.05954704 -0.031701505 0.032903243 0.13683471 -0.063188866 0.08074303 -0.063356854 0.050156068
-0.10475658 -0.05282601 -0.10222963 -0.013637955 -0.07947587 -0.06889711 0.065652244 0.0089369565
-0.07462707 0.0029184318 -0.09526698 0.025231535 0.022806736 -0.013575492 0.046089333 0.0652889
0.048775695 -0.099379934 -0.052730177 -0.066379786 0.04188143 -0.1493651 0.08854493 0.022055633
0.053218294 -0.06160736 0.06194904 -0.0063990965 0.09468405 0.086446345 0.0017547364 -0.020577159
-0.029987754 0.060480967 0.012185727 0.046516467 -0.11190598 -0.0712411 -0.0343773 -0.030115072
-0.047977407 -0.082528725 0.08440912 0.10736077 0.061866038 0.0516117 0.019891612 0.06752094
-0.09159654 0.08781735 0.09977006 -0.08050943 0.089074746 -0.101995036 0.004077197 -0.023845043
0.007928126 -0.044051062 0.056832153 -0.040834963 0.15212764 0.025479058 0.06644559 -0.06747517
00000000: 154c 4d3d e8f5 f3bb 5282 013d 08c6 bb3c
00000010: 4055 123d 2a60 27bc 25fb 44bc 09a1 debc
00000020: d63c ac3d dc79 d4bc 0dce 8ebd 68b5 98bd
00000030: 75c8 aabd 6ab8 8fbd 96c8 153d d283 96bd
00000040: 79d6 063d ddf6 debc 2b46 f53c 3e86 a9bd
00000050: 5ba4 e0bb eeb9 1bbd 1ce8 afbc 2d01 9c3d
00000060: a020 353d 0a42 633d acd8 9a3d c92f 50bd
00000070: 2ed5 833c 56a1 d6bd e82c fbbc 63fe 8b3d
00000080: 47eb 193d 5609 e63b a214 9d3c 9bad 21bd
00000090: eb86 813d fcc1 8f3d 8f29 b73d 35a8 343d
000000a0: 628d 22bd ec34 a4bd b2ab 123d 83ab d03d
000000b0: fd51 133d fd76 663d 9d2f 91bd 8bb9 0fbd
000000c0: 3bbe 483c b99e 32bc a0b8 b7bc 30e0 0c3d
000000d0: d56f 24bd 7a5f e9bc 9cbc 073c 0102 bbbd
000000e0: 73a2 0139 f100 be3c 85fa 3bbc ed1f cb3c
000000f0: c976 3d3d a756 adbc 9a6e 06bc 4924 8f3d
00000100: 03fc f43b 3778 b7bd d84f 053c 573e 62bd
00000110: 6f8d 4c3c 3842 11bc 1dc4 0f39 fa2c b1bb
00000120: 8e00 3abd e086 cfbd 04ca 95bd d506 b9bc
00000130: 085d 223d b5da acbd 3ae3 023d 6ad7 e8bc
00000140: fa8a 4bbd 08d6 dc3d 6e68 05bc 32e8 e5bc
00000150: 29ff 0bbd 71a4 abbc d0d5 b83d 0f2d 13bd
00000160: cb77 b2bd d0e2 92bd c5a9 05bd e7b4 b7bc
00000170: da65 163d a204 08bd a44a 6bbd b61d 0e3d
00000180: b42c 8c3d 861c c4bd 25b8 b8bd 243f 4e3d
00000190: c607 0cbd 2633 c8bb 37ca 27bd 6972 a2bd
000001a0: acc8 b13d cf8b 66bd 1d5c 4bbd a248 6d3d
000001b0: 1797 10bc 426e 84bd 4dc0 6c3d 9272 1f3d
000001c0: 582f 9fba ae96 c9bd e95a 45bd 6945 45bd
000001d0: b827 3f3c b1b9 81bd c02e 523d 713e 3fbc
000001e0: 3bcb af3c b6a8 24bd 090c 8abd d7fd b63d
000001f0: b587 8a3c 64d1 28bd 441b 5b3d b11d 82bd
00000200: 4dac a23d 7924 d9bc b765 fb3c 563d a83b
00000210: 0ef9 423c 9019 dcbc 9878 243d 7625 b43d
00000220: e4dd 49bd 578d 9dbd ef44 c03c 1b5e 98bd
00000230: 8fc2 a4bc ec30 dc3d 756b 51bd d664 863d
00000240: 6643 b93c f341 633d 6abd 293d c1ee 5abd
00000250: 04eb 4d3d 37e9 1c3d d87e 7fbd c85d be3d
00000260: 40ad 023d 2af1 53bd 4097 2d3d c59f dabd
00000270: 9761 90bd 814f 70bd 3c56 77bc 5fd9 90bd
00000280: 7178 8b3d 60a9 c33d 8764 c13b 4a70 1dbc
00000290: f2ce 94bc 5195 bf3c 8178 5a3d ed7c 943d
000002a0: 84e9 933d 5658 7cba 2dff 4dbd 0db5 3f3d
000002b0: ba8a a5bd bcf1 40bd 7141 ce3d 6c4c 6d3d
000002c0: 358b 3dbc df8e 053c 19d1 303d 6b43 483d
000002d0: 8e57 c93c b9fd d73d 7bb1 8dbd d8f4 1c3d
000002e0: 99e7 73bd 70d9 01bd 8dc5 063d 661e 0c3e
000002f0: 2a69 81bd 9a5c a53d 3dc1 81bd 7370 4d3d
00000300: 9e8a d6bd 1660 58bd c55d d1bd bb71 5fbc
00000310: 3fc4 a2bd ee19 8dbd af74 863d 506c 123c
00000320: 14d6 98bd 2943 3f3b 561b c3bd 5db2 ce3c
00000330: 31d5 ba3c be6b 5ebc 2bc8 3c3d 30b6 853d
00000340: 06c9 473d b587 cbbd 99fb 57bd 20f2 87bd
00000350: dd8b 2b3d 2af3 18be 0b57 b53d 04ae b43c
00000360: 6dfb 593d 0058 7cbd 47be 7d3d 83af d1bb
00000370: b6e9 c13d c80a b13d 2fff e53a 6e91 a8bc
00000380: e1a8 f5bc e4ba 773d a5a6 473c 0d88 3e3d
00000390: f62e e5bd dbe6 91bd 36cf 0cbd e2b3 f6bc
000003a0: f583 44bd d204 a9bd b0de ac3d f7df db3d
000003b0: 3e67 7d3d ca66 533d bcf3 a23c 6b48 8a3d
000003c0: f796 bbbd 95d9 b33d 3f54 cc3d 21e2 a4bd
000003d0: d26c b63d c6e2 d0bd 029a 853b ae56 c3bc
000003e0: f8e4 013c e36e 34bd d5c8 683d 9042 27bd
000003f0: 59c7 1b3e 75b9 d03c a014 883d 6c30 8abd

rnn.bias_ih_l0 f4 [512]
0.0051348335 -0.008072065 0.060900092 -0.047059298 0.039731577 0.06367733 -0.005649334 -0.0080331275
0.09873813 0.014002548 -0.00766278 0.010907897 0.096090175 0.0849323 -0.035822865 -0.08972321
-0.049298007 -0.0296186 -0.064711034 -0.006433298 0.009537821 0.030662976 0.07111084 -0.06756932
-0.0008581753 -0.07252214 -0.07071386 -0.08327927 -0.06208057 -0.016563898 0.011900017 -0.078372866
0.033008218 -0.08478389 0.08358269 0.03430503 -0.010140429 0.045362573 0.035654746 0.03647711
0.014003972 -0.025159374 -0.025875133 -0.03304468 0.035274725 -0.03768193 0.07931597 0.0051427465
0.1041322 -0.042139657 0.084068306 0.028223032 -0.089620315 0.056071047 -0.06630252 -0.07864356
-0.029126933 -0.00028934653 -0.03294234 -0.0036583175 0.08891925 0.084155746 -0.029514095 0.0064849732
0.08857879 0.0847079 0.0042576888 0.0003774132 -0.007851496 0.06895979 0.081888765 -0.009626929
0.07599236 0.043838046 -0.041048367 0.05491431 -0.058987435 -0.056797706 -0.07573263 0.02586123
0.12751764 0.042696044 0.020152126 -0.010376796 0.036746036 0.10617754 0.011973984 0.006490552
0.020768052 0.036686376 0.07224332 0.0857106 0.0020416551 0.08511867 0.017881863 -0.004058708
-0.05556014 -0.033066265 0.07207066 -0.06615798 -0.007070912 0.17518233 -0.07371546 0.07039976
-0.024982762 -0.031075135 0.014335881 0.04829155 0.06900514 0.016368138 0.10715977 -0.0058815186
0.09556128 0.027737822 0.08467425 0.00626691 0.09639295 -0.021700753 -0.05517788 0.030499658
0.06884453 0.08122533 0.058108695 -0.08110975 -0.0048710248 -0.04311995 0.10027995 0.106858246
-0.03959349 -0.042308018 -0.02634173 -0.03860422 0.0093917595 -0.017734362 0.0018262576 0.049131766
-0.07075353 0.02536063 0.040990513 -0.03493758 0.017214779 -0.00590443 0.014445666 0.08601201
-0.02904393 0.08249264 -0.053923357 0.019115003 0.055900767 -0.052046344 -0.045691546 -0.015400317
0.027666569 0.02116433 -0.034907807 0.031245247 0.02221007 -0.004933967 0.03903486 0.02196011
-0.0022616691 -0.10176271 0.10515277 0.10671067 -0.09836008 0.045357667 0.089516945 0.07864817
-0.008730712 -0.020657493 0.023237567 0.024530109 -0.06874849 -0.044436753 0.0019949535 0.0459607
-0.075753964 -0.020058904 -0.075398 -0.07163624 -0.019251477 0.028606443 0.06751315 -0.026595809
0.07150159 0.07718772 0.054281786 -0.023433877 -0.056040592 -0.07703923 -0.05685974 -0.028250251
-0.053523883 0.08069674 0.019594956 0.082607776 0.04192636 -0.070630856 0.09282052 -0.021167038
0.041464783 0.077366635 0.08179154 0.09424734 -0.037650384 -0.0169986 -0.053942725 0.025636163
-0.066501744 -0.08580906 -0.09179641 0.019376272 0.07468497 0.10403587 0.06017128 0.01874313
-0.052562263 -0.06600745 -0.028352948 0.06585632 0.07941161 0.10246369 -0.017124318 0.04148147
-0.08875569 -0.022335686 0.028863218 0.031388484 -0.05770193 -0.050342612 -0.066650525 -0.0097828545
0.017006764 0.0060646967 0.05085113 -0.01816227 0.10535583 0.040222686 -0.04381738 0.023271458
-0.04710222 -0.07493681 0.04369654 0.038845576 0.036546487 -0.037054412 0.08949366 0.006586892
0.05402242 0.076911785 0.026908249 0.02191918 -0.06979398 0.04721483 0.019985106 0.12233886
00000000: 1b42 a83b b240 04bc 6072 793d 40c1 40bd
00000010: 94bd 223d 4369 823d 0c1e b9bb 619d 03bc
00000020: 3737 ca3d f16a 653c 0f18 fbbb 09b7 323c
00000030: edca c43d fcf0 ad3d ffba 12bd cdc0 b7bd
00000040: b5ec 49bd b5a2 f2bc 3887 84bd 6ace d2bb
00000050: 8544 1c3c ec30 fb3c 8fa2 913d c961 8abd
00000060: 2bf7 60ba 7d86 94bd 6ed2 90bd 528e aabd
00000070: 3248 7ebd 03b1 87bc 4af8 423c f481 a0bd
00000080: a033 073d 2da3 adbd 672d ab3d 6e83 0c3d
00000090: 0b24 26bc 1bce 393d b60a 123d 0669 153d
000000a0: ea70 653c 081b cebc 16f8 d3bc dc59 07bd
000000b0: 3b7c 103d 5e58 1abd 6970 a23d 7c84 a83b
000000c0: 4343 d53d a29a 2cbd 012c ac3d fd33 e73c
000000d0: db8a b7bd c1aa 653d 9ec9 87bd e00f a1bd
000000e0: 9b9b eebc 6fb3 97b9 8cee 06bd 62c0 6fbb
000000f0: 4c1b b63d d959 ac3d 8bc7 f1bc e67f d43b
00000100: cc68 b53d 567b ad3d 1584 8b3b 8bdf c539
00000110: 90a3 00bc ca3a 8d3d 4cb5 a73d 44ba 1dbc
00000120: e2a1 9b3d 868f 333d 5522 28bd d4ed 603d
00000130: cf9c 71bd b6a4 68bd b619 9bbd eeda d33c
00000140: fc93 023e 0ce2 2e3d 1216 a53c 7003 2abc
00000150: 0383 163d 9c73 d93d 872e 443c b2ae d43b
00000160: c321 aa3c 7444 163d 4ef4 933d 0a89 af3d
00000170: 4acd 053b b252 ae3d fc7c 923c e9fe 84bb
00000180: 0893 63bd 7e70 07bd c899 933d d67d 87bd
00000190: 1cb3 e7bb ff62 333e 22f8 96bd c02d 903d
000001a0: a6a8 ccbc 4891 febc 0be1 6a3c 5ccd 453d
000001b0: 9152 8d3d 7916 863c 9576 db3d c1b9 c0bb
000001c0: a2b5 c33d 6e3a e33c b169 ad3d a75a cd3b
000001d0: ab69 c53d c7c5 b1bc 3302 62bd 6bda f93c
000001e0: 5cfe 8c3d 7759 a63d 6203 6e3d de1c a6bd
000001f0: 1e9d 9fbb 8b9e 30bd 935f cd3d 7fd8 da3d
00000200: c92c 22bd 2c4b 2dbd 9dca d7bc 751f 1ebd
00000210: e5df 193c a747 91bc 095f ef3a 643e 493d
00000220: 3ae7 90bd 19c1 cf3c abe5 273d b51a 0fbd
00000230: 0206 8d3c f379 c1bb 84ad 6c3c 1127 b03d
00000240: 89ed edbc e7f1 a83d bdde 5cbd 1197 9c3c
00000250: 34f8 643d 8c2e 55bd 0f27 3bbd 9c51 7cbc
00000260: 00a5 e23c d160 ad3c 7dfb 0ebd 08f6 ff3c
00000270: e5f1 b53c 1dad a1bb 04e3 1f3d b0e5 b33c
00000280: 8338 14bb f868 d0bd 565a d73d 208b da3d
00000290: 0271 c9bd f6c8 393d a954 b73d 4b12 a13d
000002a0: 430b 0fbc e739 a9bc b65c be3c 5ef3 c83c
000002b0: 02cc 8cbd 5003 36bd c4bd 023b 4941 3c3d
000002c0: e524 9bbd 9252 a4bc 446a 9abd 05b6 92bd
000002d0: 46b5 9dbc 0f58 ea3c 5644 8a3d 74df d9bc
000002e0: 6d6f 923d 9814 9e3d 9456 5e3d 67f8 bfbc
000002f0: d28a 65bd bec6 9dbd c2e5 68bd 126d e7bc
00000300: dc3b 5bbd 5544 a53d 9a85 a03c 442e a93d
00000310: faba 2b3d e9a6 90bd af18 be3d 7f66 adbc
00000320: fad6 293d 6672 9e3d 5382 a73d c004 c13d
00000330: 4a37 1abd a640 8bbc 0cf3 5cbd ee02 d23c
00000340: 1132 88bd a9bc afbd c2ff bbbd fdba 9e3c
00000350: 6ff4 983d c210 d53d 2976 763d 318b 993c
00000360: 874b 57bd ea2e 87bd 7144 e8bc aedf 863d
00000370: 8ea2 a23d 7cd8 d13d 4c48 8cbc 79e8 293d
00000380: 8bc5 b5bd 54f9 b6bc 8e72 ec3c 3691 003d
00000390: dc58 6cbd 0e34 4ebd 1280 88bd 4448 20bc
000003a0: c551 8b3c 5dba c63b 4649 503d 0ac9 94bc
000003b0: ccc4 d73d 8bc0 243d da79 33bd c9a3 be3c
000003c0: 42ee 40bd 7878 99bd 25fb 323d 8a1c 1f3d
000003d0: c5b1 153d 5ec6 17bd 7448 b73d dbd6 d73b
000003e0: 9d46 5d3d ed83 9d3d b06e dc3c da8f b33c
000003f0: 25f0 8ebd 5664 413d ceb7 a33c cc8c fa3d

rnn.bias_hh_l0 f4 [512]
0.05855313 -0.048375215 0.057448484 -0.017129254 -0.010713847 0.09490293 0.043137483 -0.06697679
0.05635436 -0.022253897 0.055175964 0.014552907 -0.056519024 -0.07779176 0.094311066 0.00023838124
-0.03823847 0.050406218 0.031233221 0.027723696 0.07402917 0.035325516 0.01573086 -0.09153101
0.07107452 0.036895122 0.051809657 0.004567035 -0.051240202 0.046341646 -0.051038 0.006263334
-0.038176168 -0.034466248 0.03126511 -0.027924266 0.020330451 0.000118089105 -0.053437024 -0.050905682
-0.011125262 0.018100975 0.013587581 -0.025164083 0.0061708963 -0.0001693809 0.07842797 -0.027042532
0.037432145 0.029269643 0.034685273 0.08823958 -0.010083454 -0.0717222 0.10207764 0.058844708
-0.07441179 -0.03473917 0.08218003 0.077764235 -0.016325315 0.07557785 0.039115794 -0.015366722
0.06797023 0.063610576 0.06944732 0.017431572 -0.06292348 -0.019495968 0.03270316 -0.060411807
-0.06314601 0.008785289 0.042709958 -0.0076917894 -0.057566643 0.02801269 -0.06635581 -0.01588993
-0.040116735 0.0025712794 -0.03142479 -0.07172834 -0.0028423546 0.06415817 0.014290735 -0.07241438
0.06635752 -0.041173857 -0.023743369 -0.07892013 0.06775248 -0.040701248 -0.047365215 -0.022648908
0.017498676 0.013731681 0.018695608 -0.071027264 -0.0565028 0.035399973 -0.018243406 0.024492418
-0.07331036 0.07483439 0.08007652 0.05827028 0.0008025587 0.02351976 0.029798212 -0.02567288
-0.02002444 0.04217329 0.0014401526 -0.0366975 -0.03111083 0.008238196 -0.04918476 0.06215076
-0.048709676 -0.0045000273 -0.024983622 0.07717095 -0.039933883 0.033728793 0.023204312 0.035485234
0.035796177 -0.04313461 0.036348972 0.07326181 -0.054929238 0.102136865 0.017303862 -0.023374613
0.10462298 0.00879498 0.044298615 -0.017350592 0.11086964 0.043003295 0.03159212 0.05203424
0.01888866 0.075214185 0.02481134 -0.0790511 0.08471543 -0.0027035614 -0.037570655 0.032033417
0.038537353 -0.02343156 -0.017776525 -0.037893116 0.001185148 0.028125592 -0.067737006 -0.022754613
0.020195477 -0.04769711 0.0022778779 0.07278486 0.040672116 0.10490582 0.04952974 -0.040885217
0.030468177 -0.009133097 0.034350213 -0.045545224 0.103336245 0.064064175 -0.039031524 -0.01722664
0.08791657 0.08344193 0.004435833 -0.005087976 -0.04930526 0.004741692 -0.034312114 -0.037551492
0.030835673 -0.027164811 0.065234296 -0.023138568 -0.07605955 0.0386264 -0.048842043 -0.0341105
-0.008627324 0.10107607 0.08841226 0.105668664 -0.0077031143 -0.061606895 -0.057943337 -0.071058825
-0.02758717 0.003444603 0.0762878 0.08482546 -0.06386923 0.009809515 0.034028407 0.04597681
-0.06794721 -0.07491987 -0.00978714 0.042432375 0.0147768 0.08559686 0.09283048 -0.007845223
0.077540025 -0.026248513 0.06855734 -0.06050588 -0.060407277 0.10213915 -0.005166232 0.036898073
-0.085082136 -0.064637244 -0.060170412 0.010667459 -0.010699626 -0.04735492 -0.06402954 -0.039208397
0.06742163 0.07789934 0.07276406 0.07002279 -0.05156166 0.039725967 -0.058317333 0.04757028
-0.06263931 0.04357703 0.100237034 0.09876054 0.089726955 0.10941406 0.022135671 0.06021975
0.08133021 0.0981296 -0.024998493 -0.028762126 -0.06490529 0.027027411 0.02941791 -0.03285889
00000000: 68d5 6f3d 1725 46bd 1a4f 6b3d a652 8cbc
00000010: 2289 2fbc 785c c23d eeb0 303d 212b 89bd
00000020: d4d3 663d ce4d b6bc 3100 623d 516f 6e3c
00000030: 7e80 67bd 4951 9fbd 2926 c13d faf5 7939
00000040: f19f 1cbd c076 4e3d d0dc ff3c ce1c e33c
00000050: 9b9c 973d 7db1 103d 01de 803c 9c74 bbbd
00000060: 858f 913d 571f 173d 5d36 543d 11a7 953b
00000070: 3fe1 51bd bdd0 3d3d 390d 51bd a73c cd3b
00000080: 9d5e 1cbd 7b2c 0dbd d80f 003d 6ec1 e4bc
00000090: 0c8c a63c 9ba6 f738 c8e0 5abd 7a82 50bd
000000a0: bb46 36bc 7f48 943c 729e 5e3c e824 cebc
000000b0: 3b35 ca3b d79b 31b9 d89e a03d 4d88 ddbc
000000c0: 7352 193d e4c6 ef3c 2512 0e3d f4b6 b43d
000000d0: 1235 25bc 17e3 92bd 150e d13d 2607 713d
000000e0: 3565 98bd a94a 0ebd 014e a83d db42 9f3d
000000f0: abbc 85bc 8fc8 9a3d e237 203d b4c4 7bbc
00000100: fa33 8b3d 4346 823d 663a 8e3d a8cc 8e3c
00000110: 07de 80bd 02b6 9fbc c0f3 053d 5f72 77bd
00000120: b252 81bd 2cf0 0f3c a3f0 2e3d 680b fcbb
00000130: 00cb 6bbd de7a e53c 8ee5 87bd 992b 82bc
00000140: 7251 24bd e982 283b 48b7 00bd 4fe6 92bd
00000150: cc46 3abb 5c65 833d b023 6a3c fe4d 94bd
00000160: 74e6 873d eba5 28bd 7481 c2bc e1a0 a1bd
00000170: d0c1 8a3d 5ab6 26bd 0702 42bd 348a b9bc
00000180: 6259 8f3c d8fa 603c 8827 993c be76 91bd
00000190: 7b6f 67bd 90ff 103d 3273 95bc 53a4 c83c
000001a0: be23 96bd c642 993d 29ff a33d d1ac 6e3d
000001b0: cd62 523a 83ac c03c 611b f43c ee4f d2bc
000001c0: 4b0a a4bc e6bd 2c3d 81c3 bc3a 1e50 16bd
000001d0: 24dc febc 80f9 063c f575 49bd cc91 7e3d
000001e0: cc83 47bd f774 93bb 74aa ccbc ce0b 9e3d
000001f0: b691 23bd 3427 0a3d f816 be3c f758 113d
00000200: 039f 123d ebad 30bd a9e2 143d 4a0a 963d
00000210: 7bfd 60bd 222d d13d d4c0 8d3c 1e7c bfbc
00000220: 9344 d63d d218 103c 7772 353d d422 8ebc
00000230: 9f0f e33d 3924 303d bd66 013d db21 553d
00000240: 64bc 9a3c e509 9a3d 2741 cb3c 8be5 a1bd
00000250: 497f ad3d 3c2e 31bb b0e3 19bd 7935 033d
00000260: 58d9 1d3d 8bf3 bfbc 13a0 91bc d035 1bbd
00000270: f856 9b3a a467 e63c b3b9 8abd e267 babc
00000280: fc70 a53c 0b5e 43bd 7348 153b 3b10 953d
00000290: ce97 263d ddd8 d63d b2df 4a3d 4277 27bd
000002a0: 6698 f93c fca2 15bc cfb2 0c3d a18d 3abd
000002b0: f4a1 d33d 1434 833d 85df 1fbd e21e 8dbc
000002c0: 9a0d b43d 9ae3 aa3d 775a 913b 09b9 a6bb
000002d0: 50f4 49bd 3260 9b3b dc8a 0cbd 98cf 19bd
000002e0: 189b fc3c bd88 debc 8f99 853d 188d bdbc
000002f0: 1cc5 9bbd b736 1e3d 980e 48bd 74b7 0bbd
00000300: 9f59 0dbc f800 cf3d 7d11 b53d d068 d83d
00000310: 686a fcbb 8357 7cbd fe55 6dbd 4a87 91bd
00000320: 7dfe e1bc d9be 613b c73c 9c3d f9b8 ad3d
00000330: dfcd 82bd 17b8 203c 5f61 0b3d 2e52 3c3d
00000340: e827 8bbd 976f 99bd 3e5a 20bc 92cd 2d3d
00000350: 641a 723c 684d af3d e81d be3d 4089 00bc
00000360: 4ecd 9e3d 1f07 d7bc ca67 8c3d 03d5 77bd
00000370: 9f6d 77bd 552e d13d 7f49 a9bb 6f22 173d
00000380: 8b3f aebd 8860 84bd 4075 76bd 91c6 2e3c
00000390: 7c4d 2fbc 3cf7 41bd eb21 83bd fc98 20bd
000003a0: 5a14 8a3d b089 9f3d 5305 953d 1c68 8f3d
000003b0: 5232 53bd b2b7 223d 28de 6ebd 0ed9 423d
000003c0: 0a49 80bd d47d 323d 1349 cd3d f742 ca3d
000003d0: c4c2 b73d 7b14 e03d de55 b53c fca8 763d
000003e0: 7490 a63d 2cf8 c83d a4c9 ccbc 8d9e ebbc
000003f0: 11ed 84bd 9768 dd3c d4fd f03c 0b97 06bd

fc1.weight f4 [128, 387]
-0.07703662 -0.007631287 -0.06074577 0.06836478 0.01803378 0.021873422 0.044023134 0.006342788
-0.03515053 0.061504107 0.015583428 0.016415296 -0.052785017 -0.011238319 -0.06293598 -0.027778002
0.007460395 -0.012934425 0.012017465 -0.004656935 0.04904003 -0.0029612149 -0.075373195 0.035910238
-0.06482386 0.0132695865 -0.021365996 0.029700818 0.043618303 -0.019111542 0.092804134 0.02658354
-0.036534 0.008015217 0.024083858 0.076640196 0.031736694 -0.0024560506 -0.020550212 0.039975327
0.017647771 -0.008336251 -0.07128311 -0.05663001 0.05292245 0.047741678 -0.015432082 0.0021921454
-0.021645747 -0.017247869 -0.027067473 -0.077290565 0.008947662 -0.023513744 0.015957907 0.0022270712
-0.014601438 0.058557924 -0.025463564 -0.08577868 0.05710518 -0.01986987 -0.009476991 0.07633308
0.060850464 0.0437903 0.014002249 0.029242199 0.007616767 0.016618928 0.044212 -0.02503606
-0.027158488 0.019586457 0.011217081 -0.051196404 -0.046446327 -0.07517384 -0.0049236263 -0.09538884
0.025239889 0.070399 -0.078674294 -0.020875147 0.005340404 -0.019356348 0.03414715 -0.022852302
-0.050010595 -0.033180002 0.043659464 -0.039903995 -0.053402644 -0.078520216 -0.06404777 -0.040173102
-0.04091083 -0.014102231 -0.002347002 0.025988055 0.04124697 0.10682279 -0.027505687 -0.03598806
0.022334276 -0.004551862 -0.033315673 -0.01297998 -0.050711565 0.018802991 -0.06376806 0.008694475
0.06528871 -0.076929905 0.017534878 0.047691453 0.010692848 0.008681231 -0.011464698 -0.056244142
0.059856612 0.010808667 -0.014034845 0.035288855 -0.058184765 0.011635477 -0.02725 -0.025312364
0.046080846 -0.0031228855 0.03940318 0.006502439 0.049507793 -0.0059538307 0.0007121931 -0.048016455
0.009128344 0.05772801 0.055068113 0.029713746 -0.01700081 -0.00090778794 0.024860436 -0.039178513
-0.027604721 0.10888995 0.001130154 -0.13186127 -0.016134461 0.023955012 0.01830128 -0.06079822
0.08725567 0.052261293 -0.05904194 -0.06701074 -0.043043476 0.027235508 -0.12495173 -0.015704872
-0.01226591 0.0008130881 -0.040378634 -0.08005322 -0.031994753 -0.027551362 0.06394718 -0.07922579
-0.12879628 0.033594847 -0.068763986 0.0076487227 0.01768311 -0.10327002 0.038544822 0.0038154258
0.06240183 0.11455866 -0.055127542 0.018291457 -0.017737929 -0.01436134 0.04565968 0.09774534
0.012416335 0.021028183 -0.05324575 -0.005162118 -0.028758341 -0.03517839 -0.0246665 0.00800125
-0.010129708 -0.10412524 -0.01788297 0.05297026 -0.0061076605 0.043460578 -0.036646888 -0.07049397
0.015018941 0.09625034 0.16368689 -0.007308438 0.041822206 -0.0051114694 0.12131724 -0.092602216
-0.041176043 0.11745511 0.020032812 -0.047647003 -0.07348131 0.009700063 -0.025407044 -0.0017530526
-0.016424192 -0.06322194 0.027322903 -0.026868545 -0.05552653 0.0860152 0.06749361 -0.014759952
-0.019587582 -0.061061822 -0.09120356 -0.031418726 -0.16217 0.003098885 0.14062959 -0.010236921
0.048817504 0.016984658 -0.0409614 -0.058699194 0.13903259 0.008998612 0.0058638123 -0.039153922
-0.06802107 -0.08283807 0.12643059 0.037427597 0.118035376 0.08301935 0.07317849 -0.05057362
-0.07119393 -0.08346916 0.009470501 -0.13469784 0.01016118 0.0061125583 0.029096235 -0.05203567
00000000: 60c5 9dbd e00f fabb 8ed0 78bd d502 8c3d
00000010: 94bb 933c e42f b33c 9a51 343d 2ad7 cf3b
00000020: 01fa 0fbd bbeb 7b3d a251 7f3c 5f79 863c
00000030: 1a35 58bd ed20 38bc 94e4 80bd b18e e3bc
00000040: 5476 f43b e9ea 53bc e7e4 443c 3499 98bb
00000050: 33de 483d f110 42bb 435d 9abd 9d16 133d
00000060: 5fc2 84bd ae68 593c be07 afbc 214f f33c
00000070: 1ba9 323d cf8f 9cbc 1810 be3d b9c5 d93c
00000080: ada4 15bd 4252 033c 834b c53c 89f5 9c3d
00000090: 56fe 013d b1f5 20bb eb58 a8bc 2bbd 233d
000000a0: 0f92 903c c594 08bc e1fc 91bd dff4 67bd
000000b0: 36c5 583d c78c 433d d8d6 7cbc 19aa 0f3b
000000c0: 6c52 b1bc 674b 8dbc 9bbc ddbc 844a 9ebd
000000d0: 3799 123c e59f c0bc 28ba 823c 0ef4 113b
000000e0: df3a 6fbc 6fda 6f3d f798 d0bc bcac afbd
000000f0: 1fe7 693d 23c6 a2bc 6245 1bbc 8554 9c3d
00000100: 563e 793d 755d 333d b069 653c 568d ef3c
00000110: 1396 f93b 6b24 883c a417 353d 6c18 cdbc
00000120: 7a7b debc c773 a03c d9c7 373c 52b3 51bd
00000130: 813e 3ebd bef4 99bd 5f56 a1bb 395b c3bd
00000140: e2c3 ce3c 5a2d 903d fd1f a1bd 5b02 abbc
00000150: 8efe ae3b 3491 9ebc e2dd 0b3d c034 bbbc
00000160: e9d7 4cbd c1e7 07bd 44d4 323d 5f72 23bd
00000170: bbbc 5abd 35cf a0bd 7a2b 83bd 8d8c 24bd
00000180: 1d92 27bd 0b0d 67bc 29d0 19bb e7e4 d43c
00000190: 95f2 283d e8c5 da3d 9b53 e1bc 3768 13bd
000001a0: 5ff6 b63c c927 95bb 0476 08bd fba9 54bc
000001b0: eeb6 4fbd bb08 9a3c d498 82bd 4573 0e3c
000001c0: 16b6 853d 6d8d 9dbd 4ea5 8f3c 1d58 433d
000001d0: 0e31 2f3c b93b 0e3c 6ed6 3bbc 4260 66bd
000001e0: 352c 753d d616 313c 68f2 65bc 0c8b 103d
000001f0: 2653 6ebd baa2 3e3c 643b dfbc e05b cfbc
00000200: 45bf 3c3d 53a9 4cbb 3b65 213d 6912 d53b
00000210: afc8 4a3d 5a18 c3bb 78b2 3a3a e7ac 44bd
00000220: 0d8f 153c 3574 6c3d 1a8f 613d 3e6a f33c
00000230: 4845 8bbc 9ef8 6dba 1da8 cb3c a679 20bd
00000240: 4c23 e2bc b201 df3d ad21 943a a406 07be
00000250: 6b2c 84bc 4d3d c43c 91ec 953c 8e07 79bd
00000260: 1ab3 b23d f00f 563d f6d5 71bd ed3c 89bd
00000270: 5b4e 30bd 001d df3c b1e6 ffbd 81a7 80bc
00000280: f5f6 48bc 6b25 553a 1164 25bd f1f2 a3bd
00000290: ee0c 03bd 65b3 e1bc bdf6 823d 2241 a2bd
000002a0: 2ce3 03be c09a 093d 22d4 8cbd 23a2 fa3b
000002b0: 2bdc 903c 3b7f d3bd 2de1 1d3d 390c 7a3b
000002c0: 1099 7f3d bb9d ea3d 6bcd 61bd f7d7 953c
000002d0: 224f 91bc d34b 6bbc a505 3b3d b52e c83d
000002e0: e26d 4b3c 4c43 ac3c 3718 5abd fc26 a9bb
000002f0: 9d96 ebbc 3717 10bd 6611 cabc ad17 033c
00000300: 13f7 25bc 9d3f d5bd 4e7f 92bc 58f7 583d
00000310: c522 c8bb b803 323d 0c1b 16bd 245f 90bd
00000320: 0112 763c e61e c53d 899d 273e 9f7b efbb
00000330: c34d 2b3d 1d7e a7bb 2c75 f83d 3ba6 bdbd
00000340: 36a8 28bd 4e8c f03d da1b a43c 8129 43bd
00000350: 5e7d 96bd 03ed 1e3c 6f22 d0bc afc6 e5ba
00000360: 078c 86bc 817a 81bd 48d4 df3c 6c1b dcbc
00000370: c96f 63bd bd28 b03d 173a 8a3d bad3 71bc
00000380: 2376 a0bc f61b 7abd efc8 babd ecb0 00bd
00000390: e40f 26be aa16 4b3b 3401 103e c2b8 27bc
000003a0: ddf4 473d 6923 8b3c 24c7 27bd 916e 70bd
000003b0: 8f5e 0e3e ea6e 133c 3925 c03b dd5f 20bd
000003c0: a14e 8bbd 02a7 a9bd 0577 013e ae4d 193d
000003d0: 88bc f13d 0d06 aa3d 9bde 953d 4926 4fbd
000003e0: 20ce 91bd e1f1 aabd 292a 1b3c 3bee 09be
000003f0: 147b 263c db4b c83b 3a5b ee3c 5b23 55bd

fc1.bias f4 [128]
0.05117838 0.03882167 0.0047548544 -0.038572736 -0.044901878 -0.020752138 0.0011131 0.015170243
0.016683307 -0.00027190492 -0.0593375 0.08790816 0.040754892 0.008848446 0.016965235 0.057879098
-0.0030981314 0.037391935 -0.031017724 0.027877022 0.023611307 -0.016842637 0.029802658 -0.03387081
0.04084832 0.069045424 -0.019882469 0.05343001 0.045716785 -0.027738262 -0.011037992 -0.027290404
-0.010766046 -0.013477968 0.04264475 -0.03224452 -0.019777615 -0.021822553 -0.027900698 0.003052117
-0.0030371684 0.021516018 0.0086234445 0.039217766 -0.01953061 0.033257037 0.015560179 0.03510838
0.033331707 -0.0053509613 0.02200951 -0.048574224 0.0049313493 0.014672229 0.06254235 -0.049480725
0.025870629 0.038021818 -0.022753095 -0.0077993097 0.016904777 0.021623757 -0.0380527 0.041771557
0.006679807 0.0065880874 0.0073213023 -0.024432942 0.021233778 -0.015906148 0.04380179 -0.017026668
0.001998029 -0.031568136 -0.03045896 -0.0019434461 -0.0020424346 0.062149584 0.07143123 0.04652746
0.017487526 0.019311722 0.05485653 0.0035239556 -0.058520574 0.010667006 0.038458753 -0.0061013917
0.08192753 0.02149403 0.058674056 -0.029713824 0.0273023 -0.007838679 0.04053319 0.014002235
-0.019115726 0.04075307 0.016941031 0.014110836 0.0074764052 0.012190692 0.027723387 0.01740893
0.032544795 0.023078887 0.051548466 -0.017255181 0.050806295 -0.046980664 0.00710404 0.013240023
0.060227253 -0.00455506 -0.006518821 -0.006983346 0.0563692 0.031669404 -0.017874947 -0.04019482
0.03208979 -0.008267017 -0.05278112 0.03520294 0.017995754 0.056188785 0.06378693 -0.010938886
00000000: 6ca0 513d 7903 1f3d 9cce 9b3b 72fe 1dbd
00000010: 08eb 37bd 6300 aabc 70e5 913a 9c8c 783c
00000020: 6eab 883c 768e 8eb9 e10b 73bd 3209 b43d
00000030: 9aee 263d 13f9 103c adfa 8a3c a212 6d3d
00000040: 050a 4bbb 4928 193d e218 febc 5a5e e43c
00000050: 806c c13c 92f9 89bc b424 f43c 1ebc 0abd
00000060: 9150 273d b067 8d3d 8fe0 a2bc 6dd9 5a3d
00000070: 8641 3b3d 5a3b e3bc b2d8 34bc 2090 dfbc
00000080: 1264 30bc b2d2 5cbc 43ac 2e3d d412 04bd
00000090: aa04 a2bc 36c5 b2bc 0190 e4bc 0706 483b
000000a0: 3b0b 47bb 5c42 b03c 5949 0d3c cfa2 203d
000000b0: a8fe 9fbc 8838 083d 1ff0 7e3c cecd 0f3d
000000c0: d486 083d 1e57 afbb 4a4d b43c c4f5 46bd
000000d0: 2897 a13b ca63 703c 3416 803d 4dac 4abd
000000e0: a4ee d33c c4bc 1b3d b364 babc 5a91 ffbb
000000f0: e37b 8a3c 4e24 b13c 26dd 1bbd a718 2b3d
00000100: 48e2 da3b e2e0 d73b 89e7 ef3b 9827 c8bc
00000110: 76f2 ad3c 9c4d 82bc 8169 333d 837b 8bbc
00000120: 5df1 023b 974d 01bd 1285 f9bc 3bbb feba
00000130: 5eda 05bb 9090 7e3d 894a 923d 9493 3e3d
00000140: 0042 8f3c 9e33 9e3c 3eb1 603d 2af2 663b
00000150: 45b3 6fbd aac4 2e3c ed86 1d3d 2fee c7bb
00000160: 9fc9 a73d 3f14 b03c 3554 703d 686a f3bc
00000170: 13a9 df3c cd6d 00bc 2106 263d a169 653c
00000180: 9598 9cbc b1ec 263d ebc7 8a3c 2331 673c
00000190: a2fc f43b 78bb 473c 281c e33c 2c9d 8e3c
000001a0: b14d 053d ef0f bd3c 7c24 533d bd5a 8dbc
000001b0: 431a 503d cc6e 40bd 02c9 e83b aeec 583c
000001c0: dab0 763d 9d42 95bb d69b d5bb 8dd4 e4bb
000001d0: 64e3 663d c7b7 013d 7b6e 92bc 53a3 24bd
000001e0: 9570 033d 6272 07bc 0431 58bd f530 103d
000001f0: d56b 933c 3626 663d b9a2 823d 0339 33bc

fc2.weight f4 [128, 128]
0.066525675 -0.06458903 0.07954139 -0.045137953 -0.02933941 0.0922762 0.07934025 0.13929552
-0.13353564 -0.12656732 0.027680242 0.09191148 0.029370598 0.056396507 -0.14039238 0.09040623
-0.17290899 0.07261948 0.026916537 -0.106506266 0.0506212 -0.047700606 -0.0035597747 0.07612618
0.04502763 -0.024825037 0.1038206 0.09776544 0.00527776 0.10196711 -0.22376382 0.16610922
-0.041154057 0.027152663 0.017908521 -0.030094493 -0.021279028 -0.009375635 0.017416561 0.09795618
-0.100955196 0.023594486 -0.13343108 0.034329176 0.1321307 -0.16528088 -0.0632126 0.024664273
-0.14786297 -0.11636276 0.21626149 -0.089033514 -0.106367156 -0.07251836 0.073248 0.14552514
-0.025090044 -0.0101025775 -0.07981787 0.022159776 -0.039116528 -0.06769277 0.14758897 -0.0019140528
-0.012294532 0.018152352 0.11644649 -0.05375544 -0.04029907 0.052831136 -0.047686912 0.06605357
0.01875208 -0.074610054 0.027536416 0.010532176 0.025532331 -0.12074956 0.08374643 -0.04832437
-0.012767395 0.11597464 0.13287328 0.086627655 0.25837559 0.0957745 -0.1896065 0.054824475
0.051248495 0.016420007 -0.049559988 0.17145139 -0.0517274 0.14524731 0.10622551 0.054586403
-0.09357099 0.015935265 0.17588118 0.118768945 -0.13945085 0.07618823 0.0020981412 0.102366276
0.067001544 -0.056080133 -0.06188091 -0.10786034 0.06129045 0.13358738 0.09490985 0.0017868606
0.10384248 -0.16055524 0.10279425 0.11299476 -0.02839703 0.00022706763 -0.15866989 0.02448754
-0.0905715 0.048334736 -0.013911872 -0.14628077 -0.18539862 -0.075020604 0.040401924 0.01486515
0.15806898 0.1036145 -0.4642165 0.34686968 -0.24532995 -0.30571753 -0.13920131 -0.31752688
0.0053480566 -0.020537967 0.12318567 0.15788168 -0.20399854 -0.014281361 -0.1751385 -0.11629362
-0.20697375 0.1556854 0.26047415 0.22388493 -0.09945881 -0.026225632 -0.38095048 -0.032007918
0.012116051 0.077809654 0.314414 0.18047966 -0.5307305 -0.00011890491 -0.07965842 0.25120425
0.09556494 -0.11205816 0.091303885 -0.08684199 -0.41581523 0.4633678 0.29489434 -0.12003655
-0.19066857 0.024626888 0.026884118 -0.28852892 0.10754287 -0.14267157 0.2033334 0.19598737
0.3205877 0.0069961 -0.038934354 -0.1542242 -0.29234263 0.13180128 -0.053295463 -0.44261873
0.14600891 -0.13244651 -0.030254086 -0.045467034 0.10839523 -0.0071054436 -0.5447949 -0.078253224
-0.166544 -0.24079852 0.04751802 -0.36484155 -0.025519978 -0.18764067 0.019926088 -0.05602714
-0.19331318 0.46583036 0.116528206 -0.21127146 0.0132729085 -0.12736146 -0.124660596 -0.19079323
-0.0117270155 -0.032966837 -0.035397045 0.17317222 0.24143001 -0.10676825 -0.16988933 -0.5555495
-0.02208914 -0.011579153 0.10204133 0.08117457 0.18333969 0.22310674 0.03119395 0.30095813
-0.02984178 0.42964715 0.09441942 0.10181689 -0.32932174 0.10523964 0.2951143 0.18601227
0.13488111 -0.2261747 0.035190377 0.111971214 0.019468099 0.16027196 -0.08934013 -0.32980633
0.17694294 0.13928978 -0.10342556 0.29303232 0.23244388 -0.053952165 0.17242049 0.28657505
-0.036819126 0.15676571 -0.16114007 -0.3347353 -0.053349692 -0.09276643 -0.10816354 -0.54767495
00000000: 9d3e 883d 4147 84bd 99e6 a23d 93e2 38bd
00000010: 3459 f0bc 4efb bc3d 247d a23d 7ca3 0e3e
00000020: 91bd 08be dd9a 01be adc1 e23c 163c bc3d
00000030: 9c9a f03c 0600 673d 05c3 0fbe e726 b93d
00000040: 0e0f 31be 86b9 943d 1280 dc3c f51f dabd
00000050: 2d58 4f3d b661 43bd 1c4b 69bb 0be8 9b3d
00000060: e46e 383d e05d cbbc e59f d43d 3f39 c83d
00000070: 0ff1 ac3b 22d4 d03d 5822 65be 8918 2a3e
00000080: 2891 28bd 436f de3c e4b4 923c ba88 f6bc
00000090: 5b51 aebc 439c 19bc 2dad 8e3c 409d c83d
000000a0: 99c1 cebd 3949 c13c 28a2 08be c09c 0c3d
000000b0: 454d 073e 643f 29be 9c75 81bd bb0c ca3c
000000c0: 6469 17be 994f eebd a773 5d3e 3457 b6bd
000000d0: 06d7 d9bd 8284 94bd 0c03 963d 8b04 153e
000000e0: a389 cdbc 4885 25bc 8d77 a3bd 6b88 b53c
000000f0: a738 20bd 82a2 8abd 9021 173e f4e0 faba
00000100: 016f 49bc 3eb4 943c 7f7b ee3d aa2e 5cbd
00000110: a310 25bd 7665 583d 5a53 43bd 1847 873d
00000120: f69d 993c 28cd 98bd 0d94 e13c 268f 2c3c
00000130: 2e29 d13c 8c4b f7bd 4083 ab3d c6ef 45bd
00000140: 562e 51bc 1d84 ed3d ef0f 083e d769 b13d
00000150: ce49 843e 6c25 c43d 3528 42be a18f 603d
00000160: f1e9 513d 4083 863c 6aff 4abd f490 2f3e
00000170: 1ce0 53bd b6bb 143e c38c d93d fe95 5f3d
00000180: 26a2 bfbd ac8a 823c 321a 343e 223d f33d
00000190: 34cc 0ebe 9308 9c3d f880 093b 69a5 d13d
000001a0: 1b38 893d 48b4 65bd d676 7dbd e2e5 dcbd
000001b0: b20b 7b3d 21cb 083e 1860 c23d 1835 ea3a
000001c0: 5eab d43d 9868 24be cb85 d23d cc69 e73d
000001d0: e3a0 e8bc 0119 6e39 5c7a 22be 189a c83c
000001e0: 8d7d b9bd a5fa 453d 9fee 63bc a0ca 15be
000001f0: 23d9 3dbe 67a4 99bd 7d7c 253d f58c 733c
00000200: d6dc 213e d733 d43d c9ad edbe e798 b13e
00000210: c637 7bbe 0287 9cbe ca8a 0ebe e292 a2be
00000220: c03e af3b 3d3f a8bc c548 fc3d bcab 213e
00000230: fee4 50be 5ffc 69bc 8257 33be 592b eebd
00000240: edf0 53be fe6b 1f3e de5c 853e 1742 653e
00000250: 10b1 cbbd 23d7 d6bc f10b c3be bc1a 03bd
00000260: 6782 463c ab5a 9f3d dffa a03e a9cf 383e
00000270: f4dd 07bf 965c f9b8 f423 a3bd d89d 803e
00000280: 8db7 c33d c07e e5bd 88fd ba3d 37da b1bd
00000290: bce5 d4be 8b3e ed3e 64fc 963e b9d5 f5bd
000002a0: 9f3e 43be 54be c93c 153c dc3c 10ba 93be
000002b0: 703f dc3d 7f18 12be a136 503e eab0 483e
000002c0: 1224 a43e 8a3f e53b a179 1fbd f3ec 1dbe
000002d0: efad 95be eaf6 063e 584c 5abd ec9e e2be
000002e0: 5c83 153e 0fa0 07be 6bd7 f7bc a43b 3abd
000002f0: 51fe dd3d c8d4 e8bb ae77 0bbf 3a43 a0bd
00000300: 838a 2abe e393 76be 41a2 423d 83cc babe
00000310: 460f d1bc e024 40be 093c a33c b77c 65bd
00000320: e4f3 45be 5181 ee3e 57a6 ee3d 8c57 58be
00000330: 9d76 593c 0b6b 02be 0e4e ffbd 4d5f 43be
00000340: ab22 40bc 3c08 07bd 7efc 10bd 0f54 313e
00000350: 6e39 773e 50a9 dabd 78f7 2dbe 7e38 0ebf
00000360: 49f4 b4bc 7db6 3dbc 0bfb d03d da3e a63d
00000370: 66bd 3b3e 1876 643e 748a ff3c 2f17 9a3e
00000380: c076 f4bc b6fa db3e f85e c13d 6085 d03d
00000390: dc9c a8be e187 d73d 3919 973e 007a 3e3e
000003a0: 461e 0a3e 579a 67be c923 103d 2a51 e53d
000003b0: 907b 9f3c 551e 243e f5f7 b6bd 60dc a8be
000003c0: 8830 353e fba1 0e3e c8d0 d3bd 5508 963e
000003d0: c505 6e3e f2fc 5cbd ff8e 303e f7b9 923e
000003e0: a7cf 16bd 3187 203e e701 25be 6d62 abbe
000003f0: 3585 5abd 53fc bdbd d984 ddbd 6d34 0cbf

fc2.bias f4 [128]
0.048180163 -0.003103863 0.030016374 -0.045702104 -0.009840843 -0.005852603 0.10807418 0.014020009
0.09782472 0.03818654 0.07573133 -0.040358774 -0.0028053916 -0.04062666 0.08823649 0.08447111
0.09767857 0.031379562 0.07239258 0.06402048 -0.051152647 -0.025994733 -0.044094186 0.07566405
-0.051249247 0.04954038 0.06886227 0.045315135 0.019867368 -0.030636143 0.03901581 0.020260168
0.106791764 -0.027978823 0.017211776 0.08048192 -0.00014584047 -0.02365966 -0.04468729 -0.012058327
-0.030422606 -0.0014503151 0.05882636 0.04523986 0.012001884 0.022879422 0.04973868 -0.016315686
0.053382143 -0.010339745 -0.04650325 0.01151501 0.013500165 0.01604623 -0.0081224935 -0.03444988
0.017052053 0.037483286 -0.090133265 0.051126376 -0.047524657 -0.091392174 0.04843379 -0.05729222
-0.06280931 -0.07495794 -0.030208675 -0.041022904 0.08861842 0.083849244 0.05338532 -0.037763003
-0.040872492 -0.0586646 0.013785909 0.099045455 0.012385511 0.088517256 0.050396994 0.09754766
0.04790925 -0.027179291 -0.06453759 -0.07183904 0.0029154976 -0.07615555 0.100461364 0.061083287
0.08770974 -0.03879134 0.03768582 0.12171082 -0.014346968 0.027519109 0.064421065 0.027395904
-0.024085054 0.07165888 -0.05122311 -0.00095134246 0.10133785 0.044039976 0.025350718 0.10487115
0.082988426 -0.016364511 -0.08177096 -0.06336595 0.044319935 0.05110074 0.05241588 -0.01988953
-0.033560894 -0.050712213 -0.056761663 -0.02218398 0.0842858 0.02809138 -0.00069705327 0.013905413
-0.059345946 0.065648004 0.024412505 -0.02713297 0.11127967 0.072345994 0.06846444 0.08902879
00000000: 9058 453d 2e6a 4bbb e6e4 f53c 2132 3bbd
00000010: 7d3b 21bc 31c7 bfbb ff55 dd3d 2eb4 653c
00000020: 5458 c83d 7d69 1c3d 0719 9b3d 3e4f 25bd
00000030: a9da 37bb 2468 26bd 55b5 b43d 30ff ac3d
00000040: b40b c83d db87 003d 9042 943d 2b1d 833d
00000050: 7085 51bd e8f2 d4bc 1b9c 34bd c1f5 9a3d
00000060: bbea 51bd daea 4a3d a907 8d3d 5d9c 393d
00000070: e4c0 a23c a6f8 fabc 0bcf 1f3d a7f8 a53c
00000080: a4b5 da3d d833 e5bc b6ff 8c3c b4d3 a43d
00000090: c1ec 18b9 e7d1 c1bc 050a 37bd 4a90 45bc
000000a0: d438 f9bc 8018 beba e9f3 703d 6e4d 393d
000000b0: 8da3 443c a06d bb3c c9ba 4b3d 79a8 85bc
000000c0: 3ca7 5a3d 0968 29bc 317a 3ebd 74a9 3c3c
000000d0: cc2f 5d3c 6273 833c 3514 05bc 511b 0dbd
000000e0: bfb0 8b3c 1388 193d ca97 b8bd e469 513d
000000f0: 37a9 42bd d22b bbbd 8362 463d 3fab 6abd
00000100: 2ba2 80bd 8c83 99bd 2f78 f7bc a207 28bd
00000110: 937d b53d 27b9 ab3d 91aa 5a3d 61ad 1abd
00000120: ea69 27bd 4b4a 70bd 4bde 613c 58d8 ca3d
00000130: 99ec 4a3c 8948 b53d 146d 4e3d 11c7 c73d
00000140: 7d3c 443d 1ba7 debc 492c 84bd 5920 93bd
00000150: ef11 3f3b 71f7 9bbd b0be cd3d 7832 7a3d
00000160: 2aa1 b33d abe3 1ebd 725c 1a3d 8643 f93d
00000170: 8c0f 6bbc c16f e13c 31ef 833d 606d e03c
00000180: 054e c5bc e4c1 923d 53cf 51bd 8363 79ba
00000190: 388a cf3d 4363 343d 4fac cf3c afc6 d63d
000001a0: d6f5 a93d de0e 86bc 8877 a7bd 02c6 81bd
000001b0: d288 353d 024f 513d 09b2 563d 5eef a2bc
000001c0: 2677 09bd 9cb7 4fbd eb7e 68bd 2ebb b5bc
000001d0: 099e ac3d e51f e63c 74ba 36ba 88d3 633c
000001e0: bc14 73bd 7672 863d bcfc c73c f645 debc
000001f0: 98e6 e33d 232a 943d 1637 8c3d ba54 b63d
