azure-functions/models/lstm/files/parking_model.pt (torch, 591666 bytes, 18 tensors)

rnn.weight_ih_l0 f4 [512, 1]
0	0x3d5faef1	0.054610197
1	0x3df7d1df	0.121005766
2	0xbdd6406f	-0.104615085
3	0xbd5de8a2	-0.054176934
4	0xbdcbbef5	-0.099485315
5	0xbe176fc3	-0.14788727
6	0xbdc58b18	-0.09645671
7	0xbd913c43	-0.07091572
8	0xbd9172c4	-0.07101968
9	0x3db967e6	0.0905302
10	0xbd8d2e82	-0.06893636
11	0xba1db58d	-0.0006016128
12	0xbe2830d1	-0.16424872
13	0x3e072960	0.13199377
14	0xbd5edafb	-0.054408055
15	0xbda69779	-0.0813436
16	0xbd040932	-0.03223533
17	0xbcb56f11	-0.022147687
18	0xbdca3c86	-0.09874825
19	0xbd9b8afe	-0.0759487
20	0x3d606bf0	0.054790437
21	0xbd444de1	-0.047925834
22	0x3cd2cfc2	0.025733832
23	0xbe158e98	-0.14605176
24	0xbcc721da	-0.024308134
25	0xbd7264bf	-0.05917811
26	0x3d080fd4	0.03321822
27	0x3e0d923b	0.13825314
28	0x3d3745f0	0.044744432
29	0xbd15654b	-0.036473554
30	0xbd583567	-0.052785303
31	0xbd60b1c2	-0.054857023
32	0x3d190097	0.03735408
33	0xbd8bf330	-0.06833494
34	0xbd0a5399	-0.03377113
35	0xbdf15388	-0.117835104
36	0x3d6ed640	0.058309793
37	0x3dc0602a	0.09393342
38	0xbe39fbc2	-0.18162444
39	0x3d2fba97	0.042902555
40	0x3d6edb94	0.058314875
41	0xbd4b7804	-0.049675003
42	0x3d2549be	0.04035353
43	0xbc8f1f92	-0.017471109
44	0xbc5a478d	-0.013322723
45	0xbe147fed	-0.14501925
46	0xbdd2f5f3	-0.10300817
47	0xbe172ac4	-0.14762408
48	0xbd71b831	-0.05901355
49	0x3e06cdc5	0.13164432
50	0x3d64c848	0.055855066
51	0x3c8e0bae	0.017339554
52	0xbcf4d9b1	-0.02988896
53	0x3d9dbd59	0.07702131
54	0xbc1e0d96	-0.009646794
55	0xbc07ec67	-0.008296109
56	0xbdd8f475	-0.105935015
57	0x3d92a019	0.071594425
58	0xbddb4263	-0.10706022
59	0x3da55b6d	0.08074079
60	0xbd0483a0	-0.03235209
61	0x3e32e4e2	0.17470124
62	0xb9b26884	-0.00034028676
63	0xbda85ef4	-0.08221236
64	0x3d55fec6	0.052244924
65	0xbde9b0ce	-0.11410676
66	0x3d442db4	0.04789515
67	0xbcc3bdbd	-0.023894185
68	0xbe1e3949	-0.1545154
69	0x3cd9d085	0.026588688
70	0xbddf9a44	-0.10918096
71	0xbd5aa4e2	-0.0533799
72	0x3c521720	0.012822896
73	0xbd805090	-0.06265366
74	0x3d9e0157	0.07715099
75	0xbd61f2c8	-0.055163175
76	0x3d37fcbd	0.044918764
77	0xbdb7b416	-0.089698955
78	0x3e1c3374	0.15254003
79	0xbd2cdf34	-0.04220505
80	0xbd4406bd	-0.04785799
81	0xbcdb5d2e	-0.02677783
82	0x3d98b097	0.07455557
83	0x3c70b427	0.014691389
84	0x3d65e54b	0.056126874
85	0xbc05b350	-0.008160427
86	0xbd9d0e37	-0.07668727
87	0xbd430fe5	-0.04762258
88	0xbd9121ac	-0.070865005
89	0x3d1b4cb7	0.037914958
90	0x3d19ae5a	0.03751979
91	0xbce786d0	-0.028262526
92	0xbca8a580	-0.020586729
93	0xbd659d0b	-0.05605797
94	0x3d96c1ca	0.07361181
95	0x3d7dcf48	0.061965257
96	0xbdb01620	-0.0859797
97	0x3df97fb8	0.121825635
98	0x3db7d409	0.08975989
99	0xbe1cf085	-0.15326126
100	0xbba5d1b1	-0.0050603976
101	0xbd55c45f	-0.052189227
102	0xbce47b81	-0.027890923
103	0xbd94c5c6	-0.07264285
104	0xbd52a892	-0.051430292
105	0x3d6762e6	0.0564908
106	0x3a86c7ad	0.0010282897
107	0x3ae47c0d	0.001743199
108	0xbd921b24	-0.07134083
109	0x3ccc3357	0.024926824
110	0x3e35e70e	0.17763922
111	0x3ccf0f80	0.025275946
112	0xbdada0c7	-0.084779315
113	0xbc1d85fe	-0.009614466
114	0xbceb854e	-0.028750088
115	0x3b85f13d	0.0040875957
116	0xbd54570f	-0.051840838
117	0xbdef5d97	-0.11687773
118	0x3d70843a	0.05871985
119	0xbcadf131	-0.021233173
120	0xbd935c6c	-0.071953624
121	0xbc8f7d54	-0.017515816
122	0x3d40da33	0.04708309
123	0xbd418ea3	-0.04725517
124	0x3da246bc	0.07923648
125	0x3db8155c	0.08988449
126	0xbbd5e1fa	-0.0065271826
127	0xbd0d2a0b	-0.034463923
128	0xbdc1e6e5	-0.09467868
129	0xbc24bb30	-0.010054395
130	0xbdfae95b	-0.1225154
131	0xbce8d690	-0.028422624
132	0xbdff5858	-0.12468022
133	0xbdc172b8	-0.09445709
134	0xbe04eb6c	-0.12980431
135	0x3dacff4d	0.08447132
136	0xbda7c20b	-0.08191308
137	0x3d57cfa2	0.05268825
138	0x3c7b8714	0.015352029
139	0xbc3e725d	-0.011623946
140	0xbe23e5d6	-0.16005644
141	0xbda026f7	-0.07819932
142	0xbd8bdb49	-0.06828935
143	0xbd07e6f5	-0.033179242
144	0x3cb78d7d	0.022406334
145	0xbdfb7402	-0.12277986
146	0xbe23c1db	-0.15991919
147	0x3cc1ce06	0.02365781
148	0xbdfdab50	-0.12386191
149	0xbcec6fe4	-0.028861947
150	0x3e0d6a60	0.1381011
151	0xbdd218f6	-0.10258667
152	0xbd52984b	-0.05141477
153	0xbd1a1776	-0.03762003
154	0x3cf082ad	0.029359186
155	0xbcb8d57c	-0.022562735
156	0x3d684a93	0.056711745
157	0xbe0dff94	-0.13867027
158	0xbddc2f29	-0.107511826
159	0xbcf22f08	-0.029563442
160	0xbd22d8c4	-0.039757505
161	0xbda0c91a	-0.07850857
162	0xbd9e6568	-0.077341855
163	0xbde232c2	-0.110448375
164	0x3dd8520d	0.10562525
165	0x3d4c958c	0.049947307
166	0xbe4c204d	-0.19934197
167	0x3c8d1c4d	0.017225409
168	0xbcc53b14	-0.024076022
169	0x3c38105f	0.011234372
170	0x3d9124f8	0.07087129
171	0xbe2b4614	-0.16725951
172	0xbcf152f4	-0.0294585
173	0xbe31dcc9	-0.17369379
174	0xbe56756a	-0.20943227
175	0xbd842dd5	-0.06454054
176	0xbe7421ed	-0.23841067
177	0x3db41828	0.0879367
178	0x3ca76232	0.020432565
179	0x3d086c92	0.033306666
180	0xbc302621	-0.010751278
181	0x3dbd8a9f	0.092549555
182	0xbe09e9e8	-0.13468134
183	0x3d79bd05	0.06097128
184	0xbd97ad56	-0.07406108
185	0xbdedd6c3	-0.11613228
186	0xbde21387	-0.11038881
187	0xbd27e826	-0.04099288
188	0xbdf8a8a0	-0.12141538
189	0xbc577b55	-0.013151963
190	0xbdadc1d2	-0.08484234
191	0xbdaae06f	-0.083435886
192	0xbe2508a6	-0.1611658
193	0xbe266ca3	-0.16252379
194	0x3c40c547	0.011765785
195	0x3daf2e69	0.08553774
196	0xbdc65750	-0.09684622
197	0x3d430810	0.04761511
198	0xbdec0e2d	-0.11526141
199	0xbdd3d281	-0.10342885
200	0xbd15b170	-0.03654617
201	0xbd7bfa74	-0.061518148
202	0x3da09a00	0.07841873
203	0xbc408d9c	-0.011752512
204	0x3bd3d123	0.00646414
205	0xbe3b2cbe	-0.18278787
206	0x3dfe24c4	0.12409356
207	0x3ca0ae58	0.019614384
208	0xbdb05dcc	-0.0861164
209	0xbd8cade0	-0.068691015
210	0x3dee67a2	0.1164086
211	0xbdc776ed	-0.0973948
212	0xbd4082cb	-0.046999734
213	0xbc370a08	-0.011171825
214	0x3cbe4faf	0.023231355
215	0xbd067a66	-0.032831572
216	0x3c67fdc1	0.014159621
217	0xbe4b5921	-0.19858219
218	0x3df8c532	0.12146987
219	0x3d35f6a2	0.04442466
220	0xbbb1d31a	-0.0054267766
221	0xbe87f68a	-0.26555282
222	0xbd2d6718	-0.042334646
223	0x3d0773de	0.033069484
224	0x3d9f77d1	0.07786525
225	0x3d920aa4	0.07130936
226	0x3d8345d9	0.06409807
227	0xbe14484b	-0.14480703
228	0xbd6704a7	-0.05640092
229	0xbe3dc1c8	-0.18530953
230	0x3d10a63a	0.035314776
231	0xbdd7c2f5	-0.10535232
232	0xbe2bb3fc	-0.16767877
233	0x3da323d7	0.0796582
234	0xbd9a532a	-0.075353935
235	0xbc2a72fa	-0.010403389
236	0xbdaf56af	-0.085614555
237	0xbdf37596	-0.11887662
238	0x3d69293b	0.056924086
239	0xbd3e9396	-0.046527468
240	0xbd55a6a9	-0.052160893
241	0xbd2c3f27	-0.042052414
242	0x3d8c0e93	0.06838717
243	0xbd65015c	-0.0559095
244	0xbc4d4f23	-0.012531075
245	0xbe0162e4	-0.1263538
246	0xbd96d86f	-0.073655
247	0xbd87b4e4	-0.06626299
248	0xbd16e5b0	-0.03684014
249	0xbd627320	-0.055285573
250	0xbc629c52	-0.013831215
251	0xbdd22f6c	-0.10262951
252	0xbc7a9d76	-0.015296331
253	0x3d85ee78	0.06539625
254	0xbe361b49	-0.17783846
255	0xbe21e89a	-0.15811387

rnn.weight_hh_l0 f4 [512, 128]
0	0x3d6600cc	0.056153104
1	0xbe484cb7	-0.19560514
2	0xbd5cee58	-0.05393824
3	0xbd089703	-0.03334714
4	0x3e226f48	0.15862763
5	0x3e7a1d41	0.24425222
6	0x3e079f53	0.13244371
7	0x3da89b06	0.082326934
8	0x3e187588	0.14888585
9	0x3db5631a	0.08856793
10	0xbd840f8f	-0.0644828
11	0x3df402b4	0.11914578
12	0xbd86def4	-0.06585494
13	0xbe69cdf2	-0.22832468
14	0xbe2fad3a	-0.17155924
15	0x3e32d1b4	0.17462808
16	0xbe1a0269	-0.15039982
17	0x3de9c423	0.11414363
18	0xbdaa87d2	-0.08326687
19	0x3e27786d	0.16354533
20	0xbe43ac2f	-0.19108652
21	0x3d9ce8b9	0.07661576
22	0xbc875482	-0.016519789
23	0xbe125ce0	-0.14293242
24	0x3ded0694	0.1157352
25	0x3e67f212	0.22650936
26	0xbd82b5c4	-0.06382325
27	0x3e43d6cd	0.19124909
28	0xbe2913ea	-0.16511503
29	0xbc052312	-0.008126037
30	0x3d9fc278	0.07800764
31	0x3dcef451	0.101051934
32	0xbe11475a	-0.14187375
33	0x3ddc9b02	0.10771753
34	0xbe2cd827	-0.1687933
35	0x3d847265	0.064671315
36	0xbde589d1	-0.11207927
37	0xbd0857bc	-0.033286795
38	0x3e280b24	0.164105
39	0xbd7e61e8	-0.06210509
40	0xbdc6d193	-0.09707942
41	0xbdfa34dc	-0.122171134
42	0xbe005752	-0.1253331
43	0xbdb63748	-0.08897263
44	0xbe201f6c	-0.15636986
45	0x3e5e3ae6	0.21702155
46	0xbe16d337	-0.1472901
47	0xbe0716d5	-0.13192303
48	0xbdb9149c	-0.09037134
49	0x3c39740d	0.011319173
50	0x3e49901d	0.19683881
51	0x3e5920ae	0.21203873
52	0x3d24ae6e	0.04020541
53	0x3e0df440	0.13862705
54	0xbe781b9a	-0.24229279
55	0xbdfc7e2b	-0.12328752
56	0xbe070a1d	-0.13187452
57	0x3e597198	0.21234739
58	0x3e1c9254	0.15290195
59	0x3e0a6cfc	0.13518137
60	0xbe1a2043	-0.1505137
61	0x3c939a1e	0.018017825
62	0x3e4b1045	0.19830425
63	0x3df8389e	0.12120174
64	0xbe7879e8	-0.24265254
65	0x3df4368f	0.11924469
66	0x3db34f80	0.08755398
67	0xbe189bed	-0.14903231
68	0x3e0550e9	0.13019146
69	0xbdc08822	-0.09400965
70	0xbe2a5a38	-0.16635978
71	0xbdbb516d	-0.0914639
72	0xbd450b43	-0.048106443
73	0x3daa8152	0.08325447
74	0xbde70201	-0.11279679
75	0xbe252d3f	-0.16130541
76	0x3e97bd86	0.29636782
77	0xbdd2c5df	-0.10291647
78	0xbe7ad058	-0.2449354
79	0x3e0790d5	0.13238843
80	0x3d7abf89	0.06121782
81	0xbddaa3e8	-0.10675794
82	0xbc9918e9	-0.018688636
83	0xbe0ca0ef	-0.13733266
84	0x3ddc5979	0.10759253
85	0x3d5fe8b1	0.05466527
86	0xbe0ed6b2	-0.13949087
87	0x3df2f17d	0.118624665
88	0x3d09121a	0.03346453
89	0xbe095114	-0.13409835
90	0xbe316e28	-0.17327178
91	0x3d7e7004	0.062118545
92	0x3e4df253	0.2011197
93	0xbdf2fddb	-0.11864825
94	0xbdd0b54d	-0.101908304
95	0xbe2c90b2	-0.16852072
96	0xbe2e792a	-0.17038408
97	0x3d691a9b	0.05691014
98	0x3e425f29	0.18981613
99	0x3d79f2da	0.061022617
100	0xbe1a945a	-0.15095654
101	0x3cc98722	0.02460057
102	0xbe362dca	-0.17790905
103	0x3d133538	0.035939425
104	0xbe5069a1	-0.20352794
105	0xbe08bcd8	-0.13353288
106	0xbb428e86	-0.0029687001
107	0x3c42c475	0.011887659
108	0xbd074f17	-0.03303441
109	0xbe4bbd72	-0.19896486
110	0xbd687191	-0.05674893
111	0xbe2a3ade	-0.16624019
112	0x3daaea93	0.08345523
113	0xbdd3691e	-0.10322784
114	0xbe7177e9	-0.23580898
115	0x3c91f790	0.017818242
116	0x3e5687c9	0.20950235
117	0xbd70ddb5	-0.058805186
118	0xbe73f5e8	-0.23824275
119	0xbe821288	-0.25404763
120	0xbb36eca4	-0.0027912045
121	0xbe45eddd	-0.19329019
122	0x3d8222f5	0.06354324
123	0x3e5b313f	0.21405505
124	0x3d86902e	0.06570469
125	0xbe653442	-0.22383216
126	0x3de9998d	0.114062406
127	0x3dfd6306	0.12372403
128	0x3df5d0e9	0.12002737
129	0xbdd70b0f	-0.10500156
130	0x3c2cf985	0.010557537
131	0xbc61de82	-0.01378596
132	0x3e9b4e55	0.303332
133	0x3e5c7284	0.21528059
134	0xbce62399	-0.028093146
135	0xbe261f33	-0.16222839
136	0x3e3d10f3	0.18463497
137	0xbccf7025	-0.02532203
138	0x3d2daf2f	0.042403396
139	0x3e1bf442	0.15229896
140	0xbe145954	-0.14487201
141	0xbdb0608c	-0.08612165
142	0xbe1942a6	-0.1496683
143	0xbdb4e8a4	-0.08833435
144	0x3d30d6df	0.043173667
145	0x3cfb3327	0.03066404
146	0xbe42648d	-0.1898367
147	0x3e0c7d8b	0.13719766
148	0xbd9bb0fc	-0.076021165
149	0x3c8b5efb	0.017013064
150	0x3d8436bc	0.06455752
151	0xbe42abbe	-0.19010827
152	0x3dedd2bf	0.11612462
153	0x3e220959	0.15823878
154	0xbdfa5b31	-0.12224425
155	0xbdac1ca6	-0.08403902
156	0xbd8bfe7c	-0.068356484
157	0x3d3435bc	0.043996558
158	0x3dff91a0	0.12478948
159	0x3e15e0ad	0.14636488
160	0xbe4bb4d2	-0.19893196
161	0xbc8814d1	-0.016611489
162	0xbe31320f	-0.17304252
163	0x3dd93ede	0.10607694
164	0x3d859a64	0.06523588
165	0x3d8ce29e	0.06879161
166	0x3ddffe2b	0.109371506
167	0xbe4f92d5	-0.20270856
168	0x3cc4e4fb	0.024034968
169	0x3de5b58c	0.11216268
170	0xbc47ceb5	-0.012195279
171	0xbdfbe331	-0.12299193
172	0xbe185734	-0.14877015
173	0x3defff02	0.11718561
174	0xbd531e23	-0.051542412
175	0xbc9bbf56	-0.019012135
176	0xbe0edbda	-0.13951054
177	0x3d121027	0.035659935
178	0x3d80a0f7	0.062807016
179	0xbbe53095	-0.006994317
180	0xbce06388	-0.02739121
181	0xbd00066a	-0.031256117
182	0xbe0c5ad2	-0.1370652
183	0x3da40f56	0.080107376
184	0xbc231279	-0.009953135
185	0x3e4cad95	0.19988091
186	0x3cdf869f	0.027285872
187	0x3e4e396d	0.20139094
188	0xbe018e53	-0.12651949
189	0x3de775ba	0.113017514
190	0x3e4c4c24	0.1995092
191	0x3b7f39d0	0.003894437
192	0xbe65f226	-0.22455654
193	0x3e44d531	0.19221951
194	0x3dfcf7fb	0.12351986
195	0xbe579bd3	-0.21055536
196	0x3d8ff19d	0.07028506
197	0xbe7a0259	-0.24414958
198	0xbdb299c9	-0.087207384
199	0x3d93bf19	0.07214183
200	0x3d1781bd	0.036988962
201	0x3d925902	0.07145883
202	0xbe8d8268	-0.27638555
203	0xbcb72f3d	-0.022361392
204	0x3e63d49c	0.22249073
205	0xbcc4c932	-0.024021719
206	0xbdaa045c	-0.08301613
207	0x3da31886	0.07963662
208	0xba7219f5	-0.0009235435
209	0xbe085bc2	-0.13316253
210	0x3d9ef2c0	0.07761145
211	0xbe05875b	-0.13039915
212	0x3dae7967	0.085192494
213	0x3e0053c4	0.12531954
214	0xbd84bd87	-0.06481462
215	0x3d6642f4	0.056216195
216	0xbcc3f02b	-0.023918232
217	0xbdcd8852	-0.10035767
218	0x3d9f6669	0.07783205
219	0x3c17c241	0.009262622
220	0x3d59bf08	0.053160697
221	0xbcc2ceda	-0.023780275
222	0xbcd1fec7	-0.025634183
223	0x3d94af98	0.07260054
224	0xbc0f116f	-0.008732184
225	0x3e154f7a	0.14581099
226	0xbd14e714	-0.036353186
227	0x3d1208ef	0.03565305
228	0xb93e7d56	-0.00018166503
229	0x3e27f799	0.16403045
230	0xbda77c9f	-0.081780665
231	0x3c472d72	0.012156831
232	0xbd744871	-0.059639398
233	0xbe40418f	-0.18775009
234	0xbe8b528c	-0.27211416
235	0xbdb3367c	-0.087506264
236	0x3da43c97	0.08019369
237	0xbdc97ad0	-0.09837878
238	0xbe39349c	-0.18086475
239	0xbe43e542	-0.19130424
240	0x3d9cd0e7	0.076570325
241	0x3c33dc1d	0.010977772
242	0xbe4d446e	-0.20045635
243	0xbde04563	-0.109507345
244	0x3dbf6f6d	0.09347425
245	0x3e3b407c	0.18286318
246	0xbe80f2fd	-0.25185385
247	0xbe07fb1b	-0.13279383
248	0x3e397a0a	0.1811296
249	0x3bec3b58	0.0072092228
250	0x3ddf7d90	0.10912621
251	0x3dd12d71	0.102137454
252	0x3df460c9	0.11932523
253	0xbe08b666	-0.1335083
254	0xbc76ed6e	-0.015071256
255	0x3e6c615b	0.23084013

rnn.bias_ih_l0 f4 [512]
0	0xbe245cbe	-0.16051003
1	0xbeaab880	-0.33343887
2	0xbe4178a8	-0.18893683
3	0xbe3ff0c8	-0.18744195
4	0x3c0ed7c2	0.008718433
5	0x3e35d6ce	0.17757723
6	0xbe205733	-0.15658264
7	0xbe255c19	-0.16148414
8	0xbe276c96	-0.16350016
9	0xbdf62941	-0.12019587
10	0xbe781df3	-0.24230175
11	0xbda74700	-0.08167839
12	0xbe466bb4	-0.19377023
13	0xbe7fa035	-0.24963458
14	0xbe08adb3	-0.13347511
15	0xbd805278	-0.0626573
16	0xbe7301dc	-0.23731178
17	0xbe34d935	-0.17660983
18	0xbe6797de	-0.22616526
19	0xbdc860de	-0.09784101
20	0xbe9c6df1	-0.3055263
21	0xbe8748b2	-0.2642265
22	0xbe43bcbf	-0.1911497
23	0xbd06f340	-0.032946825
24	0x3e14bbbc	0.1452474
25	0xbea53df3	-0.32273826
26	0xbe5549ba	-0.20828906
27	0xbd985b02	-0.07439233
28	0xbe0c7268	-0.13715518
29	0xbe28efce	-0.16497728
30	0xbdc66877	-0.09687894
31	0xbeb04a51	-0.344317
32	0xbe832167	-0.2561142
33	0xbe76266d	-0.24038096
34	0xbe0c22f8	-0.13685215
35	0xbe4d93a0	-0.20075846
36	0xbe894441	-0.26809886
37	0xbe85085d	-0.25982943
38	0xbe51f884	-0.20504957
39	0xbe410292	-0.18848637
40	0xbe337c72	-0.17527941
41	0xbe7a703e	-0.2445688
42	0xbeb617bc	-0.35564983
43	0xbe2900f1	-0.16504265
44	0xbdfe3f82	-0.12414457
45	0x3e861ae8	0.26192403
46	0xbe886f3b	-0.26647362
47	0xbe5b04ba	-0.21388522
48	0x3d615676	0.055014096
49	0xbe3fd7ef	-0.18734716
50	0x3c06ca77	0.008226982
51	0xbdf390b0	-0.11892831
52	0xbe615ac3	-0.22007279
53	0xbd9e55b1	-0.07731188
54	0xbd209039	-0.03920004
55	0xbd0c44d3	-0.034245323
56	0xbe50ea30	-0.20401835
57	0xbd89db3d	-0.067312695
58	0xbe65171c	-0.22372097
59	0xbe101589	-0.14070715
60	0xbe3a1f4e	-0.18176004
61	0xbe93002f	-0.28711078
62	0xbd883f2b	-0.06652673
63	0xbe5c7e66	-0.21532592
64	0xbe69ee90	-0.2284491
65	0xbe6bf249	-0.23041643
66	0xbe09783a	-0.13424769
67	0xbc1218d2	-0.00891705
68	0xbe83e0a1	-0.25757316
69	0xbd843fea	-0.06457503
70	0xbe4b1a9b	-0.19834368
71	0xbe9f08b8	-0.3106134
72	0xbe5dc375	-0.21656592
73	0xbeae31ec	-0.34022462
74	0xbdc45f51	-0.09588493
75	0xbe4996b7	-0.196864
76	0xbcf70fe0	-0.030158937
77	0x3dd34fdd	0.10317967
78	0xbe2252b5	-0.15851863
79	0xbe3da47b	-0.18519776
80	0xbe9da7b0	-0.30791998
81	0xbec34986	-0.3814203
82	0xbdb354b3	-0.087563895
83	0xbe70d611	-0.2351916
84	0xbe946035	-0.2897965
85	0xbe390a21	-0.1807027
86	0xbe8433f0	-0.25820875
87	0xbe943434	-0.28946078
88	0xbe50491a	-0.20340386
89	0xbe92ea30	-0.28694296
90	0xbe58b7b2	-0.21163824
91	0xbe2842f7	-0.16431795
92	0xbe613b61	-0.21995308
93	0xbeaa00db	-0.33203778
94	0xbe7d71c7	-0.24750434
95	0xbd9aa1db	-0.07550403
96	0xbe05b210	-0.13056207
97	0xbe32c983	-0.17459683
98	0xbde588c3	-0.11207726
99	0xbec62386	-0.38698977
100	0xbded0afd	-0.115743615
101	0xbe05eda1	-0.1307893
102	0xbe2a063d	-0.16603942
103	0xbe79b6fe	-0.24386212
104	0xbd79e59f	-0.06101
105	0xbc0fd5f2	-0.008779036
106	0x3d12c46f	0.035831865
107	0xbe405196	-0.18781123
108	0xbe5587b4	-0.20852548
109	0xbe92ab6d	-0.28646412
110	0xbda3e735	-0.080030836
111	0xbe1f56b4	-0.15560418
112	0xbeac9ce3	-0.33713445
113	0xbe2ca261	-0.16858818
114	0xbe285f7b	-0.16442673
115	0xbdddb04b	-0.10824641
116	0xbdc61ce8	-0.09673482
117	0xbe385e2f	-0.18004678
118	0xbe87fd6a	-0.26560527
119	0xbe4fee3e	-0.20305726
120	0xbdadf5e3	-0.08494165
121	0x3ca675ed	0.020319903
122	0xbe0c8749	-0.13723482
123	0xbcb2bf37	-0.021819694
124	0xbe70814d	-0.23486824
125	0x3e6948cf	0.2278168
126	0xbe61c032	-0.22045973
127	0xbd2c9c06	-0.042140983
128	0xbe214ff8	-0.15753162
129	0xbe23205e	-0.15930316
130	0xbe2a928c	-0.16657466
131	0xbda1e4fa	-0.07905002
132	0xbe74588d	-0.23861904
133	0xbe0db681	-0.13839151
134	0xbda8dd92	-0.08245386
135	0x3a8367f1	0.0010025484
136	0xbd2733ff	-0.04082107
137	0xbde27a4f	-0.11058485
138	0xbd94b42f	-0.0726093
139	0xbdff14a4	-0.12455109
140	0xbe5dcb1d	-0.21659513
141	0xbe7fb172	-0.24970034
142	0xbb3aa44c	-0.0028479276
143	0x3bd19d77	0.006396945
144	0xbe04a134	-0.12952119
145	0xbda406e9	-0.080091305
146	0xbcd14337	-0.025544746
147	0xbd8b3b31	-0.06798399
148	0xbe04ae6d	-0.12957163
149	0xbd3041bb	-0.043031435
150	0x3e7bc64c	0.24587363
151	0x3ca5a4b6	0.020220142
152	0xbe2bc0da	-0.16772786
153	0xbd9cf182	-0.076632515
154	0xbca9566d	-0.020671094
155	0xbda5b8ab	-0.08091863
156	0xbd6264be	-0.055271856
157	0xbd945aa0	-0.07243848
158	0xbddf4d68	-0.10903436
159	0xbd9c46f0	-0.07630718
160	0xbe6748b2	-0.22586325
161	0xbd2536da	-0.040335514
162	0xbd9ef0e0	-0.07760787
163	0xbe491c8c	-0.19639796
164	0xbce56f98	-0.028007314
165	0xbdb8a77d	-0.09016321
166	0xbe26ea32	-0.16300276
167	0xbd8e3ab5	-0.06944791
168	0xbd67191d	-0.056420434
169	0x3bc5d1f4	0.0060369913
170	0x3de4445a	0.111458495
171	0xbe1e7dce	-0.15477678
172	0xbdd2071e	-0.10255264
173	0xbe7de53c	-0.24794477
174	0xbe764db4	-0.24053079
175	0xbd887baf	-0.06664216
176	0xbdb7eac9	-0.089803286
177	0xbd7e2ecb	-0.062056344
178	0xbce10168	-0.02746649
179	0xbe202334	-0.15638429
180	0xbd62eb84	-0.055400386
181	0xbd5aff64	-0.053466216
182	0xbe234013	-0.15942411
183	0xbc0a32c3	-0.008434954
184	0x3b57d6c7	0.0032934414
185	0xbda177d1	-0.07884181
186	0xbe60d954	-0.21957904
187	0xbe3c6cbe	-0.18400857
188	0xbd96fc57	-0.07372349
189	0xbe5e6eca	-0.2172195
190	0xbd16a3f2	-0.036777444
191	0xbe1efccc	-0.15526122
192	0xbd95d551	-0.073160775
193	0xbe3bc3d6	-0.18336424
194	0xbdf63a6e	-0.12022863
195	0x3bad3a6a	0.0052865045
196	0xbe005a1b	-0.12534373
197	0xbe56ed42	-0.20988944
198	0xbd9a8e6b	-0.07546695
199	0x3d2bd62c	0.041952297
200	0xbdea60e8	-0.11444265
201	0xbdc5f3d5	-0.09665648
202	0xbd8aaac8	-0.06770855
203	0xbe20314c	-0.15643805
204	0xbd01f499	-0.031727407
205	0xbe16f7b9	-0.14742936
206	0xbe1581fa	-0.14600363
207	0x3bcedb93	0.0063127964
208	0xbe2976da	-0.16549245
209	0xbe1c19f7	-0.1524428
210	0x3c750205	0.014954095
211	0x3b12545d	0.0022328116
212	0xbdab9df1	-0.08379734
213	0xbcbdce7a	-0.023169745
214	0xbe1343a2	-0.14381269
215	0xbe6b71fa	-0.22992697
216	0xbdd212d9	-0.10257501
217	0xbdebec7a	-0.11519714
218	0xbe071679	-0.13192166
219	0xbd5b6747	-0.05356529
220	0xbd6966d7	-0.05698284
221	0xbe126efb	-0.14300148
222	0xbdd0ed18	-0.10201472
223	0xbcf9f817	-0.030513806
224	0x3d2af2fd	0.041735638
225	0xbd1c9ca2	-0.038235314
226	0xbd60e12b	-0.054902237
227	0xbc69aa2c	-0.014261764
228	0xbc9134b1	-0.01772532
229	0xbe28f639	-0.16500176
230	0xbe14964c	-0.14510459
231	0xbd696e13	-0.05698974
232	0xbe22482b	-0.15847842
233	0xbe0d3ba5	-0.13792284
234	0xbe207d19	-0.15672721
235	0xbe2a9ffe	-0.16662595
236	0xbd80ff3e	-0.062986836
237	0xbd31f988	-0.043450862
238	0xbe23b558	-0.15987146
239	0xbcbdccc6	-0.023168933
240	0xbdf93b38	-0.12169498
241	0x3c27f874	0.010252107
242	0xbe5b896e	-0.21439144
243	0xbe3889c4	-0.18021303
244	0x3d9ccc90	0.07656205
245	0xbe6078c3	-0.21921067
246	0x3c034a80	0.008013368
247	0xbe810a91	-0.25203374
248	0x3c83624a	0.016038079
249	0xbd943486	-0.072365806
250	0xbe0fa0dc	-0.14026207
251	0xbd6e402c	-0.058166668
252	0xbe510594	-0.20412284
253	0xbd6663e7	-0.056247618
254	0xbdb14cdc	-0.08657238
255	0xbe87723a	-0.26454335

rnn.bias_hh_l0 f4 [512]
0	0xbdd023d6	-0.10163085
1	0xbe5303f4	-0.20606977
2	0xbe2ad708	-0.1668359
3	0xbe6c0178	-0.23047435
4	0x3da04c54	0.078270584
5	0x3e6814d3	0.22664194
6	0xbe2eb737	-0.17062078
7	0xbe07ccdc	-0.13261741
8	0xbe0ef31b	-0.13959925
9	0xbdfd1a7d	-0.12358568
10	0xbde85ba7	-0.11345606
11	0xbe54f9fa	-0.20798483
12	0xbe1d73f0	-0.15376258
13	0xbe246ba4	-0.16056687
14	0xbe6f975f	-0.23397587
15	0xbd7dabbf	-0.061931368
16	0xbe46f661	-0.19429924
17	0xbe43252f	-0.19057153
18	0xbe24211f	-0.1602826
19	0xbe4d8f0f	-0.20074104
20	0xbe87ada0	-0.26499653
21	0xbe432ff4	-0.19061261
22	0xbd336fc9	-0.04380778
23	0x3ceb6bbf	0.0287379
24	0x3dbe016b	0.09277614
25	0xbe7283c1	-0.23683073
26	0xbe494ef7	-0.19659029
27	0x3bf42271	0.007450395
28	0xbcd92fc3	-0.026512032
29	0xbe21128e	-0.15729734
30	0xbdcf44c8	-0.10120541
31	0xbeb2a540	-0.348917
32	0xbe54fff1	-0.20800759
33	0xbe7d1d6c	-0.24718255
34	0xbe80de70	-0.25169706
35	0xbe5a181f	-0.21298264
36	0xbe41a39d	-0.1891007
37	0xbe7965a3	-0.24355178
38	0xbe000589	-0.12502111
39	0xbd5e9a1a	-0.05434618
40	0xbe51c8a6	-0.20486698
41	0xbe482204	-0.19544226
42	0xbecb5b1c	-0.39717948
43	0xbdc9b928	-0.09849769
44	0xbe86989f	-0.26288316
45	0x3e300002	0.17187503
46	0xbe7d887b	-0.24759094
47	0xbde4af23	-0.11166217
48	0x3e040adf	0.12894772
49	0xbe9dc262	-0.30812365
50	0xbd022b46	-0.03177955
51	0xbe726c88	-0.23674214
52	0xbe89f95e	-0.26948065
53	0xbe53a4b1	-0.20668294
54	0xbd2d33f5	-0.04228588
55	0xbdbc462c	-0.09193072
56	0xbe32c841	-0.17459203
57	0xbd47f0ec	-0.048813745
58	0xbe028056	-0.12744269
59	0xbe2c162d	-0.16805334
60	0xbea03331	-0.31289056
61	0xbe2f0dc2	-0.17095092
62	0xbdbb89be	-0.091571316
63	0xbdf4e793	-0.11958232
64	0xbe117c24	-0.14207512
65	0xbe520928	-0.20511305
66	0xbe368b1b	-0.17826502
67	0x3c93c641	0.01803887
68	0xbe1d086f	-0.15335248
69	0xbd3e2629	-0.04642311
70	0xbe7b4346	-0.24537382
71	0xbed2bdb3	-0.41160354
72	0xbe93e80f	-0.28887984
73	0xbe4be7b7	-0.19912611
74	0xbe32391f	-0.17404602
75	0xbe92e9e0	-0.28694057
76	0x3db624cf	0.088937394
77	0x3e0db3c2	0.13838103
78	0xbd2df609	-0.042470966
79	0xbe185204	-0.14875036
80	0xbe3fb8ac	-0.1872279
81	0xbeb2a258	-0.34889483
82	0xbe02755a	-0.12740079
83	0xbea550be	-0.32288164
84	0xbec9cbed	-0.39413396
85	0xbe76436d	-0.24049158
86	0xbe3affb5	-0.18261607
87	0xbe99f6e3	-0.30071172
88	0xbe0f163f	-0.1397333
89	0xbe913548	-0.28360963
90	0xbe007b17	-0.12546955
91	0xbde51367	-0.11185341
92	0xbebc878d	-0.36822167
93	0xbe8e86e2	-0.27837282
94	0xbea04653	-0.31303653
95	0xbd8e15a5	-0.06937722
96	0xbdd0fc01	-0.10204316
97	0xbe6faf91	-0.23406817
98	0xbdc157d4	-0.0944058
99	0xbe8755bb	-0.26432595
100	0xbdc8a593	-0.09797206
101	0xbe627209	-0.22113813
102	0xbde9c8e5	-0.11415271
103	0xbe4e558b	-0.2014982
104	0xbdc98e88	-0.09841639
105	0x3dc27d94	0.094966084
106	0x3d8b3490	0.06797135
107	0xbe8fd71d	-0.28093806
108	0xbe41e423	-0.18934684
109	0xbe8cac1b	-0.27475056
110	0xbe01906f	-0.12652753
111	0xbe5bab9f	-0.21452187
112	0xbebc61d1	-0.36793378
113	0xbd8b1813	-0.06791701
114	0xbe1b1c6d	-0.15147562
115	0xbe658bb9	-0.22416581
116	0xbd721042	-0.059097536
117	0xbe6998a2	-0.22812131
118	0xbe71312c	-0.23553914
119	0xbe1838be	-0.14865395
120	0xbe008218	-0.12549627
121	0xbdb58fbe	-0.08865307
122	0xbdbe6198	-0.09295958
123	0x3d640dcf	0.05567723
124	0xbeb290a3	-0.34875974
125	0x3eb58fa1	0.35461143
126	0xbe4d4b3d	-0.20048232
127	0xbda97ad6	-0.08275382
128	0xbde616c1	-0.11234809
129	0xbe335668	-0.1751343
130	0xbe2f2864	-0.17105252
131	0xbe1049c2	-0.14090636
132	0xbe0e1e4f	-0.1387875
133	0xbe1ca1db	-0.15296118
134	0xbd1ab52f	-0.037770446
135	0xbd7417fe	-0.059593193
136	0xbe288e2b	-0.16460483
137	0xbd82e8b9	-0.063920446
138	0xbd3fd1f9	-0.046831105
139	0xbdc8dc88	-0.09807688
140	0xbe4b8b58	-0.19877374
141	0xbe7a22a8	-0.24427283
142	0xbd87e588	-0.066355765
143	0x3c15e0a4	0.009147797
144	0xbe136fe3	-0.1439815
145	0xbe00b8a1	-0.1257043
146	0xbe39b9f7	-0.18137346
147	0xbcafa00f	-0.021438627
148	0xbe135e3f	-0.14391421
149	0xbe1bcc5b	-0.15214674
150	0x3e7b98ec	0.24570054
151	0xbd2d107d	-0.042252053
152	0xbe5cdc90	-0.21568513
153	0xbdf272c6	-0.118382975
154	0x3cd9ecba	0.026602138
155	0xbd43ac49	-0.047771726
156	0xbd8b6a2f	-0.06807362
157	0xbdbc3b26	-0.09190969
158	0xbdd6c853	-0.104874276
159	0xbdc0f3bc	-0.09421489
160	0xbe224208	-0.15845501
161	0x3ba8f3ef	0.0051560323
162	0xbe5a1664	-0.21297604
163	0xbe0e18ab	-0.13876598
164	0x3d29b385	0.04143097
165	0x3cf2bd52	0.02963129
166	0xbe1e641b	-0.15467875
167	0xbbf13deb	-0.0073621175
168	0xbd1cb044	-0.038254037
169	0xbdef46ae	-0.11683403
170	0x3e0ad6e3	0.13558535
171	0xbd8e529e	-0.06949352
172	0x3c366c37	0.011134199
173	0xbe174515	-0.14772446
174	0xbe2b7ceb	-0.16746871
175	0xbd562d23	-0.05228914
176	0xbe5cc981	-0.21561243
177	0xbdcf082e	-0.10108982
178	0xbd7a1e5f	-0.06106412
179	0xbe09a584	-0.13442045
180	0xbd73abc3	-0.059489977
181	0x3acc912e	0.0015607232
182	0xbe3067c9	-0.17227091
183	0xbe032551	-0.12807204
184	0xbd925db9	-0.071467824
185	0xbd968cfb	-0.07351109
186	0xbe089673	-0.13338642
187	0xbd91affe	-0.07113646
188	0xbdffc263	-0.12488248
189	0xbe5e3df2	-0.21703318
190	0xbd09be49	-0.033628736
191	0xbd444f08	-0.047926933
192	0xbe634ae7	-0.22196542
193	0xbe42b8b9	-0.19015779
194	0xbd8b072f	-0.067884795
195	0x3d44fd3b	0.048093062
196	0xbda47dec	-0.0803183
197	0xbdd2fd74	-0.103022486
198	0xbdb923bd	-0.0904002
199	0xbc7c3793	-0.015394109
200	0xbe6508da	-0.22366658
201	0xbe246c60	-0.16056967
202	0xbd981f54	-0.0742785
203	0xbe1d04b0	-0.1533382
204	0xbd9d1837	-0.07670634
205	0xbda2fed9	-0.079587646
206	0xbe1ce615	-0.15322144
207	0xbe1f200c	-0.15539569
208	0xbe0c749d	-0.1371636
209	0xbe17eaf9	-0.14835729
210	0x3ca6c67e	0.02035832
211	0xbcb19099	-0.021675395
212	0xbe3fb65c	-0.18721908
213	0xbd8d91c1	-0.06912566
214	0xbd778d29	-0.060437355
215	0xbe83b468	-0.25723577
216	0xbd558789	-0.05213121
217	0xbda4f4e0	-0.08054519
218	0xbe1c8c0d	-0.152878
219	0xbd82a1bd	-0.063785054
220	0xbdce400e	-0.10070811
221	0xbd054f6b	-0.032546442
222	0xbd487b49	-0.0489457
223	0xbc1ef10e	-0.009701027
224	0x3bafa079	0.005359706
225	0xbd5c885d	-0.053840984
226	0xbd720386	-0.05908539
227	0xbd3b60ee	-0.045746736
228	0xbd968b7f	-0.073508255
229	0xbd094b76	-0.03351923
230	0xbdce7e1a	-0.10082646
231	0xbdb63c2a	-0.08898194
232	0xbe07885f	-0.13235615
233	0xbcc13fb1	-0.02358994
234	0xbd456ef6	-0.048201524
235	0xbe3b077f	-0.18264578
236	0xbe06eb3b	-0.13175671
237	0xbe410a87	-0.18851672
238	0xbe9fde23	-0.31224164
239	0xbc3d5f12	-0.011558311
240	0xbe4298ee	-0.1900365
241	0xbd450082	-0.048096187
242	0xbd738a2b	-0.05945794
243	0xbe148ca2	-0.14506772
244	0x3a470c52	0.00075930834
245	0xbe22c64d	-0.15895958
246	0xbd826e5e	-0.06368707
247	0xbde9dbaf	-0.114188544
248	0x3ddf8fc7	0.10916095
249	0x3b16382a	0.002292166
250	0xbe71de95	-0.23620065
251	0xbdb9e5fe	-0.09077071
252	0xbda28465	-0.079354085
253	0xbdea317c	-0.1143522
254	0xbe5b9fe7	-0.21447717
255	0xbe4e0a2b	-0.20121066

fc1.weight f4 [128, 387]
0	0x3d590d5b	0.052991252
1	0xbc3377ad	-0.010953826
2	0x3d2f52c3	0.042803537
3	0xbced8ee4	-0.0289988
4	0x3db21b35	0.086965956
5	0x3cc83045	0.02443708
6	0x3d0120b6	0.031525336
7	0x3c631d98	0.013862036
8	0x3d796a9d	0.06089269
9	0x3c52e626	0.0128722545
10	0x3cc84513	0.024447
11	0xbc68ba43	-0.0142045645
12	0xbd1de712	-0.038550444
13	0xbdc9acd6	-0.09847419
14	0xbc162445	-0.009163921
15	0xbc897242	-0.016778115
16	0xbd35d450	-0.04439193
17	0xbd57e132	-0.052704997
18	0x3d09945b	0.03358875
19	0xbcbc1a1b	-0.022961667
20	0x3c54f4b7	0.012997798
21	0xbc4ea174	-0.012611736
22	0xbc309e1f	-0.0107798865
23	0xbc62e322	-0.013848098
24	0xbe35d49b	-0.17756884
25	0xbd22cc4d	-0.039745618
26	0x3cc0b202	0.02352238
27	0xbc3828db	-0.011240209
28	0x3d9bd97e	0.07609843
29	0x3ccb02d5	0.024781624
30	0x3ce98f23	0.028510636
31	0x3dc3d4fb	0.09562107
32	0xbd83ab00	-0.064291
33	0xbb9fea2a	-0.0048802095
34	0x3c34aa58	0.011026941
35	0xbd3092c6	-0.043108724
36	0xbd42847b	-0.047489624
37	0x3c96a062	0.018387023
38	0xbbb389bd	-0.005479066
39	0xbbae7ee1	-0.0053251837
40	0xbbfe6cca	-0.0077644335
41	0xbd872e95	-0.06600682
42	0xbd97b5e1	-0.074077375
43	0x3ca7425c	0.020417385
44	0x3d5d4103	0.054017078
45	0x3d5d909c	0.05409299
46	0x3d06a955	0.03287633
47	0x3d07eaaa	0.033182777
48	0x3d9dd6f1	0.077070124
49	0x3d95b2d3	0.07309499
50	0xbd9eb21c	-0.077488154
51	0x3bfbbce6	0.0076824306
52	0x3bc74380	0.0060810447
53	0xbcc25126	-0.023720335
54	0xbd7e1562	-0.06203211
55	0xbdb7f541	-0.08982325
56	0xbcd63da2	-0.026152436
57	0xbd40fd56	-0.0471166
58	0xbd2ca49f	-0.042149182
59	0xbd6cbc59	-0.05779681
60	0x3ca6cb4a	0.020360608
61	0x3daf5b3e	0.08562325
62	0x3d887e61	0.0666473
63	0x3b849d37	0.004047062
64	0xbc71cddf	-0.014758556
65	0xbda7e509	-0.08197982
66	0xbda22130	-0.07916486
67	0x3d288574	0.041142896
68	0xbc65fdc1	-0.01403755
69	0x3e03d11d	0.12872739
70	0x390fb13e	0.0001370357
71	0x3bdbb12a	0.006704469
72	0x3d0c1921	0.034203652
73	0x3d825ef4	0.06365767
74	0xbd03c6a6	-0.032171868
75	0xbd67b1a1	-0.056565885
76	0xbcefee18	-0.029288337
77	0xbde1484c	-0.11000118
78	0x3d895da9	0.067073174
79	0xbc9a5b67	-0.018842412
80	0xbcebf6ab	-0.028804144
81	0xbd434512	-0.047673292
82	0xbc310aab	-0.010805766
83	0x3d486aa5	0.04892983
84	0x3d9dfba9	0.07714016
85	0xbc9d3d37	-0.019194229
86	0xbbae9c93	-0.0053287237
87	0x3da28db3	0.07937183
88	0x3d124d2e	0.035718136
89	0xbcfe9734	-0.031077959
90	0x3d64d096	0.055862986
91	0x3ccaf2ce	0.024773981
92	0x3d32b4a5	0.043629307
93	0xbce015f0	-0.02735421
94	0x3c8e9d67	0.01740904
95	0x3c936d62	0.017996494
96	0xbcc9eb44	-0.024648316
97	0x3d175ffd	0.036956776
98	0xbd5eea5f	-0.054422732
99	0x3c09abc7	0.008402771
100	0x3d487bf8	0.04894635
101	0xbd4be066	-0.04977455
102	0x3ce7e8da	0.028309274
103	0x3d563694	0.052298144
104	0xbd74f099	-0.059799764
105	0x3de7b7e5	0.11314372
106	0xbdeb3bb3	-0.11485996
107	0xbb612fcc	-0.0034360765
108	0x3d318380	0.0433383
109	0xbda630e8	-0.08114797
110	0xbdda6a07	-0.10664754
111	0x3cb7581f	0.022380887
112	0x3cb1eab7	0.021718366
113	0x3c923da7	0.017851664
114	0x3da42f82	0.08016874
115	0x3c9130f9	0.017723547
116	0xbd050e5a	-0.03248439
117	0x3d999b43	0.07500317
118	0x3d117e1f	0.03552067
119	0x3d06b147	0.03288391
120	0xbd833df8	-0.06408304
121	0x3d59b591	0.05315167
122	0x3da70d1d	0.08156798
123	0x3d82dd3d	0.06389854
124	0x3d78e6c5	0.060766954
125	0xbddb1af6	-0.10698502
126	0xbad7f277	-0.0016475458
127	0x3dada26a	0.08478244
128	0x3a0678ed	0.00051297137
129	0x3d578ea3	0.052626263
130	0xbcfd426f	-0.030915467
131	0x3d77b435	0.060474593
132	0xbdd8df4f	-0.10589468
133	0xbd6041d2	-0.05475027
134	0x3d3739be	0.0447328
135	0x3d8b8010	0.06811535
136	0x3d4de7e6	0.050269984
137	0xbd113aaf	-0.035456356
138	0x3c74d3ac	0.014943045
139	0x3d1e0f0e	0.038588576
140	0x3d77a65f	0.0604614
141	0x3d533eb6	0.051573478
142	0xbd386be5	-0.04502477
143	0xbcee3696	-0.029078763
144	0x3d175e73	0.03695531
145	0x3d034b25	0.032054085
146	0x3ddded81	0.10836316
147	0xbd44e9a0	-0.048074365
148	0xbe367d0a	-0.17821136
149	0x3da584bf	0.0808196
150	0x3ce6fd67	0.028197004
151	0x3c9fc757	0.019504232
152	0x3bff75a4	0.0077960063
153	0x3de3cb9c	0.1112282
154	0xbde18f12	-0.110136166
155	0xbd07f16a	-0.033189215
156	0x3d3f3deb	0.04668991
157	0xbcecde54	-0.028914608
158	0xbde3e49e	-0.1112759
159	0xbc814d19	-0.015783833
160	0x3cc2c28d	0.02377441
161	0x3d22fa73	0.03978963
162	0x3d5cfe09	0.053953204
163	0x3e0e6c27	0.13908444
164	0x3dc06cec	0.09395775
165	0x3d5e84fc	0.054326043
166	0x3ce02bde	0.027364668
167	0xbd6504b4	-0.05591269
168	0xbd4d156f	-0.05006927
169	0x3d1fd3d4	0.039020374
170	0xbb163173	-0.0022917658
171	0x3d582e91	0.052778784
172	0x3cc13834	0.02358637
173	0x3d94516e	0.07242094
174	0x3cbeda56	0.02329747
175	0x3d30da50	0.04317695
176	0x3db01d4a	0.085993364
177	0xbd5ef739	-0.05443499
178	0x3dae6366	0.085150525
179	0x3d4939ea	0.049127497
180	0x3cc0aaab	0.02351888
181	0xbd8360f4	-0.06414977
182	0xbd26f5ec	-0.040761873
183	0xbcd569be	-0.026051398
184	0xbd247fce	-0.040160947
185	0xbc9f2d70	-0.019430846
186	0xbcd6bfa3	-0.026214426
187	0x3d22725a	0.039659835
188	0x3d99cc92	0.07509722
189	0xbddf9a21	-0.1091807
190	0xbd308e2a	-0.04310433
191	0x3d47a074	0.048737004
192	0xbce50285	-0.027955303
193	0xbdc5f18d	-0.09665213
194	0xbd098529	-0.033574257
195	0xbc70e2db	-0.014702524
196	0xbd2d4802	-0.042305
197	0xbd80ceaa	-0.06289418
198	0x3d08cfe9	0.033401404
199	0xbd119549	-0.03554276
200	0xbe2e2a20	-0.17008257
201	0xbc28be1e	-0.010299234
202	0x3d619eed	0.055083204
203	0x3d955b4c	0.07292804
204	0x3cd89431	0.02643785
205	0x3d9c0ece	0.07620011
206	0xbb8da382	-0.00432247
207	0xbcd916d2	-0.02650014
208	0xbbbc334d	-0.00574342
209	0xbc3ef53d	-0.011655149
210	0xbc0f70c8	-0.0087549165
211	0xbd93189a	-0.07182427
212	0xbc51a4a6	-0.012795603
213	0x3c8ded51	0.017325075
214	0xbd91c3f7	-0.071174555
215	0xbd514d11	-0.051098887
216	0xbc7309e7	-0.014833904
217	0x3a879a84	0.0010345732
218	0xbda238a2	-0.07920958
219	0xbcc67b57	-0.024228735
220	0x3bfd2a39	0.0077259806
221	0xbdd4e72a	-0.103956535
222	0xbb97d560	-0.0046335906
223	0xbc907c37	-0.017637355
224	0x3d39a779	0.04532573
225	0x3cc768fe	0.024342056
226	0xbc845c8a	-0.016157407
227	0xbace6920	-0.0015747882
228	0x3da58c25	0.08083371
229	0x3b89c29e	0.0042041084
230	0xbcc6fbaf	-0.024289934
231	0x3de5f10b	0.11227616
232	0x3a5cacb1	0.0008418067
233	0x3c03437a	0.008011693
234	0x3d1e97c5	0.038718957
235	0xbc3be598	-0.011468314
236	0xbc55582a	-0.013021508
237	0xbd263111	-0.040574137
238	0xbc3ed877	-0.011648289
239	0xbde12523	-0.109934114
240	0x3ca4e6ee	0.020129647
241	0xbd758b0c	-0.05994706
242	0xbdb3906f	-0.08767783
243	0x3d1d66dd	0.038428176
244	0xbda56c80	-0.08077335
245	0x3d1b92ec	0.037981912
246	0xbd275d10	-0.040860236
247	0x3d4cb5c1	0.04997802
248	0x3d25ead3	0.04050715
249	0x3cdb77a8	0.026790455
250	0xbc56136b	-0.013066153
251	0xbd7143e1	-0.058902625
252	0xbc12e180	-0.008964896
253	0x3d01abfc	0.031658158
254	0x3d686262	0.05673445
255	0x3d973f18	0.07385081

fc1.bias f4 [128]
0	0x3ddaefec	0.10690293
1	0xbd63c421	-0.055606965
2	0x3e088800	0.1333313
3	0x3ab63f71	0.0013904405
4	0xbdba86ee	-0.09107767
5	0x3d4ac01b	0.049499612
6	0xbdb1f3af	-0.08689057
7	0x3cad04da	0.021120477
8	0x3db2f255	0.087376274
9	0x3d01ea92	0.031717844
10	0xbc93cd8b	-0.018042346
11	0xbe037f36	-0.12841496
12	0xbd496311	-0.049166743
13	0x3e091b66	0.13389358
14	0xbd7d411b	-0.061829668
15	0xbd368480	-0.044559956
16	0x3c1c6336	0.009545138
17	0x3d90f211	0.070774205
18	0x3d58bdcc	0.05291538
19	0xbd2b56eb	-0.04183094
20	0x3d1a4c46	0.037670396
21	0xb9983148	-0.00029028417
22	0xbd34b121	-0.044114236
23	0x3af55d1e	0.0018719768
24	0x3c3d4cd3	0.011553961
25	0x3d55413b	0.05206416
26	0xbdca38c8	-0.098741114
27	0xbd8a56b6	-0.0675482
28	0xbd20ee4c	-0.039289758
29	0x3cae1f5f	0.021255193
30	0xbb99a7be	-0.004689186
31	0xbd0c3656	-0.034231506
32	0xbce86ba6	-0.028371643
33	0x3c95ba82	0.01827741
34	0x3cde032d	0.027101124
35	0x3d6ce669	0.057836924
36	0xbd58d283	-0.052935135
37	0x3e1ebc67	0.15501557
38	0x3d4f9b3c	0.050685152
39	0x3ddb725f	0.10715174
40	0x3d6b35cf	0.057424363
41	0xbdb75697	-0.089520626
42	0x3c3d2bb3	0.011546063
43	0x3d383c5a	0.04497943
44	0x3c288964	0.010286663
45	0x3c21f88d	0.009885919
46	0x3cc8e55f	0.024523435
47	0x3d876ef3	0.06612959
48	0xbe012b96	-0.12614283
49	0x3dbb16eb	0.09135231
50	0x3d941960	0.072314024
51	0xbd98cb7e	-0.07460688
52	0xbda457a4	-0.080245286
53	0x3dab37b4	0.08360234
54	0x3a8fec6b	0.0010980492
55	0x3c11e01f	0.008903532
56	0xbcf652f4	-0.030068852
57	0x3aaa9fc6	0.0013017587
58	0xbd561e20	-0.052274823
59	0xbc57f445	-0.013180797
60	0xbce514a1	-0.027963938
61	0xbdd57f30	-0.1042465
62	0x3cb0f6ab	0.021601995
63	0xbcd94520	-0.02652222
64	0x3e085eb1	0.13317372
65	0xbd3c7def	-0.046018537
66	0x3d1a6ffc	0.037704453
67	0xbda1c427	-0.07898741
68	0x3dfa9132	0.12234725
69	0xbdd407d1	-0.10353053
70	0xbd17d500	-0.037068367
71	0x3b01c028	0.0019798372
72	0xbdbe08fb	-0.09279057
73	0xbcfe90fd	-0.031074995
74	0x3c44ade3	0.012004348
75	0xbc364893	-0.0111257015
76	0xbcae2cf7	-0.021261675
77	0xbc15567f	-0.009114861
78	0xbd6ed986	-0.058312915
79	0x3c8fa0d3	0.017532742
80	0x3da2c060	0.07946849
81	0xbdb4381f	-0.08799767
82	0xbd3b40fc	-0.04571627
83	0xbcc46698	-0.023974702
84	0x3e0f639e	0.14002845
85	0x3dab6ffb	0.08370968
86	0x3d949241	0.07254458
87	0x3d16242c	0.03665559
88	0xbc38d43f	-0.011281072
89	0x3da9646f	0.08271109
90	0xbd40700f	-0.046981867
91	0x3d02aa37	0.03190061
92	0xbc0b2b62	-0.00849423
93	0xbd0b24f3	-0.033970784
94	0xbb66fecd	-0.0035247088
95	0xbcd31b68	-0.025769904
96	0x3d2c4546	0.04205825
97	0x3da5d0cb	0.08096465
98	0xbd6539fc	-0.0559635
99	0x3d34a626	0.044103764
100	0x3d21302f	0.039352592
101	0xbc40a5f5	-0.011758317
102	0xbdd0f8b1	-0.10203684
103	0x3ce37b88	0.027768865
104	0x3dd07ba1	0.1017983
105	0xbc29c39b	-0.010361577
106	0xbdd62f2e	-0.104582176
107	0x3d713cd6	0.05889591
108	0xbd66a952	-0.05631382
109	0xbd4b2ff5	-0.049606282
110	0xbc429b74	-0.011877883
111	0x3da5e9c2	0.081012264
112	0x3d9d0261	0.07666469
113	0xbc81d6ba	-0.01584946
114	0x3ceb832a	0.028749067
115	0xbda5bcdf	-0.08092665
116	0xbd787038	-0.060653895
117	0x3d05b534	0.032643512
118	0x3d959baf	0.07305085
119	0x3bde8494	0.006790707
120	0x3d9d641f	0.07685112
121	0xbda7f130	-0.082003
122	0x3e113910	0.14181924
123	0x3be63839	0.007025745
124	0xbce83bb0	-0.028348774
125	0xbd6fa229	-0.058504257
126	0xbd628149	-0.055299077
127	0x3e131f7a	0.14367476

fc2.weight f4 [128, 128]
0	0x3cafb48a	0.021448392
1	0xbe29ed20	-0.16594362
2	0x3c07ff45	0.008300607
3	0xbc74f16f	-0.01495014
4	0x3d37ff6d	0.044921327
5	0x3abc01d3	0.0014343805
6	0xbd3684d2	-0.04456026
7	0xbc63467d	-0.013871786
8	0x3c880a15	0.01660637
9	0x3c4f4a69	0.012652018
10	0xbd9ee807	-0.077590995
11	0x3e179a88	0.14805043
12	0x3d6838c6	0.05669477
13	0x3d170ea7	0.036879208
14	0xbc76090f	-0.015016808
15	0x3e0b90da	0.13629475
16	0xbd5bd3af	-0.053668674
17	0x3a1c1e12	0.00059554086
18	0x3d8757e1	0.066085584
19	0x3d9bf0f5	0.07614318
20	0x3c8aaa2f	0.016926853
21	0xbd82d295	-0.063878216
22	0xbc9f5197	-0.019448085
23	0x3d645d07	0.05575278
24	0xbdabdd53	-0.083918236
25	0x3c56bffb	0.013107295
26	0x3d4e9d9b	0.050443273
27	0x3cf9335e	0.030420002
28	0xbd7e5feb	-0.062103193
29	0xbdd3ed9a	-0.10348053
30	0x3d8c1503	0.06839945
31	0x3da33921	0.07969881
32	0xbb8c7ecf	-0.0042875777
33	0x3d133fcf	0.035949524
34	0x3ccafa81	0.024777653
35	0x3d6e8a19	0.05823717
36	0x3caf433e	0.021394368
37	0xbd114c22	-0.035472997
38	0xbd05bc66	-0.032650374
39	0x3c6fccf3	0.014636266
40	0xbc5e07b4	-0.013551641
41	0xbd924601	-0.071422584
42	0x3de1e345	0.11029676
43	0xbcf2ba43	-0.029629832
44	0x3ceddac4	0.02903498
45	0xbcdb2332	-0.02675018
46	0xbd5ef5e1	-0.054433707
47	0x3d81a4c0	0.06330252
48	0x3c671c62	0.014105888
49	0xbd8c5a70	-0.06853187
50	0xbdcbe666	-0.099560544
51	0x3e4520a3	0.19250731
52	0x3d2fdd05	0.04293539
53	0xbe0984ce	-0.13429567
54	0x3dadb3e7	0.08481579
55	0xbd4a1d38	-0.04934427
56	0x3d3d6e99	0.046248052
57	0xbda79892	-0.08183397
58	0xbceb2889	-0.028705852
59	0x3d8095b6	0.06278555
60	0xbd9d202f	-0.07672154
61	0x3c2c9a6d	0.010534865
62	0x3cb6a905	0.022297392
63	0x3c192bd9	0.009348833
64	0x3e13e1e8	0.14441645
65	0xbd67754c	-0.056508347
66	0x3d6cc919	0.05780897
67	0x3c8fa328	0.017533854
68	0xbc2a58ed	-0.010397178
69	0xbe37a552	-0.17934158
70	0xbddf717b	-0.109103166
71	0x3cf9b1f7	0.030480368
72	0xbdb1b743	-0.086775325
73	0x3e028e71	0.1274965
74	0xbd941c14	-0.07231918
75	0xbc2a74da	-0.010403836
76	0xbdeae573	-0.11469545
77	0xbd849011	-0.06472791
78	0x3ce8f110	0.02843526
79	0x3dcd74c3	0.10032036
80	0x3df40464	0.119149
81	0xbd05b8fc	-0.032647118
82	0xbdde8a23	-0.10866191
83	0xbc5f7709	-0.01363922
84	0xbde72b72	-0.112875834
85	0xbd1e8f59	-0.038710926
86	0x3d63a373	0.0555758
87	0x3dc38941	0.095476635
88	0x3db0a4a4	0.08625153
89	0x3d8cebec	0.06880936
90	0xbdf02f25	-0.11727742
91	0xbcfa4de3	-0.030554717
92	0xbcef8c64	-0.029241748
93	0x3cec9f07	0.028884424
94	0x3cf52ed9	0.029929565
95	0xbe052312	-0.1300166
96	0xbd4fcf55	-0.050734837
97	0xbccb90c2	-0.0248493
98	0x3c87b78a	0.01656701
99	0x3cceb91f	0.025234757
100	0x3a805e3d	0.000979371
101	0x3ddd0066	0.107910916
102	0x3d98278d	0.07429419
103	0xbd084c2b	-0.033275764
104	0xbd123a86	-0.035700344
105	0xbd58e8e1	-0.052956466
106	0x3c87f1bf	0.016594766
107	0xbd55f38b	-0.052234214
108	0xbc0ac66c	-0.008470159
109	0xbc45665d	-0.012048331
110	0xbc8a42bf	-0.01687753
111	0xbd5589eb	-0.052133482
112	0x3c918c90	0.01776722
113	0x3c8cb62e	0.017176714
114	0xbdfd7964	-0.12376669
115	0x3d23ab36	0.0399582
116	0x3beea4f6	0.0072828485
117	0x3d592a17	0.053018656
118	0xbce58339	-0.028016673
119	0x3cdde1e1	0.027085247
120	0x3d3d6110	0.046235144
121	0x3d7ee423	0.062229287
122	0xbd51eab9	-0.05124924
123	0x3d6ad496	0.057331644
124	0xbd444c50	-0.04792434
125	0x3d6234a8	0.055226
126	0x3c08170b	0.008306275
127	0xbd16edb6	-0.036847793
128	0xbd99e79c	-0.07514879
129	0xbdae324b	-0.08505686
130	0xbc4ed750	-0.012624577
131	0xbd49b70b	-0.04924683
132	0x3e0972f8	0.13422763
133	0x3c94c5d7	0.018160744
134	0x3cfb1fcf	0.030654816
135	0x3c8436b6	0.01613937
136	0x3d8509c2	0.06496002
137	0xbdcb830d	-0.09937105
138	0x3b9e533b	0.004831699
139	0x3dbd8755	0.09254328
140	0xbd178b6a	-0.03699819
141	0xbd716a0c	-0.058939025
142	0xbdbf183c	-0.09330794
143	0x3c0091bf	0.007847249
144	0x3c9fd4f4	0.019510724
145	0x3a85e00e	0.0010213868
146	0x3cc24315	0.023713628
147	0x3deb965e	0.1150329
148	0xbdcd3aba	-0.10020967
149	0x3d49811b	0.04919539
150	0x3d1a7b2a	0.037715115
151	0x3ded34f7	0.11582368
152	0xbd8be604	-0.068309814
153	0xbc8e2950	-0.017353684
154	0x3cb943ba	0.022615302
155	0xbc242d41	-0.010020555
156	0x3dbf68f8	0.09346193
157	0xbdab9859	-0.083786674
158	0x3d89b9f8	0.06724924
159	0xbd036437	-0.032077994
160	0x3dae4adc	0.08510372
161	0x3dff96d1	0.12479938
162	0x3d06c20d	0.032899905
163	0xbd94735f	-0.07248568
164	0xbd85b61f	-0.065288775
165	0xbd98a961	-0.074541815
166	0xbbbbf9ba	-0.005736557
167	0x3ccde5ff	0.025134085
168	0xbccb02c3	-0.02478159
169	0xbddb37c2	-0.10703994
170	0x3d08f8d7	0.033440437
171	0x3cbe9c78	0.02326797
172	0x3d938568	0.072031796
173	0xbe01b60e	-0.12667105
174	0x3ccda2ef	0.025102107
175	0x3d12939f	0.035785314
176	0xbdd57900	-0.104234695
177	0xbd1ccb1a	-0.03827963
178	0xbd8926cb	-0.06696852
179	0x3e067ca3	0.13133483
180	0x3c2a722e	0.010403199
181	0xbbb44031	-0.0055008163
182	0xbd3bafc0	-0.045821905
183	0x3ca6f215	0.020379106
184	0x3e03d561	0.12874366
185	0xbdfdfe02	-0.12401964
186	0xbd0ee50a	-0.034886397
187	0xbcedbbd0	-0.02902022
188	0x3d81be75	0.06335155
189	0xbd95e062	-0.07318188
190	0x3db18a33	0.086689375
191	0x3da58b18	0.08083171
192	0x3e40cc04	0.18827826
193	0xbcbec6dc	-0.023288183
194	0x3e0187a8	0.12649405
195	0x3d9ba300	0.07599449
196	0xbda1dd43	-0.079035304
197	0x3da3c11f	0.07995819
198	0x3c64df52	0.013969259
199	0x3dbe0de8	0.09279996
200	0xbd8890aa	-0.066682175
201	0x3dc44dd7	0.09585159
202	0xbd396633	-0.04526348
203	0x3cb196cb	0.021678349
204	0x3c8b4980	0.017002821
205	0xbcc518f7	-0.024059756
206	0xbdae3287	-0.08505731
207	0xbc8adda7	-0.016951395
208	0x3d85571b	0.06510755
209	0xbd1f6994	-0.038919047
210	0xbe342929	-0.17593826
211	0x3dea857f	0.114512436
212	0xbd00ae57	-0.031416263
213	0xbc94483b	-0.018100848
214	0x3cec82b2	0.028870914
215	0xbc76d845	-0.015066211
216	0x3d82d6e7	0.063886456
217	0xbc203994	-0.009779353
218	0xbdcf6cbb	-0.101281606
219	0xbdaea4c0	-0.08527517
220	0xbd7f969e	-0.0623995
221	0xbd467f74	-0.048461393
222	0xbd3d7cba	-0.046261527
223	0xbd0d4b3a	-0.03449557
224	0xbe09f579	-0.13472547
225	0x3da52b6b	0.08064922
226	0x3b8e18af	0.0043364386
227	0xbd38319e	-0.044969194
228	0xbd3e170c	-0.046408698
229	0x3d6f8687	0.058477905
230	0x3cf410cf	0.029793171
231	0xbd822300	-0.06354332
232	0xbc922db5	-0.01784406
233	0xbd153732	-0.03642959
234	0x3bbe78eb	0.0058127544
235	0xbd92d85d	-0.07170174
236	0x3d591dac	0.053006813
237	0xbc9bf428	-0.019037321
238	0x3d98f203	0.07468035
239	0xbc629534	-0.013829518
240	0x3d14457b	0.036199074
241	0x3d1ae632	0.037817188
242	0x3d1645c8	0.036687642
243	0x3cc6643d	0.02421772
244	0xbd11c955	-0.035592396
245	0x3d11d549	0.035603795
246	0xbd8afe39	-0.067867704
247	0xbb329521	-0.0027249532
248	0x3db385ec	0.08765778
249	0xbd5c11d7	-0.05372795
250	0xbdc04b16	-0.093893215
251	0x3cb01137	0.021492584
252	0xbd614f16	-0.055007063
253	0xbb00fbe9	-0.00196814
254	0xbdd63202	-0.10458757
255	0xbdd28a99	-0.10280342

fc2.bias f4 [128]
0	0xbe87bd59	-0.26511648
1	0xbd249be1	-0.04018772
2	0xbd1219de	-0.0356692
3	0xbe7bae69	-0.24578251
4	0xbdc56087	-0.09637552
5	0x3df1dc7a	0.11809631
6	0x3d24c212	0.040224142
7	0xbd62a1c8	-0.055330068
8	0x3c56f7dc	0.013120618
9	0x3b202281	0.0024434628
10	0xbd8c32ce	-0.06845628
11	0xbea4c11d	-0.32178584
12	0x3c2359fb	0.0099701835
13	0xbea0b024	-0.31384385
14	0xbbc27f1e	-0.0059355637
15	0x3d48d6c3	0.049032938
16	0x3db63a9f	0.088979
17	0xbdf9ea39	-0.122028776
18	0x3e0860af	0.13318132
19	0x3dc407c4	0.09571794
20	0x3e2c0953	0.16800432
21	0xbdc1e05f	-0.094666235
22	0xbe4e8240	-0.20166874
23	0x3e34fa93	0.17673711
24	0xbd56dfb9	-0.052459452
25	0x3dc87860	0.09788585
26	0x3d8a4de7	0.0675314
27	0x3da0165b	0.07816764
28	0x3d7dad2c	0.061932728
29	0x3da3b237	0.07992976
30	0x3979fc3e	0.00023840458
31	0xbd97aea1	-0.07406355
32	0xbdb3114a	-0.08743532
33	0xbd7c3964	-0.06157817
34	0xbe49c8be	-0.19705483
35	0xbd25b326	-0.040454052
36	0x3d16a4b0	0.036778152
37	0xbe0fc53f	-0.14040087
38	0xbdf41ed4	-0.119199425
39	0xbe2f69d6	-0.17130217
40	0xbed64cf9	-0.418556
41	0x3ded1b15	0.11577431
42	0xbdce39b8	-0.10069603
43	0xbe10d94d	-0.14145394
44	0xbd9d2b04	-0.0767422
45	0xbdbd0063	-0.092285894
46	0xbe3a5467	-0.1819626
47	0xbe4e9337	-0.20173346
48	0xbe0799ca	-0.1324226
49	0xbe84d8f2	-0.25946766
50	0xbda0fca4	-0.078606874
51	0xbd70dbab	-0.05880324
52	0xbd8423de	-0.064521536
53	0x3d45307b	0.048141938
54	0xbced269e	-0.028949078
55	0xbd6ff5bb	-0.058583956
56	0x3d4d1e1b	0.05007754
57	0xbdc0b371	-0.09409226
58	0xbdcb98da	-0.099412635
59	0xbd0de703	-0.034644138
60	0xbd727160	-0.059190154
61	0x3d32a463	0.043613803
62	0xbdd620e6	-0.10455494
63	0x3e27881c	0.16360515
64	0x3df04f1f	0.11733841
65	0x3dd429ab	0.1035951
66	0xbdc49997	-0.095996074
67	0x3dd671d1	0.104709275
68	0xbb0c529a	-0.002141154
69	0x3d9ec9a6	0.07753305
70	0x3e2172dd	0.15766473
71	0x3d24b6e5	0.040213484
72	0xbe0c236e	-0.1368539
73	0xbea914d1	-0.33023694
74	0x3d557226	0.052110814
75	0x3c6a71ef	0.01430939
76	0xbdccbe98	-0.099972904
77	0x3d8fa2df	0.07013487
78	0xbe37db6d	-0.17954798
79	0x3e0b418b	0.13599221
80	0x3c3fb443	0.011700693
81	0xbdbcd3ad	-0.092200615
82	0x3d9de265	0.07709197
83	0xbdd51f5c	-0.10406372
84	0xbc20235c	-0.009774055
85	0x3ca4e145	0.020126948
86	0x3d955f99	0.072936244
87	0xbc36536c	-0.011128288
88	0x3d930978	0.071795404
89	0x3d78324d	0.060594846
90	0xbd171d13	-0.03689296
91	0xbe48518f	-0.19562362
92	0x3d5ad90a	0.05342964
93	0xbd7125c4	-0.058873907
94	0xbe282aa8	-0.16422522
95	0xbd88c231	-0.06677664
96	0xbde1f43b	-0.110329114
97	0x3e79559c	0.24349064
98	0x3dc14e75	0.094387926
99	0xbe1c9166	-0.1528984
100	0x3df3cbcf	0.11904108
101	0xbd68b8cd	-0.056816865
102	0x3d2c1b1f	0.042018052
103	0xbcce3437	-0.025171382
104	0xbe45ac5f	-0.19304036
105	0xbb473673	-0.0030397444
106	0xbcd42e53	-0.025900995
107	0xbd13afb8	-0.03605625
108	0xbd5f591b	-0.054528337
109	0xbdae5d2c	-0.08513865
110	0x3d877a03	0.06615069
111	0xbd51c471	-0.05121273
112	0xbd829ca3	-0.06377532
113	0x3d9df30b	0.077123724
114	0xbd2c30cf	-0.042038735
115	0xbeaab9a6	-0.33344764
116	0xbd3ca707	-0.046057727
117	0x3cc13413	0.023584401
118	0x3d550615	0.052007753
119	0xbe544848	-0.20730698
120	0xbe0fe150	-0.14050794
121	0x3c6553dc	0.013997044
122	0xbc0ed3dd	-0.008717504
123	0x3c535499	0.012898588
124	0x3d24aec6	0.04020574
125	0xbc3f873c	-0.011689957
126	0xbe398cfe	-0.1812019
127	0xbccf8c28	-0.025335386
