azure-functions/models/lstm/files/parking_model.pt (torch, 584915 bytes, 10 tensors)

rnn.weight_ih_l0 f4 [512, 1]
0	0x3cf2a2c6	0.029618632
1	0x3cf5e017	0.03001408
2	0xbd9cf37a	-0.07663627
3	0xbde05ff3	-0.10955801
4	0x3d422388	0.047397166
5	0x3cb1ddcf	0.021712212
6	0xbd0b7a1c	-0.034052
7	0x3d3dd42d	0.046344925
8	0xbda24c96	-0.07924764
9	0x3d94e745	0.07270674
10	0xbd819141	-0.06326533
11	0xbc45abe7	-0.0120649105
12	0xbd3d1c11	-0.046169344
13	0x3dc2db25	0.09514455
14	0x3d3d21a4	0.04617466
15	0xbdaa5a63	-0.08318021
16	0xbcbe7e23	-0.023253506
17	0xbc0c3165	-0.008556698
18	0x3d86bcca	0.065789774
19	0x3d8237d9	0.06358308
20	0x3a70ced6	0.00091860944
21	0x3dbee5ed	0.093211986
22	0xbd44c276	-0.048037015
23	0xbc36e7db	-0.011163677
24	0xbd35aa54	-0.04435189
25	0xbc88ff25	-0.016723225
26	0x3db638fd	0.088975884
27	0xbca527e3	-0.020160621
28	0x3d68e3a0	0.056857705
29	0xbe50a77f	-0.20376395
30	0xbe0066d2	-0.12539223
31	0x3d9530f8	0.07284731
32	0x3dfc9be5	0.12334422
33	0xbc5bd2f0	-0.013416991
34	0xbda8d3fb	-0.08243557
35	0x3deb3460	0.11484599
36	0xbdc2386a	-0.094834164
37	0xbda2d9ba	-0.07951684
38	0x3bbe7689	0.0058124703
39	0xbd2a7189	-0.04161218
40	0x3d841cfb	0.0645084
41	0xbdba4c58	-0.09096593
42	0xbd69e788	-0.05710557
43	0x3d831b0e	0.06401645
44	0xbd2d0391	-0.04223973
45	0x3d682a2d	0.056680847
46	0xbdc36790	-0.09541237
47	0x3d5d853f	0.05408215
48	0xbc86bfaf	-0.016448824
49	0x3d438d34	0.047742084
50	0xbd434962	-0.047677405
51	0x3db21d17	0.08696955
52	0xbd9ed0b1	-0.077546485
53	0x3d67c429	0.056583557
54	0xbd0eaf83	-0.03483535
55	0x3a35306e	0.00069118186
56	0x3d7535d3	0.059865784
57	0xbe2bcbf6	-0.16777024
58	0xbc77bb4f	-0.015120341
59	0xbd89a0b3	-0.06720104
60	0x3de73e80	0.11291218
61	0x3cb4e848	0.022083417
62	0x3ca9615f	0.020676313
63	0x3dd431c3	0.10361054
64	0xbd099660	-0.033590674
65	0x3d070b16	0.032969557
66	0xbdf4096e	-0.11915861
67	0x3d84aa7d	0.064778306
68	0xbd262a1f	-0.040567514
69	0xbcfcbdb7	-0.030852182
70	0x3cd286bd	0.025699014
71	0xbd4e55b8	-0.050374717
72	0x3d6a2366	0.057162665
73	0xbc94b7eb	-0.018154105
74	0x3cd69fa1	0.026199164
75	0x3d8fc1c6	0.07019381
76	0x3c512c22	0.01276687
77	0x3d8a10f7	0.06741517
78	0x3df563a2	0.11981894
79	0x3df8b0c5	0.12143091
80	0x3d170c89	0.03687719
81	0x3cb72590	0.022356778
82	0x3db575ad	0.088603355
83	0xbdb00768	-0.08595163
84	0xbcc10b2e	-0.023564901
85	0x3d9e54cc	0.077310175
86	0x3db12268	0.086491406
87	0x3dd95fa3	0.106139444
88	0xbdecc7ca	-0.11561544
89	0x3da5ea64	0.08101347
90	0x3d672b40	0.05643773
91	0xbcb860aa	-0.02250703
92	0xbdc1f4b0	-0.094704986
93	0xbcb418c9	-0.021984475
94	0x3e1169e5	0.14200552
95	0x3b3ba846	0.0028634234
96	0x3d15226e	0.036409788
97	0x3d6ad70e	0.057334
98	0x3d4902e2	0.049075015
99	0xbdd53b4b	-0.104117
100	0x3d23613d	0.039887656
101	0x3d0a3201	0.033739094
102	0xbdacace4	-0.08431414
103	0xbd31e5d6	-0.04343208
104	0xbde67b0b	-0.11253937
105	0x3d0e2874	0.034706548
106	0xbd388d50	-0.04505664
107	0x3d967990	0.07347405
108	0x3dd98fc6	0.10623126
109	0x3d838b0d	0.06423006
110	0xbdc67b39	-0.096914716
111	0xbcb9b012	-0.022666965
112	0x3d1b89a8	0.037973076
113	0xbd50fde9	-0.051023398
114	0x3dbe44ff	0.09290504
115	0x3c16b089	0.009197363
116	0xbb7f7f06	-0.0038985624
117	0xbd438101	-0.04773045
118	0x3e01055f	0.12599705
119	0x3dcf8143	0.101320766
120	0xbc9e27e0	-0.019306123
121	0x3dbe33f5	0.09287254
122	0x3dcfd123	0.101473115
123	0x3da71efc	0.08160207
124	0x3c8a0d9d	0.016852194
125	0xbdb8a14d	-0.09015141
126	0xbb12aaf9	-0.002237974
127	0xbdc406e2	-0.09571625
128	0xbda13ee6	-0.07873325
129	0x3d595148	0.05305603
130	0xbd86cad7	-0.065816574
131	0xbd980d0b	-0.07424363
132	0x3d054d7c	0.032544598
133	0x3ca618f1	0.020275565
134	0x3dc39d8f	0.09551536
135	0x3d841cd0	0.06450808
136	0xbe41f37e	-0.18940541
137	0xbd8647c1	-0.06556655
138	0x3c199ec0	0.009376228
139	0x3df9ee18	0.12203616
140	0xbb1c8549	-0.0023883155
141	0x3db3a312	0.087713376
142	0x3e05cc73	0.13066272
143	0x3cf44bab	0.029821238
144	0x3dc0ceb5	0.09414426
145	0xbdc413a3	-0.09574058
146	0xbd37abd1	-0.04484159
147	0x3e38c65c	0.18044418
148	0x3d04712b	0.032334488
149	0x3e03d033	0.1287239
150	0xbd017f83	-0.031615745
151	0x3d70db58	0.058802933
152	0xbe0acab5	-0.13553889
153	0x3d84c56b	0.06482967
154	0x3e248796	0.16067347
155	0x3dd24289	0.10266597
156	0xbd30a200	-0.043123245
157	0xbef0b74e	-0.4701485
158	0xbddc7b89	-0.1076575
159	0xbcaf58c8	-0.021404639
160	0x3e182755	0.14858754
161	0x3d34509a	0.04402218
162	0x3d595cff	0.053067204
163	0x3bf1761c	0.007368816
164	0x3b38db46	0.002820687
165	0xbd5fac51	-0.054607693
166	0x3db4816b	0.08813747
167	0x3dc655e1	0.09684349
168	0x3dadb74e	0.08482228
169	0x3b3d43cb	0.002887952
170	0xbd205e3f	-0.03915238
171	0x3d81517b	0.06314369
172	0xbda195fb	-0.07889935
173	0x3c689f18	0.014198087
174	0x3d77a60a	0.06046108
175	0x3d94c941	0.07264949
176	0xbe286d75	-0.16448005
177	0x3d9ac9d5	0.07558028
178	0xbd8eb96e	-0.06968962
179	0x3db84b12	0.089986935
180	0xbce3953d	-0.027781123
181	0x3ca5310f	0.020164995
182	0xbcbc4c65	-0.022985647
183	0xbae660da	-0.0017576471
184	0x3bb3b8ad	0.0054846616
185	0xbe281d3b	-0.164174
186	0x3e615a7a	0.2200717
187	0xbe594f08	-0.21221554
188	0x3c92bd98	0.017912671
189	0xbd8124c2	-0.06305839
190	0x3db3b12b	0.087740265
191	0x3da2a723	0.07942035
192	0x3db88367	0.09009438
193	0x3d8130bf	0.06308126
194	0xbd10f6aa	-0.035391487
195	0x3df7319d	0.1207001
196	0xbd755b1f	-0.059901353
197	0xbd03b4f2	-0.032154985
198	0x3c2ec13c	0.010666188
199	0x3d0421cd	0.032258797
200	0x3df2e2eb	0.118596874
201	0xbd8fc3ba	-0.07019754
202	0xbdab5c55	-0.0836722
203	0x3da98a17	0.08278292
204	0x3e0edc0f	0.13951133
205	0x3df67296	0.12033574
206	0x3d18a043	0.037262212
207	0x3c90ad1c	0.01766067
208	0x3d37a04d	0.04483061
209	0x3d98bf45	0.07458357
210	0x3cfcfa4a	0.030881066
211	0xbd4956a0	-0.049154878
212	0xbdf500fe	-0.1196308
213	0x3deab5a7	0.11460429
214	0x3e13e726	0.14443645
215	0xbd208907	-0.03919318
216	0xbb6f5b95	-0.0036523093
217	0x3e28042c	0.16407841
218	0xba789644	-0.00094828405
219	0x3cae8bef	0.02130696
220	0xbdc741e3	-0.09729364
221	0x3c7febc1	0.015620173
222	0x3ddff6c7	0.10935741
223	0x3dcb0485	0.099129714
224	0x3e2152e1	0.15754272
225	0x3d3e2b23	0.046427857
226	0x3d8186da	0.06324549
227	0xbdf04a60	-0.11732936
228	0x3dab3e9b	0.083615504
229	0x3d614f17	0.055007067
230	0xbca57e41	-0.020201804
231	0xbdfcf0c9	-0.123506136
232	0xbb1d9324	-0.0024044001
233	0xbbce7b81	-0.006301344
234	0xbd163f18	-0.036681265
235	0xbd102db4	-0.035199836
236	0x3e146fa6	0.14495715
237	0x3d055632	0.032552905
238	0xbe22e215	-0.15906556
239	0x3c8035f0	0.01565072
240	0xbbcfe303	-0.0063442006
241	0x3de80ffe	0.11331175
242	0xbd0c2573	-0.0342154
243	0xbd9b95a2	-0.075968996
244	0xbd55df90	-0.05221516
245	0xbe1c04fa	-0.15236273
246	0x3c5cc282	0.013474109
247	0x3d61268a	0.054968394
248	0xbdba036c	-0.09082684
249	0x3db7ad0f	0.08968555
250	0x3d63f161	0.05565012
251	0x3d8c4a56	0.06850116
252	0x3d2113d3	0.039325546
253	0xbd604263	-0.05475081
254	0xbbbec84d	-0.0058222176
255	0x3d05fe1b	0.032713037

rnn.weight_hh_l0 f4 [512, 128]
0	0xbdca77c1	-0.098861225
1	0x3cb7ad15	0.0224214
2	0xbdc66017	-0.096862964
3	0x3ca8a3cd	0.020585919
4	0x3d172908	0.036904365
5	0x3db2ee1d	0.08736823
6	0xbd4b91ee	-0.049699716
7	0x3d7197e5	0.05898275
8	0xbdc4d327	-0.096105866
9	0xbc8ecb70	-0.017430991
10	0x3d651e36	0.055937015
11	0x3dbff1ab	0.093722664
12	0x3b5c7fd4	0.0033645527
13	0xbd87e8f4	-0.06636229
14	0xbb81891c	-0.0039531123
15	0xbdb8d1c8	-0.090243876
16	0x3dd7e6be	0.105420575
17	0xbdbf54be	-0.09342335
18	0x3db746ff	0.08949088
19	0xbd772e69	-0.060346995
20	0xbd26052c	-0.040532276
21	0xbc770fa0	-0.015079409
22	0xbd9fb063	-0.07797315
23	0x3d44fa1b	0.04809008
24	0x3cae7b71	0.021299096
25	0xbdb58ec5	-0.08865122
26	0xbd5669a2	-0.052346833
27	0xbd343908	-0.0439997
28	0x3d56f4f1	0.052479688
29	0x3d4bdde8	0.049772173
30	0x3d899515	0.06717888
31	0x3c3a81ae	0.011383457
32	0xbcbb5fcf	-0.022872834
33	0x3b953c49	0.0045543057
34	0x3d33f7ca	0.043937482
35	0xbe015b09	-0.12632383
36	0x3d988853	0.07447877
37	0x3cb51014	0.022102393
38	0xbc163567	-0.009168006
39	0x3dc02421	0.09381891
40	0xbc9cdefd	-0.019149298
41	0x3d3548b8	0.044258803
42	0x3d3d61d0	0.04623586
43	0xbc66969c	-0.014073994
44	0xbca76c67	-0.020437432
45	0x3c35e667	0.0111022955
46	0x3d21d7e0	0.039512515
47	0xbdb0f49d	-0.08640406
48	0x3d07aeba	0.033125617
49	0x3cdd7538	0.027033433
50	0xbca4897b	-0.020085087
51	0xbcf8c14e	-0.030365612
52	0x3b452344	0.0030080834
53	0x3d859e15	0.065242924
54	0x3d7be11d	0.06149398
55	0x3dadac58	0.084801376
56	0x3de109ad	0.10988174
57	0x3da3bdbb	0.079951726
58	0xbd5d5b2a	-0.05404202
59	0x3d226b47	0.03965309
60	0xbab5c759	-0.0013868614
61	0x3cf6fa08	0.030148521
62	0xbc8b68f2	-0.017017815
63	0xbd383a6d	-0.044977594
64	0xbc6df4db	-0.01452371
65	0x3ca49893	0.020092284
66	0xbcb5e7f1	-0.022205325
67	0x3c89ec3f	0.016836284
68	0xbd249b89	-0.040187392
69	0x3d23037e	0.039798252
70	0x3d19ea2e	0.037576847
71	0x3dac984e	0.08427487
72	0x3dc2b94d	0.095079996
73	0x3ce00dd1	0.027350338
74	0xbd4eaf7c	-0.050460324
75	0x3cb86d87	0.022513164
76	0x3d65ea6c	0.056131765
77	0x3dcf2c79	0.10115904
78	0xbccf4f05	-0.025306234
79	0x3d25b882	0.040459163
80	0xbcf57a5c	-0.029965572
81	0xbe0def4c	-0.13860816
82	0x3c915023	0.017738407
83	0xbd150642	-0.03638292
84	0x3d528a05	0.051401157
85	0x3d20b177	0.039231744
86	0xbd7a0c7f	-0.061047073
87	0x3c6595b8	0.0140127465
88	0xbcd6d33c	-0.026223771
89	0x3dbe3615	0.09287659
90	0xbd21338b	-0.039355796
91	0x3d0e872d	0.034796882
92	0xbc207750	-0.009794071
93	0xbd8e44d7	-0.06946724
94	0x3d29c9d5	0.041452248
95	0xbdef83bb	-0.116950475
96	0xbd3e4320	-0.046450734
97	0x3c804944	0.015659936
98	0x3d30cda9	0.043164883
99	0x3e002b45	0.12516506
100	0x3c94ffd3	0.018188393
101	0xbd1f4afd	-0.038889874
102	0xbcb6efc2	-0.022331122
103	0xbda9ab83	-0.082846664
104	0x3d31f39b	0.04344521
105	0x3d9dd7b7	0.0770716
106	0xbb801f18	-0.0039099567
107	0xbd56e6d0	-0.052466214
108	0x3de94298	0.11389655
109	0x3cdaa151	0.02668825
110	0x3d25ed1a	0.04050932
111	0xbd78cf55	-0.060744602
112	0x3c5d80a9	0.0135194445
113	0x3dd98de1	0.106227644
114	0x3dd58c35	0.10427133
115	0x3ddf4a0f	0.109027974
116	0x3cba2a3e	0.02272522
117	0x3d547de6	0.05187788
118	0xbd61d29a	-0.055132486
119	0xbdb21d8a	-0.086970404
120	0xbd7da4c6	-0.06192472
121	0x3da3d721	0.08000017
122	0x3c5e98d2	0.01358624
123	0xbd139520	-0.03603089
124	0xbcb2c819	-0.02182393
125	0xbd79e98a	-0.061013736
126	0xbd680d4b	-0.056653302
127	0xbd0620f6	-0.032746278
128	0x3caf55c3	0.021403199
129	0xbc9fd1c0	-0.019509196
130	0x3d739e52	0.059477158
131	0x3c8b5473	0.017008042
132	0x3d8be07c	0.06829926
133	0xbd8ff630	-0.070293784
134	0xbcacb6e0	-0.021083295
135	0x3a068aa1	0.00051323517
136	0xbd9929c4	-0.07478669
137	0xbd2c9ce1	-0.0421418
138	0x3d1488f4	0.03626342
139	0xbd8fce43	-0.07021763
140	0xbd997f91	-0.074950345
141	0xbb919e81	-0.004443944
142	0x3cef005a	0.029174972
143	0x3d05cb55	0.032664616
144	0xbd8605fe	-0.06544112
145	0x3d342c86	0.043987773
146	0x3c0a938a	0.008458028
147	0x3d55b4cb	0.05217437
148	0x3ceebcc6	0.029142749
149	0x3d8fe1e5	0.07025508
150	0x3ca4de3d	0.020125503
151	0xbd188c32	-0.037243076
152	0xbd92ed48	-0.07174164
153	0x3db5eb84	0.08882812
154	0xbda39743	-0.07987835
155	0x3d6b0665	0.057379145
156	0x3c0854f9	0.00832104
157	0xbc6a8205	-0.014313226
158	0x3d1d8f29	0.038466606
159	0x3c91402c	0.017730795
160	0x3dc6128c	0.09671506
161	0x3d036ea2	0.03208793
162	0xbd42ac57	-0.047527637
163	0x3db0e4eb	0.08637413
164	0xbe045ab7	-0.1292523
165	0xbdccac2f	-0.09993779
166	0xbd9f5e14	-0.07781616
167	0xbd52469e	-0.051336877
168	0xbdef58da	-0.11686869
169	0x3b8eca94	0.0043576453
170	0xbd1a2e62	-0.03764189
171	0xbc9df0d2	-0.019279871
172	0xbd6fc2ee	-0.05853551
173	0x3d88af5a	0.06674071
174	0xbcd5f770	-0.026118964
175	0x3d3866ba	0.045019843
176	0x3d8b3910	0.06797993
177	0xbc80e798	-0.015735433
178	0x3d13d6b2	0.03609342
179	0x3d8b4c04	0.06801608
180	0x3d8ee9a8	0.0697816
181	0xbc1ff45d	-0.009762851
182	0x3d14798f	0.03624874
183	0xbd76347e	-0.060108654
184	0xbc383cfe	-0.01124501
185	0x3d398b5f	0.04529893
186	0xbdbc9983	-0.092089675
187	0x3e3318fc	0.1749
188	0x3da5e7a1	0.0810082
189	0x3d25dead	0.040495563
190	0xbc808820	-0.01568991
191	0x3cae3d30	0.02126941
192	0x3dec3d4e	0.115351304
193	0x3db6b343	0.0892091
194	0xbe15b677	-0.14620386
195	0x3d96b5c6	0.07358889
196	0xbcb3bd8a	-0.021940965
197	0xbc189f1b	-0.009315277
198	0xbd2c8f3d	-0.04212879
199	0x3b806e9f	0.003919437
200	0xbd9f9dda	-0.0779378
201	0xbd434cc6	-0.04768064
202	0xbd599c6c	-0.05312769
203	0xbd9854ce	-0.0743805
204	0x3c350a33	0.011049795
205	0xbdcff51d	-0.101541735
206	0xbcb8f187	-0.022576107
207	0xbd503689	-0.05083326
208	0x3d7318b9	0.05934975
209	0x3d54d01c	0.05195628
210	0x3d655eec	0.055998728
211	0x3e357fa7	0.17724477
212	0x3b875c7a	0.004130897
213	0xbdde5153	-0.10855355
214	0xbd96e853	-0.07368531
215	0x3cb0bd21	0.021574559
216	0xbd4bef41	-0.049788717
217	0xbcd80d68	-0.02637358
218	0x3d73bc74	0.059505895
219	0xbaf915fc	-0.0019003744
220	0x3c97583c	0.01847469
221	0xbda23838	-0.07920879
222	0x3dfb920e	0.12283717
223	0x3cfcfe7e	0.03088307
224	0xbdb2a587	-0.08722978
225	0x3be37cc4	0.0069423635
226	0xbc16c152	-0.009201365
227	0x3a0c0748	0.0005341661
228	0xbdf80026	-0.12109403
229	0x3cc2bfc6	0.023773085
230	0xbd8cd06e	-0.06875692
231	0x3dd62949	0.10457093
232	0x3d8d67ce	0.06904565
233	0xbd960270	-0.07324684
234	0xbc513700	-0.012769461
235	0x3c2372cc	0.0099761
236	0xbd0a7c13	-0.033809733
237	0x3d80ce6a	0.0628937
238	0x3cea420b	0.028595945
239	0xbd088947	-0.033334043
240	0xbdbe0eaa	-0.09280141
241	0xbd339cd7	-0.043850746
242	0xbd135c3c	-0.035976633
243	0xbbcdd8c1	-0.0062819426
244	0xbdc4e714	-0.09614387
245	0xbd6d0ad8	-0.05787167
246	0xbc8b7514	-0.0170236
247	0x3c931cca	0.017958064
248	0xbd6fd809	-0.058555637
249	0xbcdf3815	-0.027248422
250	0x3c865162	0.016396228
251	0xbe507ac7	-0.20359336
252	0xbe113218	-0.14179265
253	0x3c3d8ff0	0.011569962
254	0x3cc2790f	0.023739366
255	0x3db46e6f	0.08810126

rnn.bias_ih_l0 f4 [512]
0	0xbd74b167	-0.059739497
1	0x3e858fdd	0.2608632
2	0xbc072f6f	-0.008251055
3	0xbe0a39f0	-0.13498664
4	0xbc960ecc	-0.018317603
5	0xbd0fa4df	-0.035069343
6	0x3e0d6eca	0.13811794
7	0x3dc989a9	0.0984071
8	0xbd890eb0	-0.066922545
9	0x3d5f457a	0.054509617
10	0x3dc0d491	0.09415544
11	0x3bd88c38	0.0066085123
12	0xbdc54ca3	-0.09633758
13	0xbde3bbb5	-0.11119787
14	0x3e226518	0.15858877
15	0xbcd551b3	-0.026039934
16	0xbd605bd8	-0.05477509
17	0x3d091b7a	0.03347347
18	0x3dc288d8	0.09498757
19	0x3ec5010a	0.38477355
20	0xbd631f45	-0.055449743
21	0xbcc9edc9	-0.024649518
22	0xbdfe4681	-0.12415791
23	0xbdc8cbfc	-0.09804532
24	0x3e0751fc	0.13214868
25	0x3c261ca1	0.010138662
26	0xbbdac860	-0.0066767186
27	0xbdd9a2c2	-0.10626747
28	0xbb0f303a	-0.0021848814
29	0x3e2ff52b	0.17183368
30	0x3d9e5d28	0.07732612
31	0x3d967bea	0.073478535
32	0x3d81bd93	0.063349865
33	0xbccca85e	-0.024982627
34	0xbe00b25f	-0.12568043
35	0x3dde3cda	0.1085145
36	0x3cc7398a	0.024319429
37	0xbc3fadbf	-0.011699139
38	0xbd12a3ed	-0.035800863
39	0xbd75cd4a	-0.060010232
40	0x3e28464e	0.16433069
41	0x3d683291	0.05668885
42	0xbc664c84	-0.014056329
43	0xbdd80787	-0.10548311
44	0xbe0a458a	-0.1350309
45	0x3b1a09c5	0.0023504358
46	0xbd9187f7	-0.07106011
47	0x3d806056	0.062683746
48	0x3def336d	0.116797306
49	0xbdd4b4c9	-0.103860445
50	0xbc213da2	-0.009841355
51	0xbdbce5fb	-0.09223553
52	0xbdf71267	-0.12064057
53	0x3cb693df	0.022287307
54	0x3d9630cc	0.07333526
55	0x3d9776b5	0.073956884
56	0x3ba39fda	0.004993421
57	0x3efcf8da	0.4940861
58	0xbde731bb	-0.11288782
59	0xbd7990c4	-0.060929075
60	0xbdd74971	-0.10512055
61	0x3a9ea545	0.0012103698
62	0xbdc1e644	-0.09467748
63	0x3ce1b7d9	0.027553486
64	0xbdb94d9b	-0.09048005
65	0x3bcbef6a	0.0062236087
66	0x3e8f5b19	0.2799919
67	0x3e18662a	0.14882722
68	0x3bef80f8	0.0073090754
69	0xbda2c41b	-0.079475604
70	0xbd37a491	-0.044834677
71	0x3d12af34	0.035811618
72	0x3d8e5392	0.069495335
73	0xbd2f6231	-0.042818252
74	0x3dfeb931	0.12437666
75	0xbe03c838	-0.12869346
76	0xbd1f0f63	-0.038833033
77	0xbd4886fc	-0.048956856
78	0xbb2533b6	-0.0025207824
79	0xbda2b776	-0.07945149
80	0x3cb178e8	0.021664098
81	0x3de72e82	0.112881675
82	0xbe157539	-0.14595498
83	0xbcac2ab3	-0.021016454
84	0xbc3d874d	-0.011567903
85	0x3d2e076b	0.042487543
86	0xbd1de890	-0.038551867
87	0xbd071688	-0.03298047
88	0x3bf7f2db	0.0075667924
89	0x3e7d8c0b	0.24760453
90	0xbdd5a0a9	-0.10431034
91	0xbd000e37	-0.031263556
92	0x3d34e869	0.044166956
93	0xbd80ae40	-0.062832355
94	0xbdb87c32	-0.090080634
95	0x3dc1f255	0.09470049
96	0xbd592bb1	-0.053020183
97	0xbc6a9511	-0.014317767
98	0xbe03a894	-0.12857276
99	0x3cb70f51	0.02234617
100	0x3dc59fb4	0.096496016
101	0x3dd0c6de	0.10194181
102	0x3bbc71c3	0.005750866
103	0x3e162920	0.14664125
104	0xbcf56852	-0.02995697
105	0xbca4203e	-0.020034906
106	0xbd546ec0	-0.051863432
107	0x3d5f22d7	0.054476585
108	0x3d792126	0.06082263
109	0xbbef3176	-0.0072995974
110	0xbdf6cdd1	-0.12050975
111	0xbda30188	-0.079592764
112	0xbdb2c7ea	-0.08729537
113	0xbd4cf5e0	-0.050039172
114	0x3d64bd5b	0.055844646
115	0x3dc0e450	0.09418547
116	0x3c2ec279	0.010666483
117	0xbe02df71	-0.12780549
118	0xbb4038f2	-0.0029330817
119	0xbc5c1f21	-0.013435156
120	0xbda4ab17	-0.08040445
121	0x3e97933e	0.29604524
122	0x3dd2aabd	0.10286472
123	0x3dbd81a0	0.0925324
124	0x3e6efba7	0.23338185
125	0x3c2fe01d	0.010734585
126	0xbe0d9b88	-0.13828862
127	0x3db0d69b	0.08634683
128	0x3d33baeb	0.04387943
129	0xbde35766	-0.11100654
130	0xbd90ccc2	-0.070703045
131	0xbc8c1d49	-0.017103808
132	0xbe0a987c	-0.1353473
133	0x3d8ce08a	0.06878765
134	0xbe05fca1	-0.13084652
135	0xbcd5767d	-0.026057476
136	0x3de24c05	0.11049656
137	0x3cfdae0c	0.030966781
138	0xbd9d5419	-0.07682056
139	0xbd2d0e1b	-0.04224978
140	0xbd0b79eb	-0.034051817
141	0xbc6e8aef	-0.014559492
142	0xbd16deb6	-0.036833487
143	0xbdebf127	-0.115206055
144	0xbd2eed20	-0.04270661
145	0xbd280804	-0.04102327
146	0xbd9e1e0c	-0.07720575
147	0xbe338d98	-0.17534482
148	0xbdb64de9	-0.08901579
149	0x3cb36641	0.021899344
150	0xbd184c63	-0.037182223
151	0x3c845990	0.016155988
152	0xbdb9412c	-0.09045634
153	0xbc894343	-0.016755706
154	0x3d875e64	0.066098005
155	0x3d08187f	0.033226486
156	0x39e9a475	0.00044563753
157	0xbdb5da7b	-0.088795625
158	0xbd01aa1f	-0.03165638
159	0xbdcb9c32	-0.09941901
160	0xbdc881d6	-0.09790389
161	0x3d8ab31b	0.06772443
162	0xbd9bc0e6	-0.07605152
163	0xbd954ed0	-0.07290423
164	0xbc88ea25	-0.016713211
165	0x3d72df8c	0.059295222
166	0x3df1f893	0.1181499
167	0x3d0da39f	0.03457987
168	0xbdac6964	-0.08418539
169	0xbd6ea2ba	-0.058260657
170	0xbcabc3f0	-0.020967454
171	0xbd3fb096	-0.046799265
172	0xbd179d25	-0.0370151
173	0x3daae675	0.083447374
174	0xbd1f14f8	-0.038838357
175	0xbdd98095	-0.10620228
176	0xbe073ac1	-0.13206007
177	0x3d4607eb	0.048347395
178	0x3d6e5f88	0.058196574
179	0x3e326ac4	0.1742354
180	0x3c31f0ec	0.010860663
181	0x3e28673a	0.16445628
182	0xbddd52d4	-0.10806814
183	0xbdc322e7	-0.095281415
184	0xbdc740ae	-0.097291335
185	0x3ce19dbb	0.027541032
186	0x3e5ecabf	0.21757029
187	0x3dce8584	0.1008406
188	0xbdd05daf	-0.10174119
189	0xbd2a1318	-0.041522115
190	0xbd7f0062	-0.062256224
191	0xbd51a387	-0.051181342
192	0x3cf0efc9	0.029411213
193	0xbd95ceca	-0.073148325
194	0x3e2a90e1	0.1665683
195	0xbe199cf5	-0.1500128
196	0x3d3284c7	0.043583658
197	0x3d468599	0.048467252
198	0x3c8e9d4c	0.01740899
199	0xbcfdfe0a	-0.031004924
200	0xbd9bd987	-0.076098494
201	0xbdb5ffb0	-0.08886659
202	0xbd80be0b	-0.06286248
203	0x3ca2797f	0.019833324
204	0x3d2e431a	0.04254446
205	0x3e22c750	0.15896344
206	0xbcbb5475	-0.02286742
207	0xbb96c9b3	-0.004601681
208	0x3d33a729	0.04386059
209	0x3b88f2ff	0.004179358
210	0xbd36ded1	-0.044646088
211	0x3e095468	0.13411105
212	0xbd5855da	-0.05281625
213	0xbddbc597	-0.10731047
214	0x3c91a779	0.017780052
215	0xbdd77523	-0.10520389
216	0xbdadc586	-0.0848494
217	0xbc25767a	-0.010099048
218	0x3c9f1d85	0.019423256
219	0x3c80a250	0.015702397
220	0xbca95768	-0.020671561
221	0xbc280643	-0.010255399
222	0xbda6aa0c	-0.081379026
223	0xbd51d56e	-0.051228933
224	0x3e042f0b	0.1290857
225	0xbddb4e7e	-0.107083306
226	0x3d148f62	0.036269553
227	0x3d1f8da1	0.038953427
228	0x3cca5542	0.024698857
229	0xbdc83a77	-0.09776776
230	0xbcfbc85e	-0.030735191
231	0x3d293188	0.041307002
232	0xbc634855	-0.013872226
233	0xbd0c2c23	-0.03422178
234	0x3c244dff	0.010028361
235	0x3b1b7df8	0.0023726206
236	0xbd36165f	-0.04445493
237	0xbd6925d9	-0.05692086
238	0x3dec7e07	0.11547475
239	0x3d7233bc	0.05913137
240	0xbbc18cf1	-0.005906694
241	0xbdb911c3	-0.09036591
242	0xbd9c4ace	-0.07631455
243	0xbd3768b3	-0.044777583
244	0xbd37f7e6	-0.04491415
245	0x3c8f74c0	0.017511725
246	0xbda0242b	-0.078193985
247	0x3d11335c	0.03544937
248	0x3cdb0445	0.026735434
249	0xbe1d2932	-0.15347746
250	0x3b0d79f8	0.0021587592
251	0xbd489ef1	-0.048979703
252	0xbe4cf763	-0.20016246
253	0x3ca81690	0.020518571
254	0x3dad1d1d	0.084528185
255	0x3d56f750	0.05248195

rnn.bias_hh_l0 f4 [512]
0	0xbc661420	-0.014042884
1	0x3e528e7d	0.20562167
2	0x3d3a7971	0.04552597
3	0xbd2aa16f	-0.04165786
4	0xbdcf16de	-0.101117834
5	0xbd8010a5	-0.06253175
6	0x3bec0600	0.0072028637
7	0x3e2b34f7	0.16719423
8	0xbda19b7e	-0.07890986
9	0xbca81448	-0.020517483
10	0xbd99d9ed	-0.07512269
11	0xbdb75bbf	-0.08953046
12	0x3d0190b6	0.031632148
13	0x3d118fe7	0.035537627
14	0x3e11159a	0.14168397
15	0xbd32e56a	-0.043675818
16	0xbd3aadc5	-0.045575876
17	0xbdcccfdd	-0.10000584
18	0x3d7e9c86	0.06216099
19	0x3ec9f498	0.39444423
20	0xbd292e63	-0.041304003
21	0xbd5f2900	-0.05448246
22	0xbcf0ab70	-0.029378623
23	0xbc7b92d1	-0.015354828
24	0x3d8d1653	0.06889024
25	0x3acb7138	0.0015521413
26	0x3d11a232	0.035555072
27	0xbdebc61c	-0.11512396
28	0x3d507b70	0.05089897
29	0x3e7910e4	0.2432285
30	0x3e3cca6a	0.1843659
31	0x3cfd3a1c	0.030911498
32	0x3d8d1c1d	0.06890128
33	0xbdf6ad72	-0.12044801
34	0x3cb2d1fa	0.02182864
35	0x3d81192f	0.063036315
36	0xbd8db03b	-0.06918379
37	0xbd9a7a33	-0.07542839
38	0xbcf1affb	-0.02950286
39	0x3d745667	0.059652712
40	0x3e24736d	0.16059656
41	0xbd3481bc	-0.044069037
42	0xbdf4a802	-0.119461074
43	0x3d176fa3	0.0369717
44	0xbddc1b07	-0.107473426
45	0xbe04c255	-0.12964757
46	0x3cc5392b	0.024075111
47	0xbb25d9a0	-0.0025306717
48	0x3e47d984	0.1951657
49	0xbcb98153	-0.022644674
50	0xbdbeb5cd	-0.093120195
51	0x3c49f2e7	0.012325979
52	0xbcc24927	-0.023716522
53	0xbd27af40	-0.040938616
54	0xbd830d6f	-0.06399047
55	0x3e0729b7	0.13199507
56	0xbdd0e9f5	-0.10200874
57	0x3eb1b37c	0.34707248
58	0x3cd0f617	0.02550797
59	0xbd179f42	-0.037017114
60	0xbdd64852	-0.10463013
61	0x3d3e10b5	0.04640265
62	0xbdc71cce	-0.09722291
63	0xbd8a2a28	-0.06746322
64	0xbd863924	-0.065538675
65	0xbd6a68b5	-0.057228763
66	0x3e458cfd	0.19292064
67	0x3ca9ed89	0.020743148
68	0xbd1568ae	-0.036476783
69	0xbdf312f2	-0.11868848
70	0x3d0a0cd5	0.033703644
71	0x3d60ddfe	0.05489921
72	0xbcbdf213	-0.023186719
73	0x3c8128b7	0.015766485
74	0x3ae019ef	0.0017097573
75	0xbdd8fe08	-0.105953276
76	0x3c51a545	0.012795751
77	0x3cefd25e	0.029275116
78	0xbc908677	-0.017642243
79	0x3d15245d	0.03641163
80	0x3cd26f16	0.025687736
81	0x3d96abc3	0.0735698
82	0xbd9e9024	-0.077423364
83	0xbe07672f	-0.13222955
84	0xbd084819	-0.033271883
85	0x3d606309	0.054781947
86	0xbb35828e	-0.0027696225
87	0xbce58cde	-0.028021272
88	0x3d259d74	0.040433362
89	0x3e4c9922	0.1998029
90	0xbd978c74	-0.07399836
91	0x3c95b100	0.018272877
92	0xbd9bd603	-0.07609179
93	0x3c650a0d	0.013979447
94	0xbd0bbadc	-0.03411375
95	0xbd8706e0	-0.06593108
96	0xbdb1c30b	-0.086797796
97	0xbdbf6fb8	-0.093474805
98	0xbdc0f7f9	-0.09422297
99	0x3d69603b	0.05697654
100	0xbcba32c7	-0.02272929
101	0x3dba99d9	0.09111375
102	0x3b6d3768	0.0036196355
103	0x3d725f82	0.059173115
104	0x3d387e12	0.045042105
105	0x3d0acb26	0.033885144
106	0x3d01f1d8	0.03172478
107	0xbce233b4	-0.027612545
108	0xbc966dfb	-0.01836299
109	0xbc89a78f	-0.016803531
110	0xbd45e540	-0.048314333
111	0x3cb06a6c	0.02153512
112	0x3c562ec9	0.013072678
113	0x3d14335d	0.036181796
114	0xbb279fe1	-0.0025577473
115	0xbd4479f4	-0.047967866
116	0x3d47aa96	0.048746668
117	0xbdf837ba	-0.12120004
118	0xbd1d2c5f	-0.038372394
119	0xbd93d49c	-0.072182864
120	0xbe072eb2	-0.13201407
121	0x3e496fa9	0.19671501
122	0x3d883d13	0.06652274
123	0x3de1cf85	0.11025909
124	0x3e75d028	0.24005187
125	0x3e054017	0.1301273
126	0xbd0d7aa2	-0.03454078
127	0x3d96a42a	0.073555306
128	0x3da0e8d3	0.07856908
129	0xbdbcc8eb	-0.092180096
130	0xbd6dde72	-0.05807347
131	0xbc9dbfbe	-0.019256469
132	0xbda9dfe7	-0.08294659
133	0x3cb99fbc	0.022659175
134	0x3cc2c4a7	0.023775412
135	0x3c9bca53	0.019017374
136	0x3e0de5d9	0.13857211
137	0xbd3edcc4	-0.046597257
138	0x3cae4408	0.021272674
139	0xbdbe36e7	-0.092878155
140	0x3c6a18f2	0.014288174
141	0xbd166149	-0.036713872
142	0xbe13e609	-0.1444322
143	0x3ced21b7	0.02894674
144	0xbb94b713	-0.0045384257
145	0x3cf77c47	0.030210627
146	0xbd4ea758	-0.05045256
147	0xbdb4b054	-0.088226944
148	0xbc21bb92	-0.00987138
149	0xbd86cc4d	-0.06581936
150	0xbd93825e	-0.072026
151	0xbda715c7	-0.081584506
152	0xbdb117b2	-0.08647098
153	0xbdc094ad	-0.09403358
154	0x3db267d1	0.08711208
155	0x3d76ef23	0.060286652
156	0x3b6b3932	0.0035892245
157	0x3d84da28	0.064869225
158	0xbdb38415	-0.08765427
159	0x3ccdf956	0.025143307
160	0xbe0ee2b0	-0.13953662
161	0x3d856df9	0.06515116
162	0xbe02ed64	-0.1278587
163	0xbd58aa71	-0.05289692
164	0xbceaf970	-0.028683394
165	0x3d0f518a	0.03498987
166	0x3ca3436a	0.019929606
167	0xbc837e14	-0.01605133
168	0xbd275321	-0.040850762
169	0x3cc5d48f	0.024149207
170	0xbc131176	-0.008976331
171	0x3d941479	0.07230467
172	0x3c04d362	0.008107038
173	0xbc9ad84f	-0.018901972
174	0x3d56d95d	0.052453388
175	0xbddebd52	-0.10875954
176	0xbc2b6c27	-0.010462797
177	0xbd80c808	-0.06288153
178	0xbce23373	-0.027612424
179	0x3dedb4a0	0.11606717
180	0xbcfab692	-0.030604634
181	0x3e0c047b	0.13673584
182	0x3d08c4c9	0.033390794
183	0xbdfbefce	-0.123015985
184	0xbd2b2f9e	-0.04179346
185	0xbdf19bba	-0.117972806
186	0x3e1a7539	0.1508378
187	0x3d09b8db	0.033623558
188	0xbd39f809	-0.04540256
189	0x3c87550d	0.016520048
190	0xbda8f336	-0.08249514
191	0x3d3b02bf	0.045656916
192	0x3d1e036d	0.038577486
193	0x3ac21148	0.0014806176
194	0x3dedeffc	0.11618039
195	0xbe199b0a	-0.15000549
196	0xbda066bb	-0.07832094
197	0xbd8a59de	-0.06755422
198	0x3d12146b	0.035664003
199	0xbda397d9	-0.07987947
200	0xbd19f47a	-0.037586667
201	0xbcd2e592	-0.025744233
202	0xbdc90ede	-0.09817289
203	0x3b0e8a1a	0.0021749795
204	0x3d1fd26c	0.039019033
205	0x3e194a84	0.14969832
206	0xbdcb83e4	-0.099372655
207	0xbd0d3dc8	-0.034482747
208	0xbd34cfd0	-0.044143498
209	0xbd2ab749	-0.0416787
210	0xbd342e07	-0.043989208
211	0x3de308a2	0.11085631
212	0xbc724d8b	-0.0147889955
213	0xbdc48007	-0.09594732
214	0xbdcc9873	-0.09990015
215	0xbd75e730	-0.06003493
216	0xbc8b6c0a	-0.01701929
217	0xbe051fac	-0.13000363
218	0x3ce877fd	0.028377527
219	0xbdd9fe53	-0.106442116
220	0x3d784b3d	0.060618628
221	0xbd8e29d2	-0.0694157
222	0x3cfb519e	0.030678567
223	0xbdf7cf4e	-0.12100087
224	0x3dec25b8	0.11530632
225	0xbd129560	-0.035786986
226	0xbbe34383	-0.0069355383
227	0xbd4ce68d	-0.050024558
228	0x3d93689c	0.07197687
229	0xbd9ee003	-0.077575706
230	0xbd1959c4	-0.037439123
231	0xbdcabbe3	-0.09899118
232	0xbdd3debe	-0.10345219
233	0xbe027f0a	-0.12743774
234	0x3e1069e2	0.14102891
235	0xbd35fec6	-0.044432424
236	0xbdbddd84	-0.092707664
237	0xbd471293	-0.048601698
238	0x3ce09868	0.027416423
239	0xbc8c4165	-0.017121026
240	0xbd88c929	-0.06678993
241	0xbd69beff	-0.057066914
242	0xbdce42e2	-0.10071351
243	0xbe1b3b21	-0.15159275
244	0xbcaab40c	-0.020837806
245	0xbd853cf2	-0.06505765
246	0xbca0e64b	-0.019641062
247	0x3d066bc4	0.032817617
248	0xbc1a0f5d	-0.009403077
249	0xbd9ec6ae	-0.07752739
250	0xbddd77e5	-0.10813884
251	0xbe2ce9d9	-0.16886081
252	0xbe35eb73	-0.17765598
253	0xbdabb8f4	-0.083848864
254	0x3b2dfc8c	0.0026548235
255	0xbbde686e	-0.0067873513

fc1.weight f4 [128, 387]
0	0xbdd00bb4	-0.10158482
1	0xbd8804b9	-0.06641526
2	0x3cace386	0.021104585
3	0x3cc92d53	0.024557745
4	0xbcb4fccf	-0.022093205
5	0xbd022ddb	-0.031782012
6	0xbccbc2ae	-0.024873104
7	0xbd421eb3	-0.04739256
8	0x3e2428aa	0.16031137
9	0x3dbd0439	0.09229321
10	0x3c826d25	0.015921185
11	0xbd510df0	-0.051038682
12	0x3d0a0a80	0.03370142
13	0x3c81a1df	0.015824256
14	0xbd830bb2	-0.06398715
15	0xbca1ac87	-0.019735588
16	0xbc930bb3	-0.017949915
17	0xbd197f5c	-0.037474975
18	0xbdd460a0	-0.10369992
19	0x3e6a5582	0.22884181
20	0x3bf28519	0.0074011204
21	0x3d4b7548	0.049672395
22	0xbd1b689e	-0.037941568
23	0x3d24a9b0	0.04020089
24	0xbd1fc979	-0.0390105
25	0x3d15d1d2	0.036577053
26	0x3d27830d	0.040896464
27	0x3ccf6a82	0.025319342
28	0xbd0e9424	-0.034809247
29	0xbdcaf2c6	-0.099095866
30	0x3dd05dd8	0.10174149
31	0xbdef6783	-0.11689665
32	0x3dd34de7	0.10317593
33	0xbcdf0644	-0.027224667
34	0x3c28c1f1	0.0103001455
35	0x3dbf8f70	0.093535304
36	0xbd6086ce	-0.05481606
37	0x3d3108fb	0.043221455
38	0xbd4104c6	-0.047123693
39	0xbd002172	-0.031281896
40	0xbd369b42	-0.04458166
41	0xbdcbe973	-0.09956636
42	0x3d9b8e88	0.07595545
43	0x3d81c0f0	0.06335628
44	0x3cb7f1b2	0.022454116
45	0xbc83d920	-0.016094744
46	0x3da53bbc	0.08068034
47	0xbd6ef3f3	-0.058338117
48	0x3d41d2cb	0.04732017
49	0xbd5e0766	-0.054206274
50	0xbd0a8c6b	-0.03382532
51	0x3d4b8462	0.049686797
52	0xbd567059	-0.052353237
53	0xbd2caee9	-0.042158995
54	0x3d27ad5b	0.04093681
55	0xbe081c83	-0.13292126
56	0xbcf87876	-0.030330878
57	0x3da61b88	0.0811072
58	0x3cacb44f	0.021082072
59	0xbe0df2b8	-0.13862121
60	0xbc3e325f	-0.011608689
61	0x3de07d68	0.10961419
62	0x3b177787	0.0023112015
63	0x3d1a6dea	0.03770248
64	0x3cc934d7	0.024561329
65	0x3d58d912	0.05294139
66	0xbe066270	-0.13123488
67	0x3dd996de	0.10624479
68	0xbcf0dfc0	-0.029403567
69	0x3ddef6b2	0.10886897
70	0xbd5394d6	-0.051655613
71	0xbc218d73	-0.009860384
72	0xbd0a3cd5	-0.03374942
73	0x3d9f096c	0.07765469
74	0x3d9e4637	0.07728236
75	0xbd8947ce	-0.06703149
76	0x3c712c42	0.014720025
77	0x3c24bed8	0.010055266
78	0x3d510e98	0.05103931
79	0xbc704300	-0.014664412
80	0x3d78146f	0.060566362
81	0x3d544beb	0.051830214
82	0xbca63073	-0.020286774
83	0xbd5e365a	-0.054251052
84	0x3da0ad49	0.078455515
85	0xbb37f5aa	-0.0028070011
86	0xbcde7a22	-0.027157847
87	0xbd1b7907	-0.037957218
88	0x3c959e21	0.018263878
89	0x3dc578ab	0.09642156
90	0xbcc6360f	-0.024195699
91	0xbe16930d	-0.14704533
92	0xbc29c172	-0.010361062
93	0x3c4ea7bb	0.012613232
94	0x3d45847a	0.048222043
95	0x3b2ecf34	0.0026673796
96	0xbcfc475f	-0.030795751
97	0x3d20067f	0.039068695
98	0x3d070cd3	0.032971215
99	0xbe17fc10	-0.14842248
100	0xbe09ee57	-0.13469826
101	0x3dd01254	0.10159746
102	0x3c706ea2	0.014674814
103	0x3dc0185a	0.09379645
104	0xbd040ffd	-0.03224181
105	0xbccd29c3	-0.025044328
106	0x3db9c758	0.09071225
107	0xbd8878cc	-0.06663665
108	0xbd36cc59	-0.044628475
109	0xbc565345	-0.013081376
110	0xbdfd4dd5	-0.12368361
111	0x3cb325dc	0.021868639
112	0xbd1a48af	-0.037666973
113	0xbd9b3241	-0.075779445
114	0xbdcb20fb	-0.099184
115	0x3d48beb4	0.049009994
116	0xbdfb5772	-0.12272538
117	0x3e5c4a7a	0.21512786
118	0xbe38cb71	-0.18046357
119	0x3d4ceeba	0.050032355
120	0x3e1902e4	0.14942509
121	0xbe30d4dd	-0.17268701
122	0x3d960e20	0.07326913
123	0xbe0262df	-0.12733029
124	0x3e590784	0.21194273
125	0xbe3651c8	-0.17804635
126	0x3ca55c96	0.02018575
127	0x3b901c2d	0.00439789
128	0xbdccfde0	-0.1000936
129	0xbd35a0c8	-0.044342786
130	0xbbcb962c	-0.0062129702
131	0xbd9916f3	-0.0747508
132	0xbd8f56bf	-0.069989674
133	0xbc5e1514	-0.01355483
134	0x3e03bf93	0.12866049
135	0x3d1c90c9	0.038224015
136	0xbdfa95bb	-0.1223559
137	0x3e42fe45	0.19042309
138	0xbe2c7dbf	-0.16844843
139	0x3d81b832	0.063339606
140	0xbe0952a2	-0.13410428
141	0x3e469b4c	0.19395179
142	0x3d0350d1	0.032059494
143	0xbceae70c	-0.028674625
144	0xbd8f9d11	-0.0701238
145	0xbdbddfac	-0.09271178
146	0xbcdae3c4	-0.026719935
147	0x3d809a6d	0.062794544
148	0xbdd1919e	-0.102328524
149	0xbdbf7f56	-0.09350459
150	0x3d684029	0.056701813
151	0xbd756ff0	-0.059921205
152	0xbda871f1	-0.082248576
153	0xbdcbb842	-0.09947254
154	0xbd9e8abc	-0.07741305
155	0x3d65b0f0	0.056076944
156	0xbe1cf7ee	-0.15328953
157	0xbc7ed24b	-0.015553067
158	0xbda7513d	-0.08169792
159	0xbd1be56e	-0.038060598
160	0xbe5c5248	-0.21515763
161	0xbcc1a327	-0.023637367
162	0xbdbde861	-0.092728384
163	0xbd14bec1	-0.03631473
164	0xbcf87db4	-0.030333377
165	0xbde44ddf	-0.11147665
166	0x3d0ff501	0.035145763
167	0xbe08ba52	-0.13352326
168	0xbe4e0268	-0.20118105
169	0xbe6ec919	-0.233189
170	0xbe973fcb	-0.29540858
171	0xbe629476	-0.22126946
172	0xbda6a8d5	-0.08137671
173	0xbc74130e	-0.014897121
174	0x3d5be307	0.053683307
175	0xbde6b1a5	-0.11264352
176	0xbd7bb4b1	-0.061451618
177	0x3e8da5cf	0.27665564
178	0xbce5d8b7	-0.02805744
179	0xbda12495	-0.078683056
180	0xbdd275f7	-0.10276406
181	0x3cd8b75e	0.026454624
182	0x3b9e67f7	0.004834171
183	0x3db12fc2	0.08651687
184	0xbe43d3eb	-0.19123809
185	0xbe6aa342	-0.2291384
186	0xbdb445b9	-0.08802361
187	0xbdb6c0a6	-0.089234635
188	0x3df9d8e0	0.12199569
189	0x3dc91f36	0.09820406
190	0xbdbc8551	-0.092051156
191	0xbbe0a3b9	-0.0068554548
192	0xba6a7ed6	-0.00089452916
193	0xbde580c0	-0.11206198
194	0xbe4b46ce	-0.19851229
195	0x3d9a93c4	0.07547715
196	0xbdd74a1f	-0.10512184
197	0xbd9e1fdb	-0.0772092
198	0xbd9dc65f	-0.07703852
199	0x3d8cb18d	0.068698026
200	0xbe496150	-0.19666028
201	0x3e18e11b	0.14929621
202	0xbc0618f3	-0.008184659
203	0xbe231f12	-0.15929821
204	0x3cef55ab	0.029215654
205	0xbca86b85	-0.020559082
206	0x3e0f107d	0.13971134
207	0x3da3d186	0.07998948
208	0xbdd628a3	-0.104569696
209	0x3d5fc63f	0.05463242
210	0x3e2b66bb	0.16738407
211	0x3e507b4d	0.20359536
212	0x3df748ab	0.12074407
213	0xbe2009c3	-0.15628724
214	0xbd618513	-0.05505855
215	0x3e82f67b	0.25578675
216	0xbdceea3f	-0.10103273
217	0xbdb01ff1	-0.08599842
218	0xbd11a269	-0.035555277
219	0x3deea440	0.11652422
220	0xbe020788	-0.12698185
221	0x3d955555	0.072916664
222	0x3d3fdda0	0.046842217
223	0x3d46d038	0.048538417
224	0x3e099449	0.13435473
225	0x3cd23c36	0.025663476
226	0xbe7fe0e5	-0.24988134
227	0xbd480646	-0.048834108
228	0x3e377be6	0.17918357
229	0x3e74293c	0.23843855
230	0x3d06f4dc	0.03294836
231	0x3c6b3428	0.014355697
232	0x3d5b98b4	0.053612426
233	0x3dd1e83e	0.10249375
234	0xbd60c0e7	-0.054871466
235	0xbe18e7ee	-0.14932224
236	0xbd87e575	-0.06635562
237	0x3d5740be	0.052551977
238	0x3e63b23d	0.22235961
239	0x3d9e799a	0.077380374
240	0xbddf4803	-0.10902407
241	0x3dde79a0	0.10863042
242	0xbdd3cd7e	-0.10341929
243	0x3d6d7c20	0.057979703
244	0x3e442fbe	0.19158837
245	0x3df99cff	0.12188148
246	0x3e4ba63c	0.19887632
247	0xbcce9f76	-0.025222521
248	0x3da90292	0.082524434
249	0x3dbe1fc8	0.092834055
250	0x3e080302	0.13282397
251	0xbe798839	-0.24368371
252	0xbe2d0d8c	-0.16899699
253	0xbe37fabf	-0.17966746
254	0xbcdb7319	-0.026788281
255	0xba2364e3	-0.000623299

fc1.bias f4 [128]
0	0x3c896cf4	0.016775586
1	0xbccc3ce9	-0.024931388
2	0xbd71e319	-0.059054468
3	0xbcfbd2cd	-0.030740166
4	0xbc048320	-0.008087903
5	0x39f549c8	0.00046785013
6	0xbdd384fd	-0.103281
7	0xbd92a9b8	-0.071612775
8	0xbd92f7b9	-0.071761556
9	0xbd8cecf4	-0.06881133
10	0xbd174d48	-0.036938936
11	0xbdc73d3f	-0.09728479
12	0x3db7a042	0.089661136
13	0xbd78dc7c	-0.060757145
14	0x3d0e5f23	0.0347587
15	0xbd48f5b3	-0.049062442
16	0xbc00d36c	-0.007862907
17	0x3c0327fc	0.0080051385
18	0xbcb29a25	-0.021802017
19	0xbd52f284	-0.051500812
20	0xbd046b73	-0.032329034
21	0xbdee1e7c	-0.11626908
22	0xbd5b610b	-0.053559344
23	0xbded81d7	-0.115970306
24	0xbdcb99bf	-0.09941434
25	0xbdd79214	-0.10525909
26	0xbd415d27	-0.047207978
27	0xbc974d4f	-0.01846948
28	0x3c1e3350	0.009655789
29	0x3d0b7766	0.034049414
30	0xbd6191b7	-0.055070605
31	0xbd853567	-0.06504326
32	0xbd51dab2	-0.051233955
33	0xbd97a4d6	-0.07404487
34	0xbc9c38dd	-0.019070083
35	0xbd82a892	-0.063798085
36	0xbda48eba	-0.080350354
37	0x3c4e391f	0.012586861
38	0x3b0ec5fe	0.0021785493
39	0xbde1254e	-0.109934434
40	0xbd6f4010	-0.058410704
41	0xbd4a07b7	-0.049323764
42	0x3c4fa6f7	0.012674085
43	0x3b4eb533	0.0031541109
44	0xbd2f00e8	-0.042725474
45	0xbdeeaa91	-0.11653627
46	0xbd13388e	-0.035942607
47	0xbe0d9470	-0.13826156
48	0xbdada2e0	-0.084783316
49	0xbd1e5890	-0.03865868
50	0xbd258821	-0.040413026
51	0xbd18ba82	-0.037287243
52	0x3d1d083a	0.038337924
53	0xbd403af3	-0.04693122
54	0xbcad1956	-0.021130245
55	0xbcb4755f	-0.022028623
56	0xbd7e0d7c	-0.06202458
57	0x3d12896a	0.03577558
58	0xbd81a2d3	-0.063298844
59	0xbcfdad77	-0.030966504
60	0x3d14e04e	0.036346726
61	0xbc7bb398	-0.015362643
62	0xbd0489e8	-0.03235808
63	0xbc8fbe92	-0.017546926
64	0xbd6aac43	-0.057293188
65	0xbd9cf8db	-0.07664653
66	0xbc9abbfe	-0.01888847
67	0xbe26a448	-0.16273606
68	0xbdbdc3d6	-0.09265868
69	0xbc426a61	-0.011866183
70	0xbda42fae	-0.08016907
71	0xbe032399	-0.12806548
72	0xbd7a3cf0	-0.06109327
73	0xbbf98373	-0.007614547
74	0x3be5d2c0	0.0070136487
75	0x3ab35d17	0.0013684359
76	0xbd2adeb5	-0.041716296
77	0xbcdaa0ea	-0.026688058
78	0xbda3e8fd	-0.08003423
79	0xbca5313b	-0.020165076
80	0xbc8db3c0	-0.017297626
81	0x3b33a4ff	0.0027411578
82	0x3c2b042c	0.010438006
83	0xbcdcf367	-0.026971532
84	0xbd5f62d5	-0.054537613
85	0xbdcb5369	-0.099280186
86	0xbd719a20	-0.058984876
87	0xbcd9c43d	-0.026582832
88	0x3d8c3f20	0.06847978
89	0xbcdcaaf7	-0.026936991
90	0xbdf52502	-0.11969949
91	0x39453f3f	0.00018810945
92	0xbde98b9c	-0.114035815
93	0xbda94bc2	-0.08266403
94	0xbd72a8ea	-0.05924312
95	0xba2369c3	-0.0006233716
96	0xbdad25fc	-0.084545106
97	0x3ca183e7	0.019716216
98	0xbc055ca3	-0.008139762
99	0xbd0163fa	-0.031589486
100	0xbd23924f	-0.039934453
101	0xbd83a088	-0.06427103
102	0x3b33dac3	0.0027443625
103	0xbc8bce18	-0.017066047
104	0xbd87277b	-0.06599327
105	0xbd3ee84f	-0.046608265
106	0xbdf82f23	-0.121183656
107	0xbdf8edc8	-0.12154728
108	0xbd62183f	-0.055198904
109	0xbd91aac9	-0.07112653
110	0xbc9c4800	-0.019077301
111	0xbdb55320	-0.088537455
112	0xbdedd446	-0.116127536
113	0xbe2d81e6	-0.16944084
114	0xbc879ec4	-0.016555198
115	0xbc1b28dd	-0.009470192
116	0xbd94699f	-0.07246708
117	0xbd0ab461	-0.03386343
118	0xbc22d133	-0.009937572
119	0xbd386c8c	-0.045025393
120	0xbd91fda2	-0.07128455
121	0xbbf7fa8f	-0.0075677107
122	0xbd543419	-0.051807497
123	0xbdd7d60d	-0.10538874
124	0xbc45f36b	-0.012081961
125	0xbdbb4e92	-0.091458455
126	0xbd4341e2	-0.047670253
127	0xbd3f0d30	-0.046643436

fc2.weight f4 [128, 128]
0	0xbd4925c2	-0.049108274
1	0xbdbcbcea	-0.0921572
2	0x3ca2e68d	0.019885326
3	0xbd820293	-0.06348147
4	0x3db14c43	0.08657124
5	0xbdac654b	-0.084177576
6	0x3d21282f	0.039344963
7	0x3e091a72	0.13388994
8	0x3e289c7b	0.16465943
9	0x3e67a450	0.22621274
10	0xbd6c5f19	-0.05770788
11	0xbd70c5d3	-0.05878241
12	0x3dc11921	0.09428621
13	0xbe323386	-0.17402467
14	0x3da847df	0.08216833
15	0x3e086425	0.13319452
16	0xbd5f136b	-0.054461878
17	0xbd27035d	-0.04077469
18	0xbc86483f	-0.016391871
19	0xbc4381b7	-0.011932782
20	0x3d4c482a	0.04987351
21	0x3d9e736a	0.07736857
22	0x3dc4e781	0.09614468
23	0xbe058ce1	-0.13042022
24	0xbc88981f	-0.0166741
25	0xbe35eeba	-0.17766848
26	0x3d88ac33	0.066734694
27	0x3e354b72	0.17704561
28	0xbda2652b	-0.079294525
29	0x3c9ae648	0.018908635
30	0x3e21c52d	0.15797873
31	0x3d68bd98	0.056821436
32	0xbe3aac46	-0.1822978
33	0xbe569fed	-0.20959444
34	0x3d2f4399	0.042789076
35	0x3cbf3cca	0.023344416
36	0x3cd5251a	0.026018668
37	0x3d964dbf	0.07339048
38	0x3db3028c	0.0874072
39	0x3d9850ec	0.074373096
40	0x3e0ea4b3	0.13930015
41	0x3d686f0a	0.05674652
42	0xbd29e42c	-0.041477367
43	0xbd74969c	-0.059713945
44	0x3d168b99	0.036754224
45	0x3e526381	0.2054577
46	0x3d88f02d	0.06686435
47	0x3e077a51	0.13230254
48	0xbc050bbb	-0.008120473
49	0xbd14f386	-0.036365055
50	0xbe1b9b77	-0.15196024
51	0xbb7e8cd8	-0.0038841274
52	0x3db1ace7	0.08675557
53	0xbd6ec065	-0.05828895
54	0x3dedad7c	0.11605355
55	0xbca06181	-0.019577743
56	0x3d9c1dcc	0.07622871
57	0x3d1c045e	0.038090102
58	0xbd29053f	-0.04126477
59	0x3d90e3f2	0.07074727
60	0xbc6bc38e	-0.014389886
61	0xbd3d2721	-0.046179894
62	0xbdc8de11	-0.09807981
63	0xbc35fd6d	-0.011107785
64	0x3d8999e5	0.06718806
65	0xbddefac6	-0.10887675
66	0x3d7e5584	0.062093273
67	0x3ce82d7d	0.028342003
68	0x3d3b04ca	0.045658864
69	0x3dd1f2e3	0.10251405
70	0xbdc3fc95	-0.095696606
71	0x3e853162	0.2601424
72	0x3cbf044a	0.023317475
73	0x3c77a49e	0.015114931
74	0x3db52e8b	0.08846768
75	0xbc2cff5b	-0.010558928
76	0x3e111df8	0.14171588
77	0x3c1ec357	0.009690127
78	0xbca5151c	-0.020151667
79	0xbc2c8cb3	-0.010531592
80	0x3d095936	0.033532344
81	0xbd3d6112	-0.04623515
82	0xbc815223	-0.015786236
83	0xbdf4a924	-0.119463235
84	0x3d31ef09	0.043440852
85	0xbe6586bb	-0.22414677
86	0x3d636fcf	0.05552655
87	0x3dacdf37	0.08441012
88	0x3bc67521	0.0060564433
89	0x3e215c8d	0.15757962
90	0x3e0ec0fd	0.13940807
91	0x3d66e0f9	0.056366894
92	0x3d57d10b	0.052689593
93	0x3e17ccf1	0.14824273
94	0x3cde96b3	0.027171468
95	0x3d571b3c	0.052516207
96	0x3e1cf554	0.1532796
97	0x3b97c579	0.004631695
98	0xbd314e3f	-0.043287512
99	0xbd366096	-0.044525705
100	0x3d7f1502	0.062275894
101	0xbe1ea9dd	-0.15494485
102	0xbd2ee491	-0.042698447
103	0x3c0a0f6b	0.0084265275
104	0xbcd02f6d	-0.02541324
105	0xbe1fe15e	-0.15613315
106	0xbec3663e	-0.38163942
107	0xbe3293eb	-0.17439239
108	0x3e06c37c	0.13160509
109	0x3db9588b	0.09050091
110	0x3c415ba5	0.011801635
111	0x3d485542	0.048909433
112	0xbd93247d	-0.07184694
113	0x3e45d58a	0.1931974
114	0xbc07e985	-0.0082954215
115	0x3dc436db	0.09580775
116	0xbe359d9c	-0.17735904
117	0x3e3d96d5	0.18514569
118	0x3ce64e5a	0.028113533
119	0x3da1d46e	0.07901846
120	0xbe82de94	-0.2556044
121	0x3d6f00cd	0.058350373
122	0x3e2c7755	0.16842397
123	0x3c8d73b7	0.017267091
124	0x3cac51de	0.021035131
125	0x3dc7a529	0.09748299
126	0xbd1d9ba7	-0.03847852
127	0x3d75b68e	0.05998855
128	0xbd08b72b	-0.033377808
129	0xbdb233bf	-0.08701276
130	0x3e1cd651	0.1531613
131	0x3d1151a4	0.03547825
132	0x3dccc133	0.09997787
133	0x3e1c0fa8	0.15240347
134	0x3c10ae6d	0.008830649
135	0x3d594e04	0.053052917
136	0x3e05c535	0.1306351
137	0x3e0e1e0d	0.13878651
138	0xbe451ff8	-0.19250476
139	0xbc9f561b	-0.019450238
140	0x3e2342d7	0.15943466
141	0xbe8fab58	-0.28060412
142	0x3e1e0130	0.1543014
143	0xbd18ac25	-0.037273545
144	0xbe0820b8	-0.13293731
145	0xbd77146a	-0.060322203
146	0xbd8d815c	-0.06909439
147	0x3e1ac579	0.15114392
148	0x3e4d151f	0.20027588
149	0x3dd14937	0.10219043
150	0x3cb3e853	0.021961367
151	0xbdc114b1	-0.09427775
152	0xbdb03fa6	-0.0860589
153	0xbd06565e	-0.03279721
154	0x3da58953	0.08082833
155	0x3e1ee939	0.15518655
156	0xbe0a6522	-0.13515142
157	0x3d81bbf9	0.06334681
158	0xbd2e1fe5	-0.042510886
159	0xbd1b9b5a	-0.03798995
160	0xbdaf8574	-0.08570376
161	0xbda0aa94	-0.07845035
162	0x3d6cfbbf	0.05785727
163	0x3db5b991	0.088732846
164	0xbc58c9d9	-0.013231718
165	0xbd732c44	-0.059368387
166	0x3c853af1	0.016263457
167	0xbe65b44d	-0.2243206
168	0x3e2b47f9	0.16726674
169	0x3bcd4f82	0.0062655816
170	0x3d9ba5f3	0.07600012
171	0xbcdb53bc	-0.026773326
172	0x3e155091	0.14581515
173	0x3cf84f06	0.030311119
174	0x3ccdb193	0.025109088
175	0x3e09ddab	0.13463466
176	0xbd8fe584	-0.070261985
177	0x3dffbeff	0.124876015
178	0x3daf3dd1	0.085567124
179	0x3dc32170	0.09527862
180	0x3d28ac15	0.041179735
181	0xbd9b9c7e	-0.07598208
182	0x3df84529	0.12122566
183	0x3de85dea	0.11346038
184	0x3bcec50c	0.006310111
185	0xbd4f3915	-0.050591547
186	0x3d77bb90	0.060481608
187	0xbaaf0bc0	-0.0013354942
188	0x3e09fb7d	0.13474841
189	0x3e014afb	0.12626259
190	0x3d0d7ce3	0.03454293
191	0x3c882875	0.016620854
192	0x3d6cf816	0.05785378
193	0xbd028e57	-0.031874027
194	0x3cc8c7ef	0.024509398
195	0xbde7e736	-0.11323397
196	0x3d5b7a6a	0.05358354
197	0xbe1ea2cf	-0.15491794
198	0xbc471724	-0.012151513
199	0x3e0b8ccd	0.1362793
200	0x3e27e0d0	0.16394353
201	0x3d498315	0.049197275
202	0xbd9789dd	-0.07399342
203	0x3e1594d9	0.14607562
204	0xbc9ac034	-0.018890478
205	0x3cfaaa34	0.030598737
206	0xbd4a6012	-0.049408026
207	0x3cc19c1c	0.023634009
208	0x3b7a6fa1	0.0038213509
209	0x3db989d2	0.0905949
210	0x3c04a01d	0.008094815
211	0xbd88c3ec	-0.06677994
212	0x3c900e91	0.01758507
213	0xbde1bcc3	-0.110223316
214	0xbeed82b0	-0.4638877
215	0x3dddce25	0.108303346
216	0x3cdb8e5b	0.026801279
217	0x3d5c3a8a	0.053766765
218	0x3e486712	0.19570568
219	0x3d91e554	0.07123819
220	0x3d8cf562	0.068827406
221	0xbd4f50cc	-0.050614163
222	0x3dd527d5	0.10407988
223	0xbdcaa191	-0.098940976
224	0x3e2a0f2e	0.16607353
225	0x3c3675e2	0.011136504
226	0xbd23888f	-0.039925154
227	0xbdbdbd22	-0.0926459
228	0x3dd374d0	0.103250146
229	0xbe9f83fb	-0.3115538
230	0xbe03a609	-0.12856306
231	0x3d4eb0bf	0.050461527
232	0x3d80ec6b	0.06295093
233	0xbe706be1	-0.23478653
234	0xbdfcae03	-0.123378776
235	0xbc8ccbf8	-0.017187104
236	0x3ca510ba	0.020149577
237	0x3bdf9224	0.0068228412
238	0x3d01dea4	0.031706467
239	0x3d8b1b98	0.067923725
240	0x3d4c020d	0.049806643
241	0xbdbdbcc5	-0.092645206
242	0xbd006b5a	-0.03135238
243	0x3da6d487	0.08146005
244	0x3be2c1b5	0.0069200643
245	0xbc078146	-0.008270567
246	0x3d8b6b76	0.06807606
247	0xbd5f4744	-0.054511324
248	0xbe073fb4	-0.13207895
249	0xbcc40cc1	-0.023931863
250	0x3db9cbf2	0.090721026
251	0xbe26a263	-0.16272883
252	0x3c294859	0.01033219
253	0x3d32f2be	0.04368853
254	0x3d14ad38	0.036298007
255	0xbcfe91f4	-0.031075455

fc2.bias f4 [128]
0	0xbd5f99ca	-0.054590024
1	0x3c4bfcce	0.01245041
2	0x3e0233a0	0.12715006
3	0x3b283475	0.0025666032
4	0x3d05c8a7	0.03266206
5	0x3d233f68	0.03985539
6	0x3db0be87	0.0863009
7	0x3d9dbfb0	0.07702577
8	0x3d9d9fec	0.07696518
9	0x3bfb0720	0.0076607615
10	0x3dc81953	0.09770455
11	0x3d955d39	0.072931714
12	0x3de0e792	0.109816685
13	0x3c7ae206	0.015312677
14	0x3c7f4e3e	0.015582619
15	0xbde88b10	-0.11354649
16	0xbda3f6cc	-0.08006057
17	0xbe1f785b	-0.15573256
18	0xbe0012bc	-0.12507147
19	0xbd7dc6a0	-0.061957
20	0x3db6dc3a	0.08928724
21	0xbd981133	-0.074251555
22	0xbe03c323	-0.12867408
23	0x3d0ca83b	0.034340125
24	0x3d6e5150	0.058183014
25	0x3d94f768	0.072737515
26	0xbddba97c	-0.10725686
27	0x3bc6ab19	0.006062877
28	0xbe8f662c	-0.28007638
29	0x3c58e976	0.013239255
30	0x3de66951	0.11250556
31	0x3ddc3387	0.107520156
32	0x3cbb91e1	0.022896709
33	0xbdd06ee0	-0.10177398
34	0x3d64cab6	0.055857383
35	0xbc0a099f	-0.008425145
36	0x3dc25153	0.094881676
37	0xbd28fa50	-0.04125434
38	0x3db62429	0.08893616
39	0xbd21d0c2	-0.039505728
40	0x3d963363	0.0733402
41	0x3d117534	0.035512164
42	0xbc629147	-0.013828582
43	0x3d98b0f5	0.07455627
44	0x3da8d387	0.08243471
45	0xbc620c3d	-0.013796863
46	0x3d3cb083	0.046066772
47	0x3de90360	0.11377597
48	0x3d6ee472	0.05832333
49	0xbcafced2	-0.021460924
50	0x3ca2c551	0.019869478
51	0x3d32f486	0.043690227
52	0x3d586225	0.052827973
53	0xbc54d694	-0.012990613
54	0x3d64bd84	0.0558448
55	0x3d2b8d63	0.041882884
56	0x3c41631a	0.011803413
57	0xbc47888a	-0.01217855
58	0x3ccca205	0.0249796
59	0x3d93cf9e	0.07217334
60	0xbca4bad7	-0.020108623
61	0x3c56a2fc	0.013100382
62	0x3cb3f587	0.021967662
63	0x3db2f1df	0.087375395
64	0xbc83afd9	-0.016075062
65	0xbd5ccf25	-0.053908486
66	0x3dd7387a	0.10508819
67	0xbccde2d7	-0.02513258
68	0xbe0d2f5c	-0.13787597
69	0x3cdd174b	0.026988646
70	0x3bbd6821	0.0057802354
71	0xbd4445b1	-0.047918025
72	0x3c852223	0.01625163
73	0xbddc5131	-0.107576735
74	0x3da45c83	0.08025458
75	0x3d1a2a44	0.037637964
76	0x3e08a92a	0.13345781
77	0xbd0791ea	-0.03309814
78	0x3df42360	0.1192081
79	0xbcfbe230	-0.030747503
80	0xbd729f4a	-0.05923394
81	0x3dd68268	0.10474092
82	0x3d098dc0	0.03358245
83	0x3d09775c	0.033561096
84	0xbe328873	-0.17434864
85	0xbcf22048	-0.029556409
86	0xbc2a5ee5	-0.010398601
87	0x3c4f7ca2	0.012663992
88	0x3cdf3b18	0.027249858
89	0xbe5e557e	-0.217123
90	0x3df51f4e	0.119688615
91	0xbe11b69b	-0.14229815
92	0x3d278cb6	0.040905677
93	0xbd922084	-0.07135108
94	0x3d9a6da3	0.07540443
95	0x3de2d911	0.110765584
96	0x3dad47fe	0.08460997
97	0x3dd04fd8	0.10171479
98	0x3dd841c7	0.10559421
99	0x3d704fcd	0.058669854
100	0x3dbd3b6a	0.09239848
101	0x3dc77ef5	0.09741012
102	0x3d8753a4	0.0660775
103	0x3ddee5e9	0.10883696
104	0xbd460c9d	-0.048351873
105	0x3d3921ab	0.045198124
106	0xbd275497	-0.040852156
107	0x3dc457db	0.095870696
108	0x3c882650	0.016619831
109	0xbdb9b782	-0.090682045
110	0x3dc2d452	0.09513153
111	0xbd525b3f	-0.05135655
112	0x3db28194	0.08716121
113	0xbcbbf6e1	-0.02294487
114	0x3b7aec52	0.003828783
115	0x3da8b7e1	0.08238197
116	0x3dd53689	0.104107924
117	0x3c8a8455	0.016908804
118	0xbd090c5b	-0.03345905
119	0xbc78a975	-0.01517712
120	0x3dbdf780	0.092757225
121	0xbc5e2fe8	-0.013561226
122	0x3de4b774	0.111678034
123	0x3d9f3a4b	0.077747904
124	0xbc5a8b9d	-0.01333895
125	0x3d7178fc	0.05895327
126	0xbb54a33b	-0.0032445926
127	0x3d0b6366	0.03403034
