azure-functions/models/lstm/files/parking_model.pt (torch, 591666 bytes, 18 tensors)

rnn.weight_ih_l0 f4 [512, 1]
0	0x3cb589e6	0.022160482
1	0x3d869f2d	0.06573329
2	0xbcb09c69	-0.021558957
3	0xbd2ae4a8	-0.04172197
4	0xbd7e39ee	-0.062066965
5	0xbe28c668	-0.16481936
6	0xbd9048b9	-0.07045121
7	0x3da5b327	0.08090811
8	0x3d74b154	0.059739426
9	0xbdb0ac71	-0.086266406
10	0x3da9a696	0.08283727
11	0x3de16175	0.110049166
12	0x3d043f6d	0.03228705
13	0x3aa8b890	0.0012872387
14	0xbe42ba69	-0.19016422
15	0x3ccf9368	0.025338843
16	0xbd8eeda3	-0.06978919
17	0xbdef45d6	-0.11683242
18	0xbc027b79	-0.0079640085
19	0x3eb1fbca	0.34762412
20	0xbd69f772	-0.057120748
21	0xbd7b5043	-0.06135584
22	0x3d727011	0.059188906
23	0xbd938c98	-0.072045505
24	0xbd8df923	-0.06932285
25	0xbd63f0fc	-0.055649742
26	0xbc52ac2b	-0.012858431
27	0xbd668427	-0.056278374
28	0x3d20c0eb	0.03924648
29	0x3cb2a4da	0.021807123
30	0x3d5840f6	0.052796327
31	0xbdf658ff	-0.120286934
32	0x3d2ec90b	0.0426722
33	0x3d74b6b6	0.05974456
34	0xbd8aac56	-0.06771152
35	0xbdd9b9da	-0.106311515
36	0xbd4db8e5	-0.050225157
37	0x3c358ba9	0.011080661
38	0xbdad1d9c	-0.08452913
39	0x3ce1a688	0.027545229
40	0xbd65d6c4	-0.05611302
41	0xbd85a4ce	-0.065255746
42	0xbd21b78e	-0.039481692
43	0xbd38ccf3	-0.04511733
44	0x3d92a71d	0.071607806
45	0x3d9328f1	0.07185543
46	0x3d730d22	0.059338696
47	0xbe970177	-0.29493305
48	0xbd84e7b5	-0.06489507
49	0x3d93222c	0.07184252
50	0x3d13ae1f	0.036054727
51	0x3d5b5c6c	0.053554937
52	0x3d386cf4	0.04502578
53	0xbd6a5add	-0.05721556
54	0xbdc0a907	-0.094072394
55	0x3d52d5a8	0.05147329
56	0xbd9d3613	-0.076763295
57	0x3cc3555b	0.023844412
58	0x3c127373	0.008938658
59	0x3cf77152	0.030205403
60	0xbd683f6c	-0.05670111
61	0xbd1648f3	-0.036690664
62	0x3cf3e06f	0.029770104
63	0x3d3e5c2d	0.046474624
64	0x3e153eab	0.14574687
65	0xbd63aa00	-0.055582047
66	0x3d82de6d	0.063900806
67	0xbd6ab217	-0.057298746
68	0xbdbaacf1	-0.09115017
69	0x3bd023ad	0.006351909
70	0xbcdef91d	-0.027218396
71	0xbd924661	-0.0714233
72	0x3caa505a	0.020790268
73	0xbd1ae4bd	-0.037815798
74	0x3d8138b7	0.063096456
75	0xbcee5727	-0.029094292
76	0xbd543059	-0.05180392
77	0xbd79efd8	-0.06101975
78	0x3c05ca6e	0.008165939
79	0xbd94fbc4	-0.07274583
80	0xbd6d08bd	-0.05786966
81	0xbd96eb31	-0.07369078
82	0xbda6e2cb	-0.08148726
83	0x3d662da1	0.05619586
84	0xbd2f5b5a	-0.04281173
85	0xbe0271f8	-0.12738788
86	0x3d8bf9a1	0.06834722
87	0xbb7ab7f2	-0.0038256613
88	0xbd54af5b	-0.051925045
89	0xbca1933f	-0.019723533
90	0x3d860514	0.06543937
91	0x3e231f27	0.15929852
92	0x3d6b5cbe	0.057461493
93	0xbdb12816	-0.08650224
94	0x3d390015	0.045166094
95	0x3d152fd8	0.03642258
96	0x3d2706d5	0.040778
97	0xbc8b6f2d	-0.017020786
98	0x3d29f151	0.041489903
99	0xbd85b407	-0.06528478
100	0xbdde8a53	-0.10866227
101	0xbd5ccccd	-0.05390625
102	0x3d142105	0.036164302
103	0x3d7b97be	0.06142401
104	0xbc651f13	-0.013984459
105	0xbd871eeb	-0.06597694
106	0x3caf3310	0.021386653
107	0x3e10086b	0.14065711
108	0x3db32808	0.0874787
109	0xbdf9a00d	-0.121887304
110	0xbd1759f2	-0.036951013
111	0x3e054adb	0.13016836
112	0xbd8c74b8	-0.068582
113	0xbd654f2b	-0.055983704
114	0xbddb39bc	-0.10704371
115	0x3d86d609	0.06583793
116	0xbcd2e250	-0.02574268
117	0x3d350d14	0.044201925
118	0xbc6ffd15	-0.014647742
119	0x3d9268ea	0.07148917
120	0x3bd375b0	0.0064532384
121	0x3c9ffd5d	0.019529993
122	0x3d40d5c5	0.047078867
123	0x3c6dcb83	0.014513853
124	0x3d190f78	0.037368268
125	0xbd505bd3	-0.05086882
126	0x3c28e535	0.010308553
127	0xbd4bc88e	-0.04975181
128	0x3c3d3760	0.011548847
129	0x3e1eac5e	0.1549544
130	0xbc39ae9d	-0.011333135
131	0x3c30a7ef	0.010782226
132	0x3ca1a73e	0.019733068
133	0xbe9eb860	-0.31000042
134	0xbdccfc4d	-0.1000906
135	0xbda1c5bc	-0.07899043
136	0xbd3a006b	-0.045410555
137	0xbc2fd206	-0.010731226
138	0x3df026aa	0.117261246
139	0xbd10347f	-0.035206314
140	0xbd940b00	-0.072286606
141	0x3d02d00d	0.031936694
142	0xbe096a06	-0.13419351
143	0xbd098380	-0.033572674
144	0xbb7bf37d	-0.003844469
145	0xbd36472b	-0.044501465
146	0xbd1d4564	-0.038396254
147	0x3d6458fe	0.055748932
148	0xbdaf6873	-0.08564844
149	0x3cb6305a	0.022239853
150	0x3d8c2bea	0.068443134
151	0x3d518636	0.051153384
152	0xbc2d0aa6	-0.010561621
153	0x3d52ab35	0.051432807
154	0xbd97fcb4	-0.07421246
155	0xbd76d4cd	-0.060261536
156	0x3d956c4b	0.07296046
157	0x3d965cba	0.07341905
158	0x3e0534ee	0.13008472
159	0xbdd540d6	-0.10412757
160	0x3c267699	0.010160112
161	0xbc2a9a0a	-0.010412702
162	0x3d8a37f8	0.067489564
163	0xbd19102e	-0.037368946
164	0x3d9261a6	0.07147531
165	0xbcb1a95f	-0.021687208
166	0xbe054642	-0.13015082
167	0xbd421709	-0.04738525
168	0xbd542277	-0.05179068
169	0x3dae3e0c	0.08507928
170	0x3d4a0030	0.049316585
171	0xbc86ee40	-0.016471028
172	0xbd06351d	-0.032765497
173	0x3d044751	0.032294575
174	0x3d350c3e	0.04420113
175	0xbeaa215e	-0.33228582
176	0xbc8ac97f	-0.016941784
177	0xbc72d1e8	-0.014820553
178	0xbdaa95a6	-0.083293244
179	0x3d3896e4	0.045065776
180	0x3de3ee9e	0.11129497
181	0x3d89a84b	0.067215525
182	0x3d35b8f5	0.044365842
183	0x3c9f52c7	0.019448651
184	0x3d2ec082	0.04266406
185	0x3ce884fb	0.028383723
186	0x3db2f52a	0.087381676
187	0xbd5cf0b9	-0.05394051
188	0x3d5f66d8	0.05454144
189	0x3cbc3470	0.022974223
190	0xbd390e1f	-0.045179483
191	0x3d64be0c	0.055845305
192	0xbb7d2277	-0.003862528
193	0x3d39c57e	0.04535436
194	0x3d8d927a	0.06912704
195	0x3b07799b	0.0020671848
196	0xbd98b371	-0.07456101
197	0x3cb5bef2	0.022185776
198	0x3d1f3ba0	0.038875222
199	0x3d547d0b	0.051877063
200	0x3cab414a	0.020905156
201	0x3cf01204	0.029305466
202	0x3c202d2c	0.009776395
203	0x3d016698	0.03159198
204	0xbd3a1ad9	-0.04543576
205	0x3d846529	0.06464607
206	0xbd137c90	-0.036007464
207	0x3de9471e	0.11390518
208	0x3da28ea7	0.07937365
209	0x3dbbb5fb	0.091655694
210	0xbbb6732a	-0.005567928
211	0x3d87a68c	0.06623563
212	0xbd0dee55	-0.03465112
213	0xbd9dbbfa	-0.07701869
214	0xbdb0e069	-0.08636553
215	0xbc8144e3	-0.015779918
216	0x3cfec45a	0.031099487
217	0xbda95c48	-0.082695544
218	0xbc09b7fb	-0.008405681
219	0x3d82c527	0.0638526
220	0x3d82b260	0.063816786
221	0xbcff3ba9	-0.031156378
222	0x3c276e04	0.010219101
223	0x3dce4634	0.10071984
224	0xbd3acc96	-0.045605265
225	0xbd639f8c	-0.055572078
226	0x3cefa5b2	0.029253814
227	0xbcbb4364	-0.022859283
228	0x3d8bce7a	0.06826492
229	0x3d6acfba	0.05732701
230	0x3cf2515a	0.029579807
231	0x3c90ffcf	0.017700104
232	0x3c8e63f5	0.017381648
233	0x3d82637a	0.0636663
234	0xbb2804bf	-0.0025637595
235	0x3da0d39a	0.0785286
236	0xbd4e8059	-0.05041537
237	0xbd5cda09	-0.053918872
238	0xbca162dd	-0.019700462
239	0x3ddf463f	0.1090207
240	0x3d1d47bd	0.038398493
241	0xbd059ba5	-0.032619137
242	0xbc937583	-0.01800037
243	0x3d891374	0.066931635
244	0xbcbe5a6f	-0.023236481
245	0x3d0b90cc	0.034073636
246	0x3d57471f	0.05255806
247	0x3da57744	0.08079389
248	0x3d4ed2d8	0.050494045
249	0xbcae615b	-0.021286657
250	0xbd72e1e8	-0.059297472
251	0x3dadfc6a	0.0849541
252	0xbd958bd5	-0.073020615
253	0xbc859a39	-0.01630889
254	0x3c0a5ff4	0.008445729
255	0xbd061e77	-0.032743897

rnn.weight_hh_l0 f4 [512, 128]
0	0x3ce11450	0.027475506
1	0x3d9d2e9c	0.07674906
2	0x3c735540	0.014851868
3	0x3ca61ff2	0.020278905
4	0xbb5c510f	-0.003361765
5	0x3d44bbcf	0.04803067
6	0x3e0ca962	0.1373649
7	0xbd30bf6b	-0.0431513
8	0x3db09e31	0.086239226
9	0xbb87aa04	-0.0041401405
10	0x3cb4e5ea	0.022082288
11	0xbd1cde7b	-0.03829811
12	0xbe15235a	-0.14564267
13	0x3c85e04a	0.0163423
14	0xbd55965a	-0.05214534
15	0xbcab4494	-0.020906724
16	0x3d426a35	0.04746457
17	0xbc31d2d5	-0.010853489
18	0xbcc2ee2f	-0.023795215
19	0xbd0856c3	-0.033285867
20	0xbd74771a	-0.059683897
21	0xbd9bc84e	-0.076065645
22	0x3cc0a6c5	0.023517022
23	0xbdc1a749	-0.09455735
24	0x3bfd5784	0.00773138
25	0x3dd37dcd	0.10326729
26	0xbd11d312	-0.035601683
27	0xbcd530f2	-0.026024316
28	0xbd80f472	-0.06296624
29	0xbd53e0f7	-0.051728215
30	0xbdb14d9a	-0.086573794
31	0x3dfe2067	0.12408524
32	0x3d9e74d7	0.07737129
33	0xbd0f39a4	-0.03496708
34	0x3d129348	0.03578499
35	0x3c6e2f7d	0.014537689
36	0xbda63e88	-0.08117396
37	0xbd05c88d	-0.032661963
38	0xbb6a858b	-0.0035785164
39	0xba6af3b7	-0.0008962708
40	0xbd7b2e86	-0.061323665
41	0x3bd2cf70	0.00643342
42	0x3e1d3386	0.15351686
43	0x3d62b4fa	0.055348374
44	0xbd002e55	-0.031294186
45	0xbd1d63df	-0.038425323
46	0x3d8fa070	0.07013023
47	0x3c43af97	0.011943719
48	0xbdfc2b17	-0.12312906
49	0x3c60db52	0.013724165
50	0x3cfd2590	0.0309017
51	0xbdbf3715	-0.09336678
52	0x3e1bc14b	0.15210454
53	0xbd5e815f	-0.054322597
54	0x3dccd829	0.10002167
55	0xbd8160ca	-0.06317289
56	0x3ba8f685	0.0051563405
57	0xbd1bda21	-0.03804982
58	0xbd7e1f23	-0.062041413
59	0xbd05279a	-0.03250847
60	0x3e11c676	0.14235863
61	0xbdc3cdcd	-0.09560738
62	0x3c24175f	0.010015338
63	0xbdd63ec7	-0.104611926
64	0xbca89994	-0.020581044
65	0xbd7982bc	-0.060915694
66	0x3d323574	0.043508008
67	0x3d39a6a7	0.045324948
68	0xbd734f08	-0.059401542
69	0x3d481522	0.04884828
70	0xbcad4337	-0.021150215
71	0x3d23808d	0.039917517
72	0x3c91b61f	0.017787037
73	0xbd8d5aee	-0.06902109
74	0x3d6dbbde	0.058040492
75	0x3d642c37	0.05570623
76	0xbe24b371	-0.16084076
77	0xbd3f77de	-0.046745174
78	0x3d21eb44	0.039531007
79	0x3cb53dec	0.022124253
80	0xbbff08d3	-0.0077830344
81	0x3c9c6d43	0.019095069
82	0xbdc39e34	-0.09551659
83	0xbdd21bc7	-0.10259204
84	0x3d837d76	0.06420414
85	0xbcfe3f36	-0.031036
86	0x3dbf0982	0.09327985
87	0xbdce5857	-0.10075443
88	0x3d894c43	0.06703999
89	0x3d45738f	0.04820591
90	0xbcacf5d7	-0.02111332
91	0xbc545a8b	-0.01296104
92	0x3cc70cb5	0.024298051
93	0x3c82617b	0.015915623
94	0xbd0d669a	-0.034521677
95	0xbbc001d3	-0.0058595925
96	0x3d15585a	0.03646121
97	0xbd97691b	-0.07393094
98	0xbd0c0b57	-0.034190502
99	0xbc6e0e70	-0.014529809
100	0x3db7fcd1	0.08983768
101	0x3d97b482	0.07407476
102	0x3d41f3e8	0.047351748
103	0xbcc28139	-0.023743259
104	0xbc062f88	-0.008190043
105	0xbc89c9b6	-0.016819816
106	0x3df2f7df	0.11863684
107	0x3d8bae34	0.06820336
108	0x3cdb2edf	0.026755748
109	0xbc883b95	-0.016629973
110	0x3d098836	0.033577166
111	0xbae0253c	-0.001710094
112	0xbb6d685e	-0.0036225538
113	0xba2f2822	-0.00066817005
114	0xbd9c9645	-0.07645849
115	0xbce8bea1	-0.028411211
116	0xbd096ec5	-0.033552904
117	0xbdca502a	-0.09878571
118	0x3d23af76	0.039962254
119	0xbd1b2b45	-0.037883062
120	0xbdb91afb	-0.09038349
121	0x3bec5ac9	0.007212971
122	0xbcf2d26c	-0.029641353
123	0x3e0d7544	0.13814265
124	0x3ddd4577	0.10804265
125	0xbd934fee	-0.0719298
126	0x3d0ea53f	0.03482556
127	0xbdc5f2e9	-0.09665472
128	0x3bd7bf24	0.006584065
129	0x3deafb59	0.11473722
130	0x3d33ec8f	0.04392677
131	0x3d2dad3b	0.042401534
132	0xb98ddfdd	-0.00027060407
133	0xbd8591f5	-0.0652198
134	0x3e0babf2	0.1363981
135	0xbd298586	-0.041387103
136	0x3d87708a	0.06613262
137	0xbc43550e	-0.011922134
138	0xbda900fe	-0.08252142
139	0x3ab1207e	0.0013513712
140	0xbce82b51	-0.028340967
141	0xbd5955e1	-0.053060416
142	0x3d39c77b	0.045356255
143	0xbd86270d	-0.06550417
144	0x3ba830cc	0.00513277
145	0x3d12ece9	0.035870466
146	0x3d52c08c	0.05145316
147	0x3c41eb41	0.011835874
148	0x3d7413ab	0.05958907
149	0xbd62c7d2	-0.055366345
150	0xbce93dac	-0.02847179
151	0xbd1ae871	-0.03781933
152	0x3d86ac4c	0.06575832
153	0xbd8ec888	-0.06971842
154	0x3c988443	0.018617755
155	0x3c354929	0.011064806
156	0xbc212b84	-0.009837035
157	0xbd0c1704	-0.034201637
158	0xbe048aee	-0.12943622
159	0xbd775729	-0.060385857
160	0x3c3191f5	0.0108380215
161	0x3b12ecc2	0.002241895
162	0x3e0af96f	0.13571714
163	0x3d56d87a	0.052452542
164	0x3c85bc7d	0.01632523
165	0x3d68b218	0.05681047
166	0xbc905757	-0.017619772
167	0xbd71de19	-0.0590497
168	0xbd9133b6	-0.07089941
169	0xbd6e76f1	-0.0582189
170	0xbbbaa1c4	-0.0056955535
171	0xbdc72047	-0.09722953
172	0x3c7d8c7c	0.015475389
173	0xbcb0dbf5	-0.021589259
174	0xbbe5bd3b	-0.0070110834
175	0x3d50addb	0.05094705
176	0xbcd6fc45	-0.026243338
177	0xbd591159	-0.05299506
178	0xbd8516cd	-0.064984895
179	0x3d4b2ad7	0.049601402
180	0x3ce45312	0.027871642
181	0x3bc6c7de	0.0060663065
182	0xbc8646e8	-0.016391233
183	0xbbc391ef	-0.0059683244
184	0x3d2294e4	0.039692774
185	0x3b52462f	0.003208529
186	0xbda75980	-0.08171368
187	0x3e033196	0.12811884
188	0x3d9262e1	0.07147766
189	0x3ce64a3a	0.028111566
190	0x3cb877d6	0.02251808
191	0xbbb1838d	-0.0054172934
192	0x3c852200	0.016251564
193	0xbdcb171f	-0.099165194
194	0xbbc074f4	-0.005873317
195	0x3b8d4a12	0.0043118084
196	0x3d962a16	0.07332246
197	0x3cc93a38	0.024563894
198	0x3c915a0e	0.017743137
199	0x3d0a692b	0.033791702
200	0x3bf26ed4	0.0073984656
201	0xbc73914f	-0.014866187
202	0xbdc37acf	-0.09544908
203	0x3e012b16	0.12614092
204	0xbe12caf2	-0.1433523
205	0x3cc3c089	0.023895519
206	0xbbc33b5f	-0.0059580053
207	0x3ce5a95b	0.028034857
208	0xbdc64806	-0.09681706
209	0x3c448f39	0.011997038
210	0x3d89bd7c	0.067255944
211	0xbdf4ca78	-0.1195268
212	0x3cbf13a8	0.023324803
213	0x3dba9b1e	0.091116175
214	0x3d925e07	0.071468405
215	0xbddc54a8	-0.107583344
216	0xbcb5763d	-0.022151107
217	0x3d3ccb2b	0.046092194
218	0xbd8dd641	-0.06925631
219	0x3c7d52b6	0.015461614
220	0xbe028cc1	-0.12749006
221	0xbe00b63d	-0.12569518
222	0xbd9d4003	-0.07678225
223	0x3d1b2bca	0.037883557
224	0x3c5a2241	0.013313831
225	0xbdb01fad	-0.08599792
226	0xbe200d83	-0.15630154
227	0xbda23ab0	-0.0792135
228	0x3d9049b3	0.07045307
229	0xbcbdd137	-0.02317105
230	0xbdaa46e1	-0.083143
231	0xbd08ff95	-0.033446867
232	0xbb83f7f1	-0.0040273597
233	0xbc20959b	-0.009801294
234	0x3b021ef7	0.0019854882
235	0x3d97b56b	0.074076496
236	0x3d50472d	0.05084913
237	0x3c521224	0.012821708
238	0xbc85c447	-0.016328944
239	0xbd9ea22c	-0.077457756
240	0x3d1d1767	0.038352396
241	0x3d62750e	0.055287413
242	0xbd0b0428	-0.03393951
243	0x3cd03c3e	0.02541935
244	0xbde5b910	-0.112169385
245	0xbdcb4218	-0.09924716
246	0xbcd3ad58	-0.025839493
247	0xbce56e7a	-0.02800678
248	0xbd11d128	-0.035599858
249	0x3e06703a	0.13128749
250	0xbe16ce47	-0.14727126
251	0x3d5c179f	0.053733464
252	0x3dcfb5c1	0.10142089
253	0xbdc1b79a	-0.09458847
254	0xb91c08f4	-0.00014880655
255	0xbcdd6340	-0.027024865

rnn.bias_ih_l0 f4 [512]
0	0xbd8f66f7	-0.07002061
1	0xbd897e2e	-0.0671352
2	0xbe0d6674	-0.13808614
3	0xbdfd874e	-0.12379323
4	0x3dca0ea0	0.09866071
5	0x3d777e2d	0.060423065
6	0x3cb58d14	0.022161998
7	0x3eca95b4	0.3956734
8	0xbdda687d	-0.10664461
9	0x3e008d4d	0.12553902
10	0xbd779af8	-0.060450524
11	0x3e2ae9ce	0.16690752
12	0x3e640d5f	0.22270726
13	0x3d142a5b	0.036173206
14	0xbdc8683b	-0.097855054
15	0xbde7144a	-0.11283167
16	0x3d858ae1	0.0652063
17	0xbbcfaa87	-0.006337467
18	0x3cca2733	0.024676895
19	0x3f69db7b	0.91350526
20	0xbde9a538	-0.11408466
21	0xbd34e898	-0.04416713
22	0xbcdae50d	-0.026720548
23	0xbe0f31f4	-0.139839
24	0xbc8fcc13	-0.017553365
25	0xbcc829ca	-0.02443399
26	0xbca5e324	-0.02024991
27	0xbde587b1	-0.11207522
28	0x3e05ee78	0.1307925
29	0x3cdc5c07	0.02689935
30	0xbdbbec0e	-0.09175883
31	0xbd729f73	-0.059234094
32	0xbd07270b	-0.03299622
33	0xbe07dcd6	-0.13267836
34	0xbe082a9a	-0.13297501
35	0x3eb1b483	0.34708032
36	0xbda13f58	-0.0787341
37	0xbe023f21	-0.12719394
38	0x3d80d9a8	0.06291515
39	0xbd9ce799	-0.07661361
40	0x3cc8e5b5	0.024523595
41	0x3db58613	0.08863463
42	0xbdf48b81	-0.11940671
43	0xbc8b2634	-0.01698599
44	0xbc23074c	-0.00995047
45	0x3e6a8ec6	0.22906026
46	0x3d086e8f	0.033308562
47	0xbe28aa77	-0.16471277
48	0xbcd26c0f	-0.025686292
49	0xbd81dd53	-0.06341042
50	0x3d6dd964	0.058068648
51	0xbd801729	-0.062544174
52	0xbd9b9b5b	-0.07597991
53	0x3d02668a	0.03183607
54	0x3d90bddd	0.070674635
55	0xbdb26864	-0.08711317
56	0xbd990dd1	-0.074733384
57	0x3c9e3c6c	0.01931592
58	0xbe2915cf	-0.16512226
59	0x3c8adea0	0.016951859
60	0x3c8913f8	0.016733155
61	0xbdd8c400	-0.10584259
62	0x3d426c24	0.047466412
63	0x3e8d5aa1	0.27608207
64	0x3db7e67e	0.0897951
65	0xbda2a88e	-0.079423055
66	0x3b7b0ada	0.0038306029
67	0xbd79dd47	-0.061002042
68	0xbcc88f39	-0.024482356
69	0x3d769020	0.060196042
70	0xbd9604e6	-0.07325153
71	0x3d967f0b	0.0734845
72	0x3d9d039f	0.07666706
73	0xbd5ac494	-0.053410128
74	0xbd1a6409	-0.037693057
75	0xbdfa07ad	-0.12208495
76	0xbd81088a	-0.06300457
77	0xbdce7c9f	-0.10082363
78	0xbd0ff3c5	-0.035144586
79	0xbc5a7e13	-0.0133357225
80	0x3c774017	0.015090964
81	0xbc3f264e	-0.011666847
82	0xbd4135d2	-0.047170468
83	0xbdceede4	-0.10103968
84	0x3cdad13f	0.026711104
85	0xbc0a7348	-0.008450337
86	0xbd1dee6d	-0.03855746
87	0xbda039fb	-0.07823559
88	0xbda302bf	-0.07959508
89	0xbdd99275	-0.106236376
90	0x3cd187de	0.025577482
91	0x3e2a1e27	0.16613065
92	0x3d5d5df7	0.05404469
93	0xbd94656e	-0.07245909
94	0xbd253be9	-0.040340338
95	0x3b33e225	0.0027448025
96	0xbc7e56e6	-0.015523648
97	0x3a89cff4	0.0010514245
98	0xbb889d31	-0.0041691293
99	0xbd835a00	-0.064136505
100	0xbdb0fa0e	-0.08641444
101	0x3d0f793f	0.03502774
102	0xbdcdc9a0	-0.100482225
103	0x3c75e859	0.015009009
104	0xbd32d89f	-0.043663617
105	0xbdd27a04	-0.10277179
106	0xbca91838	-0.020641431
107	0x3dc5f1a3	0.09665229
108	0xbcfa3ec4	-0.030547507
109	0xbd6344f7	-0.055485692
110	0xbd958971	-0.073016055
111	0x3d91af90	0.07113564
112	0xbe3a7a35	-0.18210681
113	0xbde15ed4	-0.11004415
114	0xbd896107	-0.067079596
115	0x3dcdfc01	0.100578316
116	0x3d2bc313	0.041934084
117	0xbde5b876	-0.11216824
118	0x3d27c5a5	0.040959973
119	0x3c18971d	0.009313372
120	0x3b9e59b2	0.00483247
121	0x3e37a592	0.17934254
122	0x3d9dc54d	0.07703648
123	0xbe0a2201	-0.13489534
124	0xbcee7630	-0.02910909
125	0x3daa35c5	0.08311037
126	0x3de18f7c	0.110136956
127	0xbe232b5e	-0.15934512
128	0x3cc3a95d	0.02388447
129	0x3dec22a8	0.11530048
130	0x3d30f871	0.043205682
131	0xbd887f75	-0.066649355
132	0x3c391749	0.0112970555
133	0xbd6729a5	-0.0564362
134	0xbcf491d4	-0.029854693
135	0xbda83515	-0.082132496
136	0xbc8e5e4f	-0.017378954
137	0xbdde3d99	-0.108515926
138	0x3e74ac3c	0.23893827
139	0xbdf0e676	-0.11762707
140	0x3c87f00b	0.016593954
141	0x3d8a7e8d	0.06762419
142	0x3e23defc	0.1600303
143	0x3b489180	0.0030604303
144	0x3d1bebcd	0.038066674
145	0xbd9b1ba9	-0.07573635
146	0x3cc76822	0.024341647
147	0xbee60a04	-0.44929516
148	0xbc0ef612	-0.00872566
149	0xbd682d0f	-0.056683596
150	0x3d3257cf	0.043540772
151	0x3e1ad3e4	0.15119892
152	0x3b91b360	0.004446432
153	0x3cc83fdb	0.024444511
154	0xbe15b611	-0.14620234
155	0xbd9e1417	-0.077186756
156	0x3c954090	0.018219262
157	0xbe11680a	-0.14199844
158	0xbd527282	-0.051378734
159	0xbd3292ab	-0.043596905
160	0x3dde5749	0.10856492
161	0x3df05d4f	0.11736547
162	0xbcda8455	-0.026674429
163	0xbe95a51a	-0.29227525
164	0x3cb31a13	0.02186302
165	0xbd341856	-0.04396852
166	0xbe0a3c43	-0.1349955
167	0x3d077ee5	0.03308
168	0xbd7893f0	-0.06068796
169	0xbdd0f413	-0.102028035
170	0xbd8f6b51	-0.07002891
171	0xbdaedaf1	-0.085378535
172	0x3d2779e7	0.04088774
173	0xbdbb7c13	-0.09154525
174	0xbdaa09e4	-0.08302668
175	0x3bba63dd	0.005688174
176	0x3d3afe7c	0.04565285
177	0xbc826e4c	-0.015921734
178	0xbd9dd2c2	-0.077062145
179	0xbc08f72b	-0.008359711
180	0x3da8e27e	0.08246325
181	0xbdf262d0	-0.11835253
182	0xbdae6636	-0.08515589
183	0xbbc87f3d	-0.0061186836
184	0xbcf5dcc7	-0.030012501
185	0xbd0d587f	-0.034508225
186	0xbd5899c0	-0.052881002
187	0x3d66c121	0.056336526
188	0xbccda4ad	-0.025102938
189	0xbbcc7b93	-0.006240317
190	0xbd644c1b	-0.055736642
191	0xbde03e79	-0.10949416
192	0xbd23c47d	-0.039982308
193	0x3d5c55e5	0.053792853
194	0x3c4ba71d	0.01242998
195	0xbd4c8057	-0.049927082
196	0xbdafb76b	-0.08579906
197	0xbdc59392	-0.096472874
198	0x3c6d7ff1	0.014495836
199	0xbdbd5b13	-0.09245887
200	0xbabfe4bd	-0.0014640313
201	0xbd91f3ea	-0.07126601
202	0xbdee97f1	-0.11650074
203	0x3cf9a9b1	0.030476423
204	0xba9377e5	-0.0011250941
205	0x3cdfbc1e	0.027311381
206	0x3d10e545	0.0353749
207	0xbd8a2637	-0.0674557
208	0xbcb8019d	-0.022461707
209	0x3d8d3fc0	0.06896925
210	0xbce64c6d	-0.028112615
211	0x3e17a7d2	0.14810112
212	0xbde0f610	-0.10984433
213	0x3c8f2fd4	0.01747886
214	0xbe02d491	-0.127764
215	0x3d7618a6	0.0600821
216	0xbdb8660f	-0.09003841
217	0xbc0b3c20	-0.008498222
218	0x3cc53e9c	0.024077706
219	0x3d6593df	0.056049224
220	0xbe02f6a8	-0.12789404
221	0xbd9839f6	-0.0743293
222	0xbc96b357	-0.018396063
223	0x3da70938	0.08156055
224	0x3dc7441e	0.09729789
225	0x3ad2a731	0.0016071555
226	0xbdc00674	-0.09376231
227	0xbde78f7d	-0.11306665
228	0x3d733664	0.059378043
229	0xbc8576f1	-0.016292067
230	0x3d3b0c7f	0.045666214
231	0xbdac6446	-0.08417563
232	0xbda1d5cf	-0.07902109
233	0x3e263867	0.16232453
234	0xbd08c878	-0.033394307
235	0xbde70a68	-0.11281282
236	0xbe389526	-0.18025646
237	0x3d8600c6	0.06543116
238	0xbd2196e2	-0.039450534
239	0xbcccb62d	-0.024989212
240	0xbd6a345b	-0.057178836
241	0xbd8bc3ea	-0.06824477
242	0x3aefd2da	0.0018297092
243	0xbdec3486	-0.115334556
244	0xbd64fcf3	-0.055905294
245	0xbc9d199e	-0.019177254
246	0x3c718431	0.01474099
247	0xbe0088a9	-0.12552132
248	0x3b53017d	0.0032196932
249	0xbbe16267	-0.0068781856
250	0xbcb5c1fb	-0.022187224
251	0x3cdc198e	0.026867654
252	0xbd6e19ca	-0.058130063
253	0xbe4c74c4	-0.19966418
254	0xbcfb93e2	-0.030710164
255	0xbd288dd9	-0.0411509

rnn.bias_hh_l0 f4 [512]
0	0xbe0a6793	-0.13516073
1	0xbdc80278	-0.09766096
2	0xbdfb62bd	-0.12274692
3	0x3c34c2da	0.011032784
4	0x3d84fec9	0.06493909
5	0x3d8ee2b0	0.06976831
6	0x3e1a7c1b	0.15086405
7	0x3e9b4a74	0.3033024
8	0xbda8163a	-0.082073644
9	0x3d299da9	0.041410122
10	0xbd6705a0	-0.05640185
11	0x3e8e0e97	0.27745506
12	0x3e0e4bd0	0.13896108
13	0x3c2247ff	0.0099048605
14	0xbdc6a2ba	-0.096990064
15	0xbd827168	-0.06369287
16	0xbd3e257e	-0.046422474
17	0xbda8bf03	-0.082395576
18	0xbd85808a	-0.065186575
19	0x3f6c1cc0	0.9223137
20	0xbe2c73a0	-0.16840982
21	0x3c01c62f	0.007920786
22	0xbe1574e0	-0.14595366
23	0xbdfd7a95	-0.12376896
24	0xbc7b2f55	-0.015331109
25	0xbd31f34b	-0.043444913
26	0xbdb7e168	-0.0897854
27	0xba71c194	-0.0009222266
28	0xbbafcd6a	-0.0053650634
29	0x3d55d0a6	0.052200936
30	0xbce5c030	-0.028045744
31	0x3d4f012c	0.050538227
32	0xbe17a690	-0.14809632
33	0xbdc87488	-0.097878516
34	0xbd4b9907	-0.049706485
35	0x3eeff8c7	0.4686949
36	0x3b6cccdf	0.0036132855
37	0xbe110d9d	-0.1416535
38	0x3e125fd7	0.14294372
39	0xbd4d0257	-0.05005106
40	0x3d97a922	0.074053064
41	0x3d98a267	0.07452851
42	0xbd9b17ca	-0.07572897
43	0xbc25a7a8	-0.010110773
44	0x3d55c0ca	0.05218581
45	0x3e7edd11	0.24889018
46	0xbcbba2a8	-0.022904709
47	0xbe337c4e	-0.17527887
48	0xbd3f73e2	-0.046741374
49	0x3b9f56f0	0.0048626587
50	0x3cbd2109	0.023087041
51	0xbe0c6c14	-0.13713104
52	0xbcadec2a	-0.021230776
53	0x3d8db431	0.069191344
54	0xbd9f4f51	-0.077788
55	0x3c95d312	0.018289123
56	0x3bc42475	0.0059857913
57	0xbc13e2ef	-0.009026273
58	0xbe21bb1a	-0.1579403
59	0x3ca8aca3	0.020590132
60	0x3d9f75ae	0.077861175
61	0xbd094cbe	-0.033520453
62	0x3d28d257	0.04121622
63	0x3e8e81da	0.27833444
64	0x3d55b4a5	0.05217423
65	0xbce0416b	-0.027374944
66	0x3a64394e	0.0008706049
67	0xbe535712	-0.20638683
68	0xbcdd0dcc	-0.026984118
69	0xbd15e907	-0.036599185
70	0xbc2fe21e	-0.010735063
71	0x3d89c44c	0.06726894
72	0x3db5401a	0.08850117
73	0x3da89050	0.082306504
74	0xbe1df8d0	-0.15426946
75	0xbde62eb0	-0.11239374
76	0xbe1a339c	-0.1505875
77	0xbe33c4f8	-0.17555606
78	0xbd416e8f	-0.047224578
79	0xbcd7d835	-0.026348213
80	0x3b3102f4	0.0027009817
81	0xbe1d00b5	-0.15332301
82	0xbd8c1e17	-0.06841677
83	0xbdc9f6f9	-0.098615594
84	0x3dc2d8f3	0.09514036
85	0xbd4f3c50	-0.050594628
86	0xbdf2ff63	-0.118651174
87	0xbd8fb597	-0.070170574
88	0x3bc24d19	0.005929601
89	0xbbd1ccc8	-0.0064025857
90	0xbdb43415	-0.08798996
91	0x3e05140c	0.12995929
92	0xbd18e67e	-0.03732919
93	0xbd6dd967	-0.05806866
94	0x3ab7d505	0.0014025277
95	0xbda7d080	-0.08194065
96	0xbcdc4d06	-0.026892196
97	0xbb702851	-0.0036645124
98	0x3c9fc27c	0.019501917
99	0xbdf3c8a8	-0.119035065
100	0xbd5d7d59	-0.05407462
101	0xbc96c86d	-0.018406117
102	0x3c507445	0.012723033
103	0x3c8d8f69	0.017280297
104	0xbd34bf05	-0.044127483
105	0xbe07b595	-0.13252862
106	0xbd8fb6ca	-0.07017286
107	0x3e3ec44c	0.18629569
108	0xba24efd1	-0.0006291839
109	0xbc2f0339	-0.010681921
110	0xbb16d5b6	-0.0023015565
111	0x3dba65ae	0.09101425
112	0xbe3b7c58	-0.18309152
113	0xbdc98b5d	-0.098410346
114	0xbd0020e0	-0.031281352
115	0xbc6a5896	-0.014303347
116	0xbc003310	-0.007824674
117	0xbcc246bd	-0.023715371
118	0xbdf6d2e3	-0.12051942
119	0x3dc0abcb	0.09407767
120	0xbcdab493	-0.026697433
121	0x3dbaaea1	0.09115339
122	0x3c867184	0.01641155
123	0x3ca80cac	0.020513855
124	0xbbc4b43e	-0.006002932
125	0x3e06e080	0.13171577
126	0x3def5bec	0.116874546
127	0xbdccc7fc	-0.099990815
128	0x3e29ff69	0.16601337
129	0x3df7db02	0.12102319
130	0x3daef818	0.08543414
131	0xbc80d189	-0.015724914
132	0xbd822db7	-0.06356376
133	0x3d0aced4	0.033888653
134	0xbc0b43d3	-0.008500057
135	0xbdeb5f1e	-0.114927515
136	0x3d5fe139	0.05465815
137	0xbda480af	-0.08032357
138	0x3e07720e	0.13227102
139	0xbe5adc42	-0.21373084
140	0xbdacaaaa	-0.08430989
141	0x3d8b7a75	0.06810466
142	0x3e01863a	0.1264886
143	0xbd1dc56c	-0.038518354
144	0xbd6bd21a	-0.057573415
145	0x3d381a91	0.04494721
146	0x3d1da21e	0.038484685
147	0xbef991f8	-0.48744178
148	0x3c185899	0.009298467
149	0xbdc2995d	-0.09501908
150	0xbdfaf2a9	-0.12253315
151	0x3d9d477c	0.0767965
152	0x3bee4c31	0.0072722663
153	0xbd66332a	-0.056201138
154	0xbe245116	-0.16046557
155	0xbdd506a1	-0.10401655
156	0xbcd6a54b	-0.026201865
157	0xbe1755aa	-0.14778772
158	0x3ddb77f0	0.10716236
159	0xbe284043	-0.16430764
160	0x3c94370f	0.01809266
161	0xbc766626	-0.0150390025
162	0x3d11957f	0.03554296
163	0xbe861058	-0.26184344
164	0x3d7fef07	0.062483814
165	0xbd78b9d7	-0.060724106
166	0xbe40e8ec	-0.18838853
167	0xbc7bce03	-0.015368941
168	0xbdb1531f	-0.08658432
169	0xbe36343c	-0.17793363
170	0x3bc940cd	0.006141758
171	0x3d0e6ca3	0.034771573
172	0xbda19495	-0.07889668
173	0xbc8b6640	-0.01701653
174	0xbcf75952	-0.030193958
175	0xbc549633	-0.012975263
176	0xbde7e143	-0.11322262
177	0xbd9c3393	-0.076270245
178	0x3cb94cdb	0.022619655
179	0xbcdaa965	-0.026692102
180	0x3d8fda27	0.07024031
181	0xbd279e48	-0.040922433
182	0x3cdbf24d	0.026848936
183	0xbc265716	-0.010152599
184	0xbcfda5e6	-0.030962896
185	0xbc717f39	-0.014739805
186	0xbbd07d2e	-0.006362579
187	0x3d0ec028	0.034851223
188	0xbe1a5614	-0.15071899
189	0xbdc2b677	-0.09507459
190	0xbd26f6b2	-0.04076261
191	0xbe188a2c	-0.14896458
192	0xbd30f990	-0.04320675
193	0xbdc82e6c	-0.09774479
194	0x3d4a23a6	0.049350403
195	0xbd8ad3e9	-0.067787
196	0xbe26f78b	-0.16305368
197	0xbd0c80f1	-0.034302656
198	0xbdf7eb6f	-0.12105452
199	0x3d0bc17d	0.03412007
200	0x3d90efdd	0.07077
201	0x3c091e8a	0.0083690975
202	0xbe010e7c	-0.12603182
203	0x3d2c0ccf	0.042004403
204	0x3d25e99c	0.04050599
205	0x3dec5e68	0.11541444
206	0x3d97c7e3	0.07411172
207	0x3db924ea	0.09040244
208	0xbdcbd535	-0.099527754
209	0x3d949001	0.07254029
210	0xbd127cb7	-0.03576347
211	0x3e49e2b6	0.1971539
212	0xbe1a9a2d	-0.15097876
213	0xbb437c26	-0.0029828637
214	0xbdac027b	-0.083989106
215	0xbd8a89c5	-0.06764559
216	0x3cb58a2d	0.022160614
217	0x3c9dd6ed	0.019267524
218	0xbdb1a1ed	-0.08673463
219	0x3d63bd21	0.05560029
220	0xbc8ec6b7	-0.017428739
221	0x3da747c3	0.08167984
222	0xbd482cd7	-0.048870888
223	0xbd28b076	-0.04118391
224	0x3dfb1d80	0.12261486
225	0x3cdbb531	0.026819797
226	0xbddd5ace	-0.10808335
227	0xbd6a8313	-0.05725391
228	0xbdd5b7bc	-0.10435435
229	0xbc500777	-0.012697092
230	0xbda85fb4	-0.08221379
231	0xbdc48292	-0.09595217
232	0xbdc77b57	-0.09740322
233	0x3e48b1ee	0.19599125
234	0xbd8e0c51	-0.06935943
235	0xbe0e10cd	-0.13873596
236	0xbd051ea7	-0.032499935
237	0x3dc99581	0.09842969
238	0xbce7ecd3	-0.028311169
239	0xbe1130b3	-0.14178734
240	0xbd999ffc	-0.07501218
241	0xbdddd868	-0.10832292
242	0x3d5be48f	0.053684767
243	0xbbb46058	-0.005504649
244	0xbdddd93d	-0.108324505
245	0xbcbb3cb4	-0.022856094
246	0x3d884945	0.066546
247	0xbddec7f7	-0.10877984
248	0xbdd857dc	-0.10563633
249	0xbd9d641b	-0.07685109
250	0xbe18d20b	-0.14923875
251	0xbcdd7197	-0.027031703
252	0x3cc6aa2f	0.024251072
253	0xbd626142	-0.055268534
254	0xbddd65ef	-0.10810458
255	0xbce5376e	-0.027980532

fc1.weight f4 [128, 387]
0	0xbb9b6306	-0.004742029
1	0x3c8fc588	0.017550245
2	0x3d63fa76	0.05565878
3	0x3c229338	0.009922795
4	0x3d97526c	0.073887676
5	0xbc9df0dd	-0.019279892
6	0xbc819625	-0.015818665
7	0xbd17fb77	-0.03710505
8	0x3dc9f7e0	0.098617315
9	0xbd633f81	-0.055480484
10	0xbca9fb52	-0.020749722
11	0xbc3fb4cd	-0.011700821
12	0xbccf15b9	-0.025278913
13	0x3d472ace	0.048624806
14	0x3d87b2e3	0.06625917
15	0x3cd3177c	0.025768034
16	0x3d802912	0.062578335
17	0xbcb72e67	-0.022360994
18	0xbda8d205	-0.08243183
19	0x3e21d94d	0.1580555
20	0x3d0fcd8a	0.035108127
21	0xbd0c7892	-0.034294672
22	0x3d66c6da	0.056341983
23	0x3c90d0a1	0.017677607
24	0xbc6e521b	-0.014545943
25	0xbc32e7cd	-0.010919523
26	0x3d1fe670	0.03903812
27	0xbd950940	-0.07277155
28	0xbcdba8d7	-0.026813908
29	0x3c89a2d3	0.016801273
30	0xbb7155d0	-0.003682483
31	0xbcefb26b	-0.029259881
32	0x3d142145	0.03616454
33	0x3cff216c	0.031143866
34	0xbd6feccf	-0.058575448
35	0x3cb6d557	0.022318525
36	0x3cea7fe1	0.02862543
37	0xbd607068	-0.0547947
38	0x3a4a8883	0.00077260303
39	0xbdc7dac0	-0.0975852
40	0xbd0a15f9	-0.03371236
41	0xbd569d92	-0.052396365
42	0x3d4915bb	0.04909299
43	0x3d502003	0.05081178
44	0x3d0ca260	0.03433454
45	0x3cbb1e36	0.022841554
46	0xbd890643	-0.066906475
47	0xbd92548f	-0.071450345
48	0xbb73dbbe	-0.0037209834
49	0xbd70a5b9	-0.058751795
50	0xbb5025a7	-0.0031760724
51	0x3d18e5a3	0.037328374
52	0xbe4003a2	-0.18751386
53	0x3d529007	0.051406886
54	0x3c229143	0.009922328
55	0xbd87e46d	-0.06635366
56	0xbca4117e	-0.020027872
57	0x3c78f681	0.01519549
58	0xbcdbd269	-0.02683373
59	0xbd239c26	-0.039943837
60	0xbc62f826	-0.0138531085
61	0x3cad5b93	0.02116183
62	0x3c520a52	0.012819843
63	0x3d4a25be	0.0493524
64	0x3dcef10f	0.10104572
65	0xbd19c855	-0.037544567
66	0xbd514235	-0.05108853
67	0x3c7a94bc	0.01529425
68	0x3c084669	0.008317568
69	0xbcde63fe	-0.02714729
70	0xbc767541	-0.015042604
71	0xbd98268b	-0.074292265
72	0x3db91c7f	0.09038638
73	0x3d7043c2	0.05865837
74	0x3ce51e59	0.027968572
75	0xbc84a0b4	-0.01618991
76	0x3cc44254	0.023957409
77	0xbcd08cdb	-0.02545779
78	0xbdc11b0d	-0.09428988
79	0x3da9b95a	0.08287306
80	0xbd712666	-0.05887451
81	0xbc68bb57	-0.014204822
82	0xbcefac12	-0.029256854
83	0xbd3f7de5	-0.04675092
84	0x3c20e5cb	0.009820412
85	0x3d31811e	0.043336026
86	0xbd13627b	-0.03598259
87	0xbd4afa67	-0.04955521
88	0x3c68c91b	0.0142081035
89	0xbc4988e9	-0.012300708
90	0xbd0edb76	-0.034877263
91	0x3b798dd7	0.0038078928
92	0xbd93e361	-0.072211035
93	0x3de0be9a	0.10973854
94	0xbd018ad4	-0.031626537
95	0xbb792a28	-0.0038019512
96	0x3cbf17a4	0.023326702
97	0xbb1fa6b5	-0.002436084
98	0x3c16b5bc	0.009198602
99	0xbd19a632	-0.03751201
100	0x3d68f433	0.05687351
101	0xbdec0ea2	-0.115262285
102	0xbda50a39	-0.080585904
103	0xbd3153b0	-0.0432927
104	0x39985632	0.0002905592
105	0xbcf7823d	-0.03021347
106	0xbc8dcf7d	-0.017310852
107	0xbd8405b4	-0.064464
108	0xbd0e3761	-0.034720782
109	0xbcaeae9c	-0.021323495
110	0xbcdcc254	-0.026948132
111	0x3d8dbb1a	0.069204524
112	0xbd604a64	-0.054758444
113	0xbca777eb	-0.020442924
114	0xbd895f8f	-0.067076795
115	0xbd8c4b33	-0.068502806
116	0xbd5bf634	-0.053701594
117	0xbd8f0d64	-0.06984976
118	0xbdef6d06	-0.116907164
119	0x3b7a8595	0.0038226594
120	0xbc90529b	-0.017617514
121	0x3dd9565d	0.106121756
122	0xbd5dae4f	-0.05412131
123	0xbd7d8210	-0.061891615
124	0x3d9c0119	0.07617397
125	0x3d6a666a	0.057226576
126	0x3da17f6d	0.07885633
127	0x3d2c46f8	0.04205987
128	0x3d842578	0.06452459
129	0x3d777bbc	0.060420737
130	0x3c7c3e6f	0.015395745
131	0x3b3c282b	0.0028710465
132	0xbe0e7b00	-0.13914108
133	0xbc40a4aa	-0.011758009
134	0xbd9547a9	-0.07289059
135	0x3d08ede0	0.03342998
136	0xbc0254b0	-0.007954761
137	0x3da33817	0.07969683
138	0x3c2c6e42	0.010524334
139	0xbd635504	-0.055501
140	0x3b57a5b5	0.0032905166
141	0x3c1bb789	0.009504207
142	0x3d50be09	0.05096248
143	0x3d0c03db	0.034183364
144	0xbbbfcd6b	-0.005853345
145	0x3d64ab6e	0.05582755
146	0x3d345108	0.04402259
147	0xbc1ee4d4	-0.009698112
148	0xbd14904d	-0.03627043
149	0xbcc214db	-0.023691585
150	0x3d0fc1cb	0.035096925
151	0x3d47dc1b	0.048793893
152	0x38b5f28b	8.67593e-05
153	0x3d650546	0.055913232
154	0x3d07ca11	0.03315169
155	0xbc463cb6	-0.012099436
156	0xbd49d6ff	-0.049277302
157	0x3cb53273	0.022118783
158	0xbd838b56	-0.064230606
159	0xbcb4ad27	-0.022055222
160	0x3bc77360	0.006086752
161	0xbe4749cf	-0.1946175
162	0x3ca333b4	0.019922115
163	0x3dc4d2ec	0.09610543
164	0x3d1d3b53	0.038386654
165	0x3bfcd434	0.0077157263
166	0xbcc6ebc4	-0.024282344
167	0xbd31f30d	-0.043444682
168	0x3c7cd46a	0.015431503
169	0x3d91ae1e	0.07113288
170	0x3d145648	0.036215097
171	0x3d33c878	0.043892354
172	0x3d264e10	0.04060179
173	0xbe08c43a	-0.13356104
174	0xbbb98b42	-0.005662353
175	0x3d1a373c	0.03765033
176	0xbda55080	-0.08071995
177	0x3e0155c4	0.12630373
178	0x3bb45108	0.0055028237
179	0x3d14303b	0.03617881
180	0xbca94ff0	-0.020668
181	0xbd8669ab	-0.06563123
182	0x3d5751a6	0.0525681
183	0x3d885240	0.06656313
184	0xbd99a5e3	-0.075023435
185	0xbdc39064	-0.09549025
186	0xbdcc7e28	-0.09985
187	0x3ce64aca	0.028111834
188	0x3c1efa25	0.009703194
189	0xbaf16099	-0.0018415629
190	0x3e01ba8b	0.12668817
191	0x3c5d2ecf	0.01349993
192	0xbc2a80c3	-0.010406676
193	0xbdb9d4f6	-0.09073822
194	0xbb061ae8	-0.0020462815
195	0x3c26d2f9	0.010182136
196	0xbc837231	-0.016045662
197	0xbd459eee	-0.04824727
198	0xbe44d181	-0.19220544
199	0x3d86eaee	0.06587778
200	0xbc3f16b9	-0.011663132
201	0xbc628211	-0.013824956
202	0x3d633916	0.055474363
203	0xbccc0c73	-0.02490828
204	0xbb8c38d5	-0.004279236
205	0x3d4f1dfa	0.050565697
206	0x3d81cba4	0.063376695
207	0x3d8b1e58	0.06792897
208	0x3c5ede26	0.013602769
209	0xbc8e0af4	-0.017339207
210	0x3ca2557e	0.019816156
211	0x3cfbedf9	0.030753123
212	0x3d7b67dc	0.061378345
213	0xbc3a86ea	-0.011384705
214	0x3d47aee4	0.048750773
215	0x3cbbfcb6	0.02294765
216	0x3d71633f	0.05893254
217	0xbd9e7e73	-0.07738962
218	0xbdb0928c	-0.086217016
219	0x3d17431c	0.036929235
220	0x3c98dacb	0.018659016
221	0x3bc63e81	0.0060499315
222	0x3d640be3	0.0556754
223	0x3db61f87	0.08892732
224	0x3dbce2cd	0.09222946
225	0x3d59ad39	0.053143714
226	0xbd02bfaf	-0.031921085
227	0xbc3431e5	-0.010998224
228	0x3c80720a	0.015679378
229	0xbbaeaa32	-0.0053303475
230	0x3ad53cbe	0.0016268713
231	0xbd5fc9ae	-0.054635696
232	0x3d23184b	0.03981809
233	0xbda91462	-0.08255841
234	0xbd9028ca	-0.0703903
235	0x3bee83a3	0.007278876
236	0x3d09e6c1	0.03366733
237	0xbd8211fd	-0.06351087
238	0xbd80246a	-0.062569454
239	0xbd2085bd	-0.039190043
240	0xbd3ce52e	-0.046117
241	0x3d85358b	0.06504353
242	0xbd879a1a	-0.066211894
243	0x3d6e06e8	0.058112055
244	0x3d25cfd9	0.040481422
245	0x3bc1b2ca	0.005911206
246	0x3d442e51	0.047895733
247	0xbdf50d62	-0.11965443
248	0x3b70283e	0.003664508
249	0x3d83cb18	0.064352214
250	0xbcc025d6	-0.023455542
251	0x3d16ef4c	0.036849305
252	0xbded3c25	-0.11583737
253	0xbd5cb077	-0.053879227
254	0x3b9563e5	0.0045590275
255	0x3d671b71	0.056422655

fc1.bias f4 [128]
0	0x3db700de	0.08935712
1	0x3d125a19	0.035730455
2	0x3da135ca	0.078715876
3	0x3de93ad6	0.11388175
4	0x3ba88f9f	0.005144074
5	0xbdd24f19	-0.10268993
6	0x3d24628e	0.04013305
7	0xbd27de9c	-0.04098378
8	0x3cdf8bc0	0.027288318
9	0xbc94fe68	-0.018187717
10	0x3c8c7b4f	0.017148642
11	0xbd3feca5	-0.04685654
12	0xbd465419	-0.048420046
13	0x3b9599a8	0.0045654364
14	0x3e1cdef7	0.1531943
15	0xbd10a6e5	-0.035315413
16	0x3d9853d3	0.07437863
17	0xbd7f7be4	-0.06237401
18	0x3ca5f493	0.020258224
19	0xbd4762b4	-0.048678115
20	0x3d75c7ca	0.060004987
21	0x3cae31c5	0.021263966
22	0x3acfdadd	0.0015858073
23	0xbd9852eb	-0.0743769
24	0x3e924144	0.2856542
25	0x3dbb331f	0.0914061
26	0x3d3bcb2a	0.04584805
27	0xbd9ca407	-0.07648473
28	0xbc4971c2	-0.012295188
29	0x3d7e1b2e	0.06203764
30	0x3d315348	0.043292314
31	0x3b78239a	0.0037863017
32	0xbc542f1c	-0.012950685
33	0xbce43336	-0.02785645
34	0x3c213850	0.009840086
35	0x3d259428	0.040424496
36	0x3bac0040	0.0052490532
37	0xbd293bc5	-0.041316766
38	0xbd7307d0	-0.059333622
39	0xbd42ec2d	-0.047588516
40	0xbda87265	-0.08224944
41	0x3dd488c9	0.10377652
42	0x3cbe74ed	0.023249114
43	0x3ba6baf9	0.005088207
44	0x3e104289	0.14087881
45	0xbd905cb6	-0.07048933
46	0x3dc0262f	0.09382283
47	0x3d135f85	0.035979766
48	0xbc665876	-0.014059177
49	0x3dbbe443	0.09174397
50	0x3c9531b6	0.01821218
51	0x3d8e7502	0.06955911
52	0xbdc2e76b	-0.09516796
53	0x36ab1b62	5.099385e-06
54	0xbd59a031	-0.053131286
55	0x3da15fdb	0.07879611
56	0x3cccf22c	0.02501782
57	0x3d0bc8a7	0.034126904
58	0x3dba578f	0.09098732
59	0xbd3efce9	-0.046627913
60	0x3d5ecb38	0.054393023
61	0xbd7586e3	-0.05994309
62	0x3d57db49	0.05269936
63	0xbd8e7737	-0.06956332
64	0x3d3ad271	0.04561085
65	0xbd6123ac	-0.05496566
66	0x3cd31973	0.025768971
67	0xbcf14bc8	-0.02945508
68	0xbd5eb7e6	-0.054374598
69	0xbd78003c	-0.0605471
70	0x3d248a9d	0.040171254
71	0xba9f826a	-0.0012169604
72	0xbd046d7c	-0.032330975
73	0x3ca485cf	0.020083336
74	0xbd9c808b	-0.07641705
75	0x3d5b10de	0.053482883
76	0xbd3fb312	-0.046801634
77	0x3a8b3fea	0.0010623906
78	0xbcfdc22d	-0.03097638
79	0xbd69c91f	-0.05707657
80	0x3df2182e	0.11821018
81	0xbc4fe1f8	-0.0126881525
82	0xbc399bba	-0.011328632
83	0x3d1b5f36	0.037932597
84	0x3d663a0c	0.0562077
85	0xbbb507a1	-0.005524591
86	0x3e0c72d4	0.13715678
87	0x3b88e629	0.004177828
88	0xbda00c0e	-0.07814799
89	0x3b7a228c	0.0038167564
90	0xbd9221e3	-0.0713537
91	0xbdb276a0	-0.08714032
92	0xbc3246fd	-0.010881183
93	0x3db3325a	0.08749838
94	0xbd0557ee	-0.03255456
95	0xbdd5f795	-0.10447613
96	0x3d973b77	0.07384389
97	0xbd927577	-0.07151311
98	0x3d714bad	0.05891006
99	0xbd0167c0	-0.031593084
100	0xbd13da6e	-0.036096983
101	0x3bbb7492	0.0057206834
102	0xbcec74bf	-0.028864263
103	0xbdb16f8b	-0.08663853
104	0xbca5befd	-0.020232672
105	0x3d87fc55	0.066399254
106	0xbdadc98f	-0.0848571
107	0x3deaae74	0.114590555
108	0xbde85016	-0.113434
109	0xba9b64fa	-0.0011855655
110	0xbcf711f6	-0.030159932
111	0x3c884750	0.016635567
112	0x3df01bd5	0.117240585
113	0x3d6b7e11	0.057493273
114	0xbd4ee737	-0.050513472
115	0x39c2e5ea	0.00037173863
116	0xbd068bb3	-0.03284807
117	0x3dcc03e9	0.09961683
118	0xbdbb1bc9	-0.09136159
119	0xbc973178	-0.018456206
120	0xbd3e5f58	-0.046477646
121	0x3cc8984a	0.02448668
122	0x3e0db7d5	0.13839658
123	0x3d0b1b20	0.033961415
124	0x3d3c87cf	0.046027955
125	0xbd437a66	-0.04772415
126	0x3c926060	0.01786822
127	0xbb21c5c2	-0.0024684523

fc2.weight f4 [128, 128]
0	0xbc336348	-0.010948963
1	0xbd1f535f	-0.03889787
2	0x3d98fdc4	0.07470277
3	0x3de1fb67	0.11034279
4	0xbd63e2f0	-0.055636346
5	0xbd33165a	-0.043722488
6	0x3d9b3993	0.07579341
7	0x3d067e84	0.0328355
8	0xbcad0baf	-0.021123735
9	0xbd32ddbb	-0.04366849
10	0x3d42374f	0.047416028
11	0xbc32f17e	-0.010921834
12	0xbd8da197	-0.069155864
13	0xbdffe436	-0.124947
14	0x3c884ae2	0.01663727
15	0x3d239842	0.039940126
16	0x3c68be57	0.014205537
17	0x3c1a27bb	0.009408887
18	0xbc450438	-0.012024932
19	0x3dfde27d	0.12396715
20	0xbb8cf9f6	-0.0043022586
21	0xbde806b1	-0.11329401
22	0xbd5a7b3f	-0.053340193
23	0xbceef1b9	-0.029167997
24	0xbd7a3dfe	-0.061094277
25	0x3dc3a94d	0.09553776
26	0xbda6ccc2	-0.08144523
27	0x3d56ce86	0.05244305
28	0xbb8c4edc	-0.0042818617
29	0x3d221f34	0.03958054
30	0x3d288f21	0.041152123
31	0xbdc00d02	-0.09377481
32	0xbe4a39d5	-0.19748624
33	0x3d0ccfc0	0.034377813
34	0x3c63a0cb	0.0138933165
35	0x3d427381	0.047473434
36	0x3dc48d41	0.095972545
37	0xbcf61d3a	-0.030043233
38	0x3d9b04f2	0.075693026
39	0x3c1b791e	0.009489326
40	0xbbc039c6	-0.005866262
41	0x3dbfcdc9	0.09365422
42	0xbd92410d	-0.07141314
43	0x3bd2560b	0.0064189485
44	0x3d138737	0.036017623
45	0x3dc32e31	0.09530295
46	0x3ccdad8f	0.025107173
47	0xbd110c15	-0.035411913
48	0xba44cf59	-0.0007507704
49	0x3d930a49	0.07179696
50	0xbd30df6c	-0.04318182
51	0x3dbcd0e9	0.09219534
52	0x3e2f5599	0.17122497
53	0x3ddf7d24	0.109125406
54	0xbddb6644	-0.10712865
55	0x3d14ba91	0.036310736
56	0xbc25912e	-0.010105414
57	0xbcb5771b	-0.02215152
58	0xbd8078dd	-0.06273053
59	0xbbc54355	-0.0060199895
60	0xbc28c907	-0.010301835
61	0x3d4da645	0.050207395
62	0x3d0ecae0	0.034861445
63	0xbd24258f	-0.04007488
64	0xbadfdcc3	-0.0017079342
65	0x3db3ec04	0.08785251
66	0xbd6fed0a	-0.058575667
67	0xbd1fa7c4	-0.038978353
68	0xbd9d6ccf	-0.07686769
69	0xbd01ff02	-0.031737335
70	0x3d899ed0	0.06719744
71	0x3d50bcee	0.050961427
72	0x3c94e251	0.018174322
73	0x3d113931	0.035454933
74	0xbcb6e1de	-0.022324499
75	0xbdf08110	-0.11743367
76	0x3d3ddae0	0.046351314
77	0xbd19b8f1	-0.03752989
78	0x3d35f7c5	0.044425745
79	0x3c1c763a	0.009549672
80	0x3d13ff82	0.036132343
81	0x3d86e040	0.06585741
82	0xbd765402	-0.06013871
83	0x3ccaf4ef	0.024774997
84	0xbca9da7d	-0.020734066
85	0x3caefa9f	0.02135974
86	0xbd906d27	-0.07052069
87	0xbda3238e	-0.07965766
88	0xbc5d76fc	-0.013517138
89	0x3d0546ca	0.032538213
90	0xbd6cdc2e	-0.057827167
91	0xbd9fdf47	-0.07806259
92	0x3c16d8fb	0.009207006
93	0x3c8b729e	0.017022427
94	0x3bb1fd3c	0.005431799
95	0xbc8bc9e6	-0.017064046
96	0xbcd1f27f	-0.025628326
97	0x3d5546ff	0.05206966
98	0x3e07ad33	0.13249664
99	0x3c705757	0.014669261
100	0xbc7eb2be	-0.015545545
101	0xbd638bd0	-0.055553257
102	0x3d12ed8e	0.03587108
103	0xbd01929e	-0.031633966
104	0x3d9f0af6	0.077657625
105	0xbd3327c4	-0.043739095
106	0x3d8091ed	0.06277833
107	0x3d3dfae2	0.04638184
108	0xbdc2938c	-0.095007986
109	0x3b99884a	0.0046854364
110	0xbd90bcc1	-0.07067252
111	0xbe1365fc	-0.14394373
112	0x3dcf7d1b	0.10131284
113	0x3d80e089	0.06292827
114	0x3ad6cec8	0.001638853
115	0x3dcbc0a2	0.09948851
116	0x3d240a1a	0.040048696
117	0xbd3aa6d4	-0.045569256
118	0xbc960906	-0.01831485
119	0x3be433f1	0.0069641997
120	0xbc6504c4	-0.013978187
121	0x3dc4bb95	0.09606091
122	0x3d673612	0.05644805
123	0xbc35469b	-0.011064197
124	0xbce5a3fb	-0.028032294
125	0x3d6d00e5	0.05786218
126	0x3dbf8d15	0.09353081
127	0x3de17b47	0.110098414
128	0x3d0f1e15	0.034940798
129	0xbbfd7347	-0.0077346894
130	0xbcc92fda	-0.02455895
131	0x3cd670ad	0.026176775
132	0x3cee071f	0.02905613
133	0x3dd31dd3	0.10308423
134	0xbdad7720	-0.08469987
135	0xbb7f1848	-0.0038924385
136	0xbc0a36de	-0.008435933
137	0xbdc62405	-0.09674839
138	0x3d4b096b	0.04956953
139	0x3d56085b	0.052254062
140	0xbd97b0a7	-0.07406741
141	0xbd98c376	-0.07459156
142	0xbdab027e	-0.08350085
143	0xbdbab65b	-0.09116813
144	0x3d512fe2	0.051071055
145	0xbe0c603c	-0.13708586
146	0xbd2a8616	-0.04163178
147	0x3da77bbc	0.08177897
148	0xbd06b7c5	-0.0328901
149	0xbd5680ab	-0.0523688
150	0x3ca314ba	0.019907344
151	0x3d275056	0.0408481
152	0x3c51d6a4	0.012807522
153	0xbdbedc4c	-0.09319362
154	0x3cd0bc95	0.025480548
155	0x3d3ec086	0.046570323
156	0xbc02f34d	-0.007992578
157	0xbe0b682d	-0.13613959
158	0xbdd4e83c	-0.10395858
159	0xbdfd65e0	-0.12372947
160	0x3df6c396	0.12049024
161	0x3d8b53d9	0.06803102
162	0xbdcace97	-0.09902685
163	0x3dce403f	0.10070848
164	0xbd0ae9bc	-0.033914313
165	0xbabccc4b	-0.0014404146
166	0xbe112606	-0.14174661
167	0xbb8c0bee	-0.004273883
168	0x3c573e19	0.013137364
169	0x3dcfd5b7	0.10148185
170	0x3d08dcbd	0.033413637
171	0x3d4f3560	0.05058801
172	0x3cdb629d	0.02678042
173	0xbdffc046	-0.12487845
174	0x3de51e9b	0.11187478
175	0x3dc86589	0.09784991
176	0x3daa5a48	0.08318001
177	0x3c54cb69	0.01298795
178	0x3c9f3190	0.019432813
179	0xbb69a582	-0.003565163
180	0x3d264211	0.04059035
181	0x3dc913f0	0.09818256
182	0xbd492689	-0.049109016
183	0xbd1dd565	-0.038533587
184	0xbdc4bf2a	-0.09606774
185	0xbd293a25	-0.041315217
186	0xbc84cbce	-0.016210463
187	0x3d8fbb9a	0.07018204
188	0x3da8a531	0.08234633
189	0x3cb95f37	0.02262841
190	0xbddbd475	-0.10733882
191	0x3d982016	0.07427995
192	0xbd28995c	-0.04116188
193	0x3d0201f2	0.031740136
194	0xbd1dc7d6	-0.038520657
195	0x3db1645b	0.086617194
196	0xbd17bbf5	-0.037044484
197	0xbb5d0480	-0.0033724606
198	0x3ae256eb	0.0017268335
199	0x3d1ab905	0.037774105
200	0xbe05e545	-0.1307574
201	0x3c819a95	0.01582078
202	0xbd101851	-0.03517944
203	0x3cff697c	0.031178229
204	0xb8fcf680	-0.000120622106
205	0xbd2f11b0	-0.042741477
206	0xbdb56ab2	-0.08858241
207	0xbcd71c2d	-0.026258552
208	0xbd1d91e1	-0.0384692
209	0x3d8d9d4c	0.069147676
210	0xbd862ff9	-0.06552119
211	0xbd6a1512	-0.057149
212	0x3c448f56	0.011997065
213	0xbc6f3bc4	-0.014601652
214	0x3cea4875	0.028599003
215	0x3c16f45c	0.009213533
216	0xbd6afc9f	-0.057369824
217	0xbe0a0e40	-0.13481998
218	0x3c81f5c2	0.015864257
219	0xbc55834a	-0.01303179
220	0x3c86fa8f	0.016476898
221	0xbbc245ce	-0.0059287315
222	0xbd4859e2	-0.048913844
223	0xbd6442b5	-0.05572768
224	0x3bb049cc	0.005379891
225	0xbb8d3d4d	-0.004310286
226	0x3dfa11bf	0.12210416
227	0x3d954def	0.07290255
228	0x3d40e383	0.047091972
229	0x3cd36d1f	0.025808869
230	0xbc2a7bd6	-0.010405501
231	0x3d165ff5	0.036712606
232	0xbd5ac668	-0.05341187
233	0xbd000ad3	-0.031260323
234	0xbd4a4210	-0.04937941
235	0xbd026d79	-0.031842683
236	0xbb9b3d25	-0.0047375136
237	0xbd735527	-0.05940738
238	0x3b72169a	0.003693974
239	0x3d1b2f19	0.037886713
240	0xbca2bb10	-0.019864589
241	0x3db7d568	0.08976251
242	0x3e21a83d	0.15786834
243	0x3d40be95	0.047056753
244	0xbd9c4db3	-0.076320074
245	0xbe215598	-0.15755308
246	0x3cba149b	0.022714904
247	0x3e37aaaa	0.17936197
248	0x3caeab55	0.021321932
249	0x3c96060d	0.018313432
250	0xbd2dae63	-0.042402636
251	0xbdd7caed	-0.10536752
252	0x3d7d8cec	0.06190197
253	0x3a26ab96	0.0006357966
254	0x3ca15aed	0.019696677
255	0xbd26994f	-0.04067355

fc2.bias f4 [128]
0	0x3df40738	0.11915439
1	0xbdebddcd	-0.115169145
2	0x3cb9bdde	0.022673544
3	0xbdbfe5ba	-0.09369989
4	0xbd7cdf15	-0.061736185
5	0xbd006af3	-0.031351995
6	0xbd398e17	-0.045301523
7	0xbd6851fb	-0.056718808
8	0x3d6dc135	0.058045585
9	0xbded3645	-0.11582617
10	0x3c808512	0.015688453
11	0xbca95ba0	-0.020673573
12	0xbcdbd83f	-0.026836513
13	0x3d055df2	0.032560296
14	0xbd602f42	-0.05473257
15	0x3dacfc86	0.084466025
16	0xbb19c395	-0.0023462523
17	0x3e4a4b18	0.19755208
18	0x3d720ea7	0.059096005
19	0x3d803369	0.06259806
20	0xbdb8f622	-0.09031321
21	0x3e24792a	0.16061845
22	0x3d969da3	0.073542856
23	0x3d49296c	0.04911177
24	0x3ce2294c	0.027607583
25	0x3bdd9483	0.0067620887
26	0xbcde1a34	-0.027112104
27	0xbe691626	-0.22762355
28	0xbd05fc0e	-0.03271108
29	0x3e03c41f	0.12867783
30	0x3d8e8f3d	0.06960914
31	0x3ddcd8ac	0.107835144
32	0x3d9a0afa	0.07521625
33	0x3d86f500	0.06589699
34	0xbe57bf7f	-0.21069144
35	0x3d7bb687	0.06145337
36	0xbd430d35	-0.047620017
37	0x3dc521cc	0.09625587
38	0x3dfac5c9	0.12244756
39	0xbc50e5ba	-0.012750084
40	0xbde881a8	-0.11352855
41	0x3d55249d	0.05203687
42	0xbd9aebad	-0.07564483
43	0x3de213dc	0.11038944
44	0x3d400520	0.046879888
45	0x3e219492	0.15779331
46	0xbd3001f2	-0.042970605
47	0x3a0ad588	0.0005296101
48	0xbd0030b8	-0.03129646
49	0x3d73ac97	0.059490766
50	0x3de9f4b5	0.11423627
51	0x3d09771f	0.03356087
52	0xbd34f1db	-0.044175964
53	0x3d2e3b79	0.042537186
54	0xbe8a5729	-0.27019623
55	0x3cd14413	0.025545156
56	0x3cd49dec	0.02595421
57	0xbb94e1b0	-0.0045435056
58	0x3d463ec8	0.048399717
59	0x3dd80273	0.10547342
60	0x3c29a375	0.010353913
61	0x3df37914	0.11888328
62	0x3cbd4537	0.023104293
63	0x3d5370b4	0.051621154
64	0xbcaf25f5	-0.021380404
65	0x3dc3b481	0.09555913
66	0x3e2ae113	0.16687422
67	0xbddb2ae8	-0.10701543
68	0xbe11431a	-0.14185753
69	0x3dcae2a2	0.09906508
70	0x3deb4744	0.11488202
71	0x3d02253c	0.03177379
72	0xbce11a6d	-0.027478421
73	0x3d60220f	0.05471998
74	0x3ddb47a5	0.107070245
75	0x3e3fcd3c	0.18730634
76	0x3d78a425	0.060703415
77	0x3d01d2a3	0.03169502
78	0xbd748d6f	-0.059705194
79	0xbdcd00bd	-0.100099064
80	0xbd73ea66	-0.05954971
81	0x3de2f8e7	0.110826306
82	0x3dbe2e3b	0.092861615
83	0x3e0dbbd9	0.1384119
84	0x3d87410c	0.066042036
85	0xbc6ce807	-0.0144596165
86	0xbd69e2e7	-0.057101157
87	0xbd8ba604	-0.06818774
88	0xbe13afb7	-0.14422499
89	0xbd756f8a	-0.059920825
90	0xbc949354	-0.018136658
91	0x3da7dded	0.08196626
92	0x3dce9ccd	0.10088501
93	0xbe12fb90	-0.14353776
94	0x3dd3bd9f	0.10338902
95	0xbdb05ce7	-0.0861147
96	0x3d48e583	0.049047004
97	0xbdc1aff9	-0.09457392
98	0x3d018c83	0.031628143
99	0x3e50a781	0.20376398
100	0x3dd21bd3	0.10259213
101	0x3dd3df75	0.103453554
102	0x3d9146dc	0.070935935
103	0xbe408191	-0.18799426
104	0x3dd24ab4	0.10268155
105	0x3dfa0712	0.1220838
106	0xbd2640c0	-0.040589094
107	0xbe11a583	-0.14223294
108	0x3e1a534d	0.15070839
109	0xbd50ecf5	-0.05100723
110	0xbc6e6ce2	-0.014552327
111	0x3d33817c	0.043824658
112	0xbdda0f5e	-0.10647462
113	0xbdb661c5	-0.08905367
114	0xbe178cb8	-0.14799774
115	0xbd2ef999	-0.042718504
116	0x3d1ec854	0.038765267
117	0xbdad1c18	-0.08452624
118	0x3e08e41d	0.13368268
119	0xbe06e384	-0.13172728
120	0x3d68286a	0.056679167
121	0x3d4e9e47	0.050443914
122	0xbcd50fe5	-0.026008556
123	0x3de4149e	0.11136745
124	0x3c95cbeb	0.018285712
125	0x3b3054b9	0.0026905967
126	0xbd899763	-0.06718328
127	0x3cf6915a	0.030098606
